vaee/vae_model.pth (torch, 220496 bytes, 14 tensors)

encoder.0.weight f4 [128, 50]
0	0x3dff97c8	0.12480122
1	0xbd192131	-0.03738517
2	0x3d9b2f40	0.075773716
3	0x3e03c16e	0.12866756
4	0xbd6f6ed2	-0.058455296
5	0xbe0a4df5	-0.13506301
6	0xbe0ae2a7	-0.13563024
7	0x3d6a16fb	0.057150822
8	0x3e005543	0.12532525
9	0xbe03b4e3	-0.12861972
10	0xbc3839ee	-0.01124428
11	0xbdd7f999	-0.10545654
12	0x3cf362b6	0.029710155
13	0xbd84f1e0	-0.064914465
14	0x3da71dff	0.08160018
15	0xbd09e2f4	-0.033663705
16	0x3c04e501	0.008111239
17	0x3d9e3de6	0.0772665
18	0xbe1fc203	-0.15601353
19	0xbe05705a	-0.1303114
20	0xbe1e1e07	-0.15441142
21	0x3da7f39e	0.08200763
22	0xbd937525	-0.07200078
23	0x3d64705c	0.055771217
24	0xbca4184b	-0.020031115
25	0x3d5f9465	0.05458488
26	0x3d650c72	0.055920072
27	0x3d3cc02d	0.04608171
28	0x3af027f0	0.0018322449
29	0xbe0029b9	-0.12515916
30	0x3dc4ae35	0.0960354
31	0xbdddf188	-0.10837084
32	0xbd81aadb	-0.06331416
33	0xbd6f98f2	-0.05849547
34	0xbda887fb	-0.08229061
35	0x3cb9d0c8	0.022682562
36	0x3d90ce8b	0.07070645
37	0xbd9a394a	-0.07530458
38	0x3dc60e02	0.096706405
39	0xbd2442dc	-0.040102825
40	0xbd4bcaa9	-0.04975382
41	0xbcc78d21	-0.024359288
42	0x3de57177	0.11203282
43	0xbdd971fd	-0.10617445
44	0xbd4760a4	-0.048676148
45	0xbdb68c84	-0.0891352
46	0xbdc15789	-0.09440524
47	0x3dbd9062	0.092560545
48	0xbe01ab9a	-0.12663117
49	0x3cd83764	0.0263936
50	0x3d9ca677	0.07648938
51	0x3d95d3dd	0.073158
52	0x3dcc8477	0.09986203
53	0x3e0aff5a	0.13573971
54	0x3dcc0ea9	0.09963734
55	0xbc08ec78	-0.00835716
56	0xbd51ad72	-0.0511908
57	0x3d18e36d	0.037326265
58	0x3df22723	0.11823871
59	0x3e03f760	0.12887335
60	0xbda0f5d3	-0.07859387
61	0x3dc1dd0d	0.0946599
62	0xbe017da9	-0.12645592
63	0x3dfe219d	0.12408755
64	0xbda986db	-0.08277675
65	0x3e143b4b	0.14475743
66	0x3dbd9995	0.09257809
67	0xbc0b7d11	-0.008513705
68	0xbc87a338	-0.016557321
69	0x3e010aaa	0.12601724
70	0x3d3fc29e	0.04681646
71	0x3c54b0e6	0.012981629
72	0xbdcf3492	-0.10117449
73	0x3d56e6f3	0.052466344
74	0x3d90d38d	0.070716
75	0x3d50efd0	0.051009953
76	0x3c9eb58b	0.019373676
77	0x3cff2c20	0.03114897
78	0x3d15c6c4	0.03656651
79	0x3d8a22ac	0.067448944
80	0x3dfd72ca	0.1237541
81	0x3c98f47b	0.018671265
82	0x3df4b73b	0.11949011
83	0xbdad07dc	-0.08448765
84	0xbd5742dc	-0.052553996
85	0xbdd3d998	-0.10344237
86	0xbdd28030	-0.10278356
87	0x3ccb5a59	0.024823355
88	0xbcda6448	-0.026659146
89	0x3cbfc3d9	0.023408817
90	0x3d77e811	0.06052405
91	0x3bcbb698	0.006216835
92	0xbda5736d	-0.08078656
93	0x3df5517a	0.11978431
94	0xbde37914	-0.11107078
95	0x3d0dc78c	0.03461413
96	0xbce50f09	-0.02796127
97	0xbd80d245	-0.06290106
98	0x3d935d18	0.071954906
99	0xbb60b244	-0.0034285942
100	0x3d8f11e2	0.06985833
101	0x3e02658e	0.12734053
102	0xbde1505c	-0.110016555
103	0xbb6d8fa0	-0.0036248937
104	0xbcd7b568	-0.026331618
105	0x3c800ba9	0.01563056
106	0x3d91d300	0.07120323
107	0x3db4fa02	0.08836748
108	0x3d992d02	0.07479288
109	0xbd277361	-0.04088152
110	0xbd74d1dc	-0.05977045
111	0x3ce0a708	0.027423397
112	0x3d80529e	0.06265758
113	0xbd7cd08b	-0.06172232
114	0x3daea64c	0.08527812
115	0x3d76ab4e	0.060221963
116	0x3dacd7dc	0.084396094
117	0xbdd1ca39	-0.10243649
118	0x3df3b82e	0.11900364
119	0xbd8a5037	-0.06753581
120	0x3cbf0ed2	0.023322497
121	0x3d329e57	0.043608036
122	0x3dbcec9c	0.09224817
123	0xbd2b14a7	-0.041767742
124	0x3ca6c42a	0.02035721
125	0x3e0a6d70	0.1351831
126	0x3dfaca24	0.122455865
127	0xbd541bb8	-0.051784247
128	0x3c045589	0.008077034
129	0x3e1683ca	0.14698711
130	0xbd9741f6	-0.07385628
131	0xbdc947df	-0.098281614
132	0xbd814849	-0.063126154
133	0x3d0b8f4b	0.0340722
134	0xbd42b0da	-0.04753194
135	0x3e0e0f8e	0.13873121
136	0x3e0708b2	0.13186911
137	0x3db0ab6a	0.08626445
138	0x3e1431b4	0.14472085
139	0x3c2efb5a	0.010680044
140	0x3e0c2e28	0.13689482
141	0x3dd310dd	0.10305951
142	0x3cab87d0	0.020938784
143	0x3cd6124c	0.026131772
144	0x3e132b73	0.14372043
145	0xbb5e3493	-0.0033905848
146	0x3d66114b	0.056168836
147	0xbdb0e3ec	-0.08637223
148	0xbdb6888a	-0.089127615
149	0x3e04527b	0.12922089
150	0xbd62f796	-0.055411898
151	0x3c4b7edc	0.012420382
152	0xbde5300d	-0.111908056
153	0x3dd1431e	0.1021788
154	0xbc5fea6a	-0.0136667285
155	0xbd6627e4	-0.056190386
156	0xba275734	-0.0006383539
157	0xbd69fd70	-0.057126462
158	0x3d362eb4	0.044478133
159	0x3cec357c	0.028834097
160	0xbdf23438	-0.11826366
161	0xbd3de0bb	-0.046356898
162	0xbdf84447	-0.12122398
163	0x3d424b32	0.047434993
164	0xbc1cab60	-0.009562343
165	0xbdad49ca	-0.0846134
166	0xbde7e625	-0.113231935
167	0xbd1daad7	-0.038493004
168	0xbd9627db	-0.073318206
169	0xbdf9e532	-0.12201919
170	0xbdd624bc	-0.10456225
171	0xbd849226	-0.06473188
172	0x3e0bd843	0.13656716
173	0xbd1c483b	-0.03815482
174	0xbd067a64	-0.032831565
175	0xbc0e4eae	-0.008685751
176	0x3dd9a280	0.106266975
177	0x3dc9ecb2	0.09859599
178	0xbd9d46c1	-0.07679511
179	0x3b8187e3	0.0039529665
180	0xbdef773c	-0.11692664
181	0xbdcfa982	-0.10139753
182	0xbd42ed38	-0.04758951
183	0xbddb59ab	-0.10710462
184	0x3d9f950e	0.07792102
185	0x3d6855a3	0.056722295
186	0x3d02c55d	0.0319265
187	0x3dfa1b34	0.1221222
188	0x3dd46ce8	0.10372335
189	0x3d9c09ea	0.076190785
190	0xbcd924f2	-0.026506875
191	0x3d9d1817	0.076706104
192	0x3d2e3ff1	0.042541448
193	0x3cf63971	0.030056687
194	0x3da9966c	0.08280644
195	0x3db0de50	0.08636153
196	0xbc7a9892	-0.015295165
197	0xbd94662c	-0.0724605
198	0xbd3c3659	-0.045950267
199	0xbd396dac	-0.045270607
200	0x3cead49a	0.02866583
201	0x3dff966b	0.12479862
202	0x3e096fdf	0.13421582
203	0x3d964e64	0.073391706
204	0x3def3018	0.11679095
205	0xbd08bb04	-0.033381477
206	0xbbc3a617	-0.005970727
207	0xbdb7fbe1	-0.08983589
208	0x3e0df0c1	0.13861372
209	0x3dec55fd	0.115398385
210	0x3c947981	0.018124344
211	0x3cae16f8	0.021251187
212	0xbc0ba808	-0.0085239485
213	0x3d2f348f	0.042774733
214	0x3d6dbf1c	0.058043584
215	0xbd081e7f	-0.03323221
216	0xbda2185d	-0.07914803
217	0x3c9be149	0.019028323
218	0x3d8a1e00	0.06744003
219	0x3cf491f0	0.029854745
220	0x3d895f0e	0.06707583
221	0x3d1190a0	0.035538316
222	0x3df98f27	0.12185507
223	0xbc81ad38	-0.015829667
224	0xbdd8a1c8	-0.10577732
225	0x3e053e24	0.13011986
226	0xbc6ef270	-0.014584169
227	0x3dda7ecf	0.10668718
228	0x3deb3093	0.11483874
229	0xbd51b3a2	-0.0511967
230	0x3e07db62	0.13267282
231	0xbd9f8289	-0.077885695
232	0xbcb2f0c7	-0.021843327
233	0x3d9d5231	0.076816924
234	0xbd0ded9e	-0.034650438
235	0x3e12758f	0.14302658
236	0xbdbdc11e	-0.0926535
237	0xbccef787	-0.025264515
238	0xbba8d3a6	-0.0051521836
239	0x3dd6139a	0.104529575
240	0xbe023aa1	-0.12717678
241	0x3dc6d12e	0.097078666
242	0x3dcfa764	0.10139349
243	0xbd8821f9	-0.06647105
244	0xbca54ba3	-0.020177668
245	0x3bc3ec36	0.0059790863
246	0xbba2971b	-0.004961861
247	0x3d321d8a	0.043485202
248	0xbe17c3c6	-0.14820775
249	0xbe134449	-0.14381517
250	0x3d945106	0.072420165
251	0x3d6a62d2	0.05722315
252	0xbcfdee66	-0.030997466
253	0x3d998ca6	0.0749753
254	0xbdef4d71	-0.11684693
255	0x3d719c21	0.058986787

encoder.0.bias f4 [128]
0	0xbd4df1ff	-0.050279614
1	0x3de3a3c3	0.111152194
2	0x3d677f6e	0.05651801
3	0xbe11bfea	-0.14233366
4	0xbe1d0cfe	-0.15336987
5	0x3e0252cf	0.12726901
6	0xbc99b7d1	-0.018764408
7	0x3e1379f4	0.1440199
8	0x3e242092	0.1602805
9	0x3e01dbc7	0.12681495
10	0xbe04959a	-0.12947693
11	0x3e19a899	0.15005721
12	0xbd95f5ad	-0.073222496
13	0xbe14d0f1	-0.1453283
14	0x3e6a7cbb	0.22899143
15	0x3c4e0d8e	0.012576474
16	0xbdd78830	-0.105240226
17	0xbd3125f6	-0.043249093
18	0x3dec7178	0.1154508
19	0xbd845af7	-0.06462663
20	0x3dca16ed	0.09867654
21	0x3ddd6d12	0.10811819
22	0xbda8ea16	-0.08247773
23	0x3d3cf79f	0.046134587
24	0xbe29a743	-0.16567712
25	0x3d1234c4	0.035694852
26	0x3c47f328	0.012203969
27	0xbde73b0e	-0.11290561
28	0xbe0ef986	-0.13962373
29	0xb9ae2fa9	-0.00033223376
30	0x3e1f56da	0.15560475
31	0xbddcf566	-0.107889935
32	0x3e001b38	0.12510383
33	0xbe04ad94	-0.1295684
34	0x3cb05b65	0.021527955
35	0x3dbc7f53	0.09203973
36	0xbe0357c2	-0.12826446
37	0xbdfc0a26	-0.12306623
38	0xbe20d15e	-0.15704867
39	0xbd8b6cff	-0.06807899
40	0xbdeb71f3	-0.114963435
41	0xbe29623a	-0.16541377
42	0xbd7fa194	-0.062409952
43	0x3c62a384	0.0138329305
44	0x3e4fa572	0.20277956
45	0x3bb9bbf1	0.0056681563
46	0xbe10ecb1	-0.1415279
47	0x3e06efc8	0.13177407
48	0x3c28cb9d	0.010302451
49	0x3c991a83	0.0186894
50	0x3deb1530	0.114786506
51	0xbe40eac2	-0.18839553
52	0xbd5b583c	-0.053550944
53	0x3dfde02b	0.12396272
54	0xbd62c83b	-0.055366736
55	0xbdafd3ee	-0.08585344
56	0xbc543535	-0.012952139
57	0x3e608159	0.21924342
58	0x3d8de294	0.06927982
59	0x3d89ee5e	0.06734918
60	0x3bf12824	0.0073595215
61	0x3e0c6800	0.13711548
62	0x3e357b48	0.1772281
63	0x3e3e96cd	0.18612213
64	0x3bbb0769	0.0057076705
65	0xbdad5cc5	-0.0846496
66	0x3df8f6ee	0.12156473
67	0xbda95bec	-0.08269486
68	0xbe3543e9	-0.17701687
69	0x3d984b7c	0.074362725
70	0x3c78f6de	0.0151955765
71	0x3e627636	0.22115406
72	0x3db71cf4	0.08941069
73	0xbb51695e	-0.0031953673
74	0x3df44936	0.119280264
75	0xbd94f9ab	-0.07274183
76	0x3e295384	0.16535765
77	0xbe07af03	-0.13250355
78	0xbdb09eb9	-0.08624024
79	0x3cee275e	0.029071506
80	0xbd434efc	-0.047682747
81	0x3c8a9910	0.016918689
82	0xbd747d70	-0.05968994
83	0x3ded7bdc	0.1159589
84	0xbc7f74ee	-0.015591843
85	0xbe2b6fc6	-0.16741857
86	0x3e04aef4	0.12957364
87	0xbddff704	-0.10935786
88	0x3d60dfad	0.054900814
89	0xbc929002	-0.017890934
90	0x3e514365	0.20435865
91	0x3e37907e	0.17926213
92	0xbda9a156	-0.082827255
93	0xbc97f63f	-0.018550036
94	0xbd09abee	-0.03361123
95	0xbdcfae7b	-0.101407014
96	0xbe216f75	-0.15765174
97	0x3dd26503	0.10273173
98	0xbcb489ab	-0.022038301
99	0x3bfb11ee	0.0076620495
100	0x3e163071	0.14666916
101	0x3e073e4b	0.13207357
102	0x3dd4cc34	0.10390511
103	0xbe1f3547	-0.15547667
104	0xbc1655ef	-0.009175762
105	0xbe070922	-0.13187078
106	0x3dfdd277	0.123936586
107	0x3d583143	0.052781355
108	0x3d93805d	0.07202218
109	0x3d8ef056	0.06979434
110	0x3cfe36e6	0.031032037
111	0x3cb561c0	0.022141337
112	0xbd5ac46a	-0.05340997
113	0xbd0b92fb	-0.03407572
114	0x3db64c3b	0.089012586
115	0xbbd2e0f0	-0.006435506
116	0x3d1510de	0.03639304
117	0x3d9b2c38	0.075767934
118	0x3e0756c2	0.13216689
119	0xbe098615	-0.13430054
120	0xbdc558a0	-0.096360445
121	0x3cb20f8f	0.021735935
122	0xbbf6262f	-0.007511876
123	0xbdb2af2f	-0.0872482
124	0x3dce2d8a	0.1006728
125	0x3d9f52d5	0.07779471
126	0x3d175af7	0.036951985
127	0x3d44cfed	0.048049856

encoder.2.weight f4 [128, 128]
0	0x3cbdaa95	0.023152629
1	0x3cd43b93	0.025907313
2	0x3dac95b2	0.084269896
3	0xbda0d48d	-0.07853041
4	0xbdc82d7b	-0.097743
5	0xbc60a873	-0.013712036
6	0xbd913b98	-0.07091445
7	0x3c2949a7	0.0103325015
8	0x3dcb716c	0.09933743
9	0x3cb8d932	0.022564504
10	0xbdad871a	-0.08473034
11	0xbd1f43f1	-0.038883153
12	0x3d3f933f	0.046771284
13	0xbc2e87e3	-0.010652515
14	0xbd2c8f02	-0.04212857
15	0xbc2435eb	-0.010022621
16	0x3d3125a0	0.043248773
17	0xbd850abf	-0.0649619
18	0x3d906a9f	0.07051586
19	0xbda1c5af	-0.07899033
20	0xbc978bf9	-0.018499361
21	0x3dd7dee0	0.10540557
22	0x3c2bcbcc	0.010485601
23	0xba0e3128	-0.0005424195
24	0xbde23bd7	-0.1104657
25	0xbc81ef6c	-0.015861236
26	0x3d609419	0.054828737
27	0xbc9e815e	-0.019348796
28	0x3cbc8754	0.023013748
29	0xbc99828d	-0.01873901
30	0xbda5ea66	-0.081013486
31	0xbd5e71fa	-0.054307915
32	0x3d798acc	0.060923383
33	0xbdc54b7f	-0.0963354
34	0x3d8369e0	0.064166784
35	0x3dd9ff64	0.10644415
36	0xbd3d1ca9	-0.04616991
37	0x3bdc3b56	0.0067209406
38	0xbd806c5c	-0.06270668
39	0xbd8be2d0	-0.068303704
40	0x3c80322a	0.01564892
41	0xbd9ed1ae	-0.07754837
42	0xbcc74ed6	-0.024329584
43	0x3b8fe540	0.0043913424
44	0x3d2135c2	0.039357908
45	0x3d8f52de	0.069982275
46	0xbd6b5242	-0.057451494
47	0xbcd9e705	-0.026599417
48	0xbd689b87	-0.056788947
49	0x3cdd78a4	0.027035065
50	0xbd2089d0	-0.03919393
51	0x3bef2456	0.0072980328
52	0x3c9bf5f7	0.019038184
53	0xbd8608ce	-0.06544648
54	0x3d0e9cb1	0.0348174
55	0xbcfd8668	-0.030947879
56	0xbc890973	-0.016728139
57	0xbbc2d5d5	-0.005945901
58	0x3de47e58	0.11156911
59	0xbc6ffea0	-0.01464811
60	0x3d8b87ed	0.06813035
61	0x3bc0ab80	0.0058798194
62	0xbd0fa8a6	-0.035072945
63	0x3daa4a0c	0.083149046
64	0x3d9da867	0.07698136
65	0xbc36dc63	-0.011160943
66	0xbd0e38f4	-0.034722283
67	0x3d45d46b	0.04829828
68	0xbd23d6e7	-0.03999987
69	0x3d4e787c	0.05040787
70	0x3c3fa704	0.0116975345
71	0x3d1d2e67	0.03837433
72	0x3d8ce785	0.06880096
73	0x3da2fe65	0.07958678
74	0x3d754c30	0.05988711
75	0x3db66e66	0.089077756
76	0x3dd21ab0	0.102589965
77	0x3d24a537	0.040196624
78	0x3d51115d	0.05104195
79	0xbcb6e31d	-0.022325093
80	0xbd95e03a	-0.073181584
81	0xbd92f6eb	-0.07176002
82	0x3c19869e	0.009370474
83	0x3cdf1fd4	0.027236857
84	0x3badc5c5	0.005303117
85	0x3d14e03f	0.03634667
86	0x3d268e7f	0.04066324
87	0x3c9a3efe	0.018828865
88	0x3dbe6e21	0.09298349
89	0x3d9c9cb5	0.07647077
90	0xbd45bc9a	-0.048275568
91	0x3cc13fa5	0.023589918
92	0x3d8104f9	0.062997766
93	0x3d874bfb	0.06606289
94	0x3a6dc853	0.0009070683
95	0xbdb67a32	-0.08910026
96	0x3d6bfbb6	0.057613097
97	0x3dce9915	0.10087792
98	0x3b7776ef	0.00377601
99	0xbd5629c6	-0.052285932
100	0xbd498b9b	-0.049205404
101	0xbb451a32	-0.0030075428
102	0x3d2155b2	0.039388366
103	0x3bdb90ac	0.006700596
104	0x3da6c9d7	0.08143967
105	0xbdda9f21	-0.10674883
106	0xbd2fbb4c	-0.04290323
107	0x3da56f94	0.080779225
108	0xbb9c0362	-0.0047611455
109	0xbd42f696	-0.047598444
110	0x3b867deb	0.004104366
111	0x3a5bf193	0.00083901844
112	0x3ba5e03d	0.0050621317
113	0xbd1c4159	-0.038148258
114	0x3cd6f886	0.026241552
115	0x3d5ecf9c	0.05439721
116	0x3dcd60e4	0.10028246
117	0x3cdef92a	0.02721842
118	0x3dc1f2c2	0.094701305
119	0xbcc028f1	-0.023457022
120	0x3dabd046	0.083893344
121	0x3cd7409c	0.026275925
122	0x3d77281b	0.060340982
123	0xbd20a33c	-0.039218172
124	0x3d1ded2f	0.038556274
125	0xbda41b30	-0.08012998
126	0xbd896638	-0.0670895
127	0x3d03e410	0.03219992
128	0x3db59948	0.08867127
129	0x3c97a551	0.018511446
130	0x3db7608d	0.089539625
131	0x3c888303	0.016664034
132	0x3b1b33b7	0.0023681947
133	0xbdb5d54d	-0.088785745
134	0xbdb3f405	-0.087867774
135	0xbd2cb1c7	-0.04216173
136	0xbadc833b	-0.0016823778
137	0x3ce671d3	0.028130447
138	0x3dcf746c	0.101296276
139	0x3d7147db	0.058906417
140	0xbd444a40	-0.047922373
141	0xbd1c43f8	-0.038150758
142	0x3cc35cc7	0.02384795
143	0xbda2a08b	-0.079407774
144	0x3ba4ec7c	0.005033074
145	0xbdb3387e	-0.087510094
146	0xbb03cb68	-0.0020110253
147	0xbc5a57df	-0.013326614
148	0xbda2993f	-0.079393856
149	0xbc09aeb8	-0.008403473
150	0x3da325e7	0.07966214
151	0xbd0400aa	-0.032227196
152	0x3c9c6fa9	0.019096212
153	0xbda87b85	-0.082266845
154	0xbd7bb4e4	-0.061451808
155	0xbd876ace	-0.06612168
156	0xbc452ec5	-0.0120350765
157	0xbccfd607	-0.02537061
158	0xbc125f12	-0.008933799
159	0x3d1da0ae	0.038483314
160	0x3c96242b	0.018327793
161	0xbced6d4e	-0.028982785
162	0x3d55806a	0.05212442
163	0x3b66467a	0.0035137222
164	0xbdb1b591	-0.08677209
165	0x3d1d5860	0.03841436
166	0xbd2c5321	-0.042071465
167	0x3dac300f	0.08407604
168	0x3d0323bf	0.032016512
169	0xbb8bbd7b	-0.004264531
170	0x3cfa250a	0.03053524
171	0xbcd2ef26	-0.0257488
172	0x3d5336df	0.051566
173	0xbaaef2fe	-0.0013347564
174	0xbd834e93	-0.06411471
175	0xbd40b468	-0.04704705
176	0x3c5a1216	0.013309976
177	0xbd12609c	-0.035736665
178	0xbdba50e9	-0.09097464
179	0x3ca0f3ea	0.019647557
180	0x3d241713	0.040061068
181	0x3c63b606	0.013898378
182	0x3d400b21	0.046885613
183	0xbcefe13a	-0.029282201
184	0xbd347c04	-0.044063583
185	0xbd36fcb3	-0.044674587
186	0x3da0ef82	0.078581825
187	0xba44d51f	-0.0007508564
188	0xbc80e874	-0.015735842
189	0xbd5bc650	-0.053655922
190	0x3ca827e2	0.02052683
191	0xbcd47b2b	-0.025937637
192	0xbd655835	-0.055992324
193	0x3d134aba	0.035959937
194	0xbdaaa473	-0.083321474
195	0xbda8d8d6	-0.08244483
196	0x3db5489f	0.08851742
197	0xbcd97325	-0.026544163
198	0x3d5aba1c	0.053400144
199	0xbcc3da6f	-0.023907868
200	0x3da2e461	0.07953716
201	0x3cc86ee8	0.024466947
202	0xbcff98ef	-0.031200854
203	0xbcf14c6f	-0.029455392
204	0xbdfd9fb5	-0.12383977
205	0xbc42eba4	-0.011897001
206	0x3d34394c	0.043999955
207	0xbc58704a	-0.013210366
208	0x3ace9a98	0.0015762625
209	0xbd555072	-0.05207867
210	0x3d9f30d5	0.07772986
211	0xbd48e47d	-0.04904603
212	0x3cff4118	0.031158969
213	0xbd9e114e	-0.07718144
214	0xbd63db16	-0.05562886
215	0xbca05f6f	-0.019576756
216	0x3c30874a	0.010774443
217	0xbd4deb7a	-0.050273396
218	0xbdb11b8e	-0.08647834
219	0x3d9b6191	0.07586969
220	0xbd82342f	-0.063576095
221	0xbc2e302d	-0.010631603
222	0x3d0233db	0.031787734
223	0x3d2038dd	0.03911673
224	0x3da5ccd0	0.080957055
225	0x3d8397c2	0.0642543
226	0xbce5556f	-0.02799484
227	0xbd97989f	-0.07402157
228	0x3d8ce596	0.068797275
229	0x3d80c170	0.06286895
230	0xbc012a44	-0.007883612
231	0x3d96da48	0.073658526
232	0xbd8d9f09	-0.06915099
233	0x3d3df114	0.04637249
234	0xbd49e3db	-0.049289566
235	0xbd73dca5	-0.059536595
236	0x3d055a87	0.032557037
237	0x3ca464ba	0.020067561
238	0x3c95932a	0.01825865
239	0x3dab1ee3	0.083555005
240	0x3d9d3cc2	0.07677604
241	0xbcfe58af	-0.031048147
242	0xbd2b0950	-0.041756928
243	0xbce06e7e	-0.027396437
244	0x3ca61d55	0.020277658
245	0x3a12994b	0.00055923004
246	0xbd327989	-0.043572936
247	0x3dbf1270	0.093296885
248	0xbd14c1ec	-0.03631775
249	0x3d5d32c2	0.054003485
250	0x3c654765	0.013994073
251	0xbd166247	-0.03671482
252	0xbd95530d	-0.07291231
253	0xbbe08d18	-0.006852757
254	0x3d8a7015	0.06759659
255	0x3cc07270	0.023492068

encoder.2.bias f4 [128]
0	0x3dcd8a7b	0.10036179
1	0x3d1086ef	0.035284933
2	0x3c9d095e	0.019169506
3	0xbd451eb0	-0.04812497
4	0xbd6986f8	-0.05701348
5	0x3c821e04	0.015883453
6	0x3d3224ab	0.043492
7	0xbbacce54	-0.0052736197
8	0x3dc0dc74	0.09417048
9	0x3d81ba8b	0.063344084
10	0x3c285b62	0.010275694
11	0x3db39556	0.08768718
12	0xbd73c2b5	-0.05951186
13	0xbd4b57a3	-0.049644124
14	0x3c69c16b	0.014267306
15	0x3c5441d8	0.0129551515
16	0xbd1c3a51	-0.038141552
17	0x3d83f68b	0.06443509
18	0x3d99af82	0.075041786
19	0x3cc42c76	0.023946982
20	0x3d48706c	0.04893534
21	0x3db1b3fc	0.086769074
22	0xbcc736ab	-0.02431806
23	0x3cd84c8d	0.02640369
24	0x3dc233fd	0.09482572
25	0x3dc255b8	0.09489006
26	0x3d25548f	0.040363844
27	0x3e0abffb	0.13549797
28	0x3e20e506	0.15712366
29	0x3da977f0	0.082748294
30	0x3d8c12a0	0.0683949
31	0xbda977c0	-0.082747936
32	0x3dca4deb	0.09878143
33	0x3d2d1060	0.042251945
34	0x3d2e8f58	0.042617172
35	0x3b5025fb	0.003176092
36	0x3cb19fda	0.021682668
37	0x3d5aed81	0.053449158
38	0xbd51325b	-0.051073413
39	0x3d2cf0ed	0.042221952
40	0x3db458bc	0.08805987
41	0x3d412a90	0.04715973
42	0x3da0e91c	0.07856962
43	0x3d78cc2b	0.060741585
44	0x3d8c55a9	0.06852276
45	0xbd158423	-0.03650297
46	0x3d58fec4	0.05297734
47	0xbd9be4e1	-0.076120146
48	0x3e2e8f95	0.1704696
49	0x3cd011a4	0.025399037
50	0xbd9adf24	-0.07562092
51	0x3d436be8	0.04771033
52	0x3d04a009	0.032379184
53	0xbdda681f	-0.10664391
54	0x3db38b48	0.087668
55	0x3d929f53	0.07159295
56	0xbd72766e	-0.059194975
57	0xbd075cce	-0.03304749
58	0x3dd2b5d8	0.1028859
59	0xbde59556	-0.11210124
60	0x3d10fa56	0.03539499
61	0xbc96b592	-0.018397126
62	0xbda4efbb	-0.080535375
63	0x3c967b2e	0.018369284
64	0x3dbcea12	0.09224333
65	0x3bbdab64	0.0057882536
66	0xbd0d8ca9	-0.034557972
67	0xbbb1bf24	-0.005424397
68	0xbd7346d7	-0.05939373
69	0x3d73c93f	0.059518095
70	0x3d495021	0.049148683
71	0x3dd6cb3f	0.10487985
72	0xbbe1e749	-0.0068940264
73	0xbdcae17d	-0.0990629
74	0x3da4f0c1	0.08053733
75	0x3dc596ef	0.09647929
76	0x3da16ae2	0.078817144
77	0xbc063a9c	-0.0081926845
78	0xbd81a1db	-0.063296996
79	0xbd427ed3	-0.04748423
80	0x3caf9ab1	0.021436067
81	0x3c347ca1	0.011016042
82	0x3d4fe67b	0.050756913
83	0x3d2cb778	0.042167157
84	0x3d71a652	0.058996506
85	0x3ad04ea6	0.001589258
86	0x3d8c9276	0.06863873
87	0x3c6d5b02	0.01448703
88	0xbcdfe29d	-0.027329737
89	0xbd957ee1	-0.07299591
90	0x3d2c06a5	0.041998524
91	0x3d7db433	0.06193943
92	0xbce83e2c	-0.028349958
93	0x3d503dd5	0.050840218
94	0x3df9d7cd	0.12199364
95	0xbda4b4ca	-0.08042295
96	0xbd5c6af3	-0.053812932
97	0x3d433404	0.047657028
98	0x3d3108ca	0.043221273
99	0x3d11d401	0.035602573
100	0x3dd8d2f6	0.105871126
101	0xbd544cc3	-0.05183102
102	0xbdaa455f	-0.08314013
103	0x3d42611b	0.04745589
104	0xbcba54d7	-0.022745533
105	0x3d4938ed	0.049126554
106	0x3e05b6b4	0.13057977
107	0xbd998cdd	-0.07497571
108	0x3d972363	0.07379796
109	0xbdbb4ac6	-0.09145121
110	0x3dc778b2	0.09739818
111	0xbba8fd0e	-0.0051571196
112	0x3d86dcb3	0.06585064
113	0xbd2241f2	-0.03961367
114	0xbd2c2259	-0.042024944
115	0xbdbb6be0	-0.09151435
116	0x3d4ca25c	0.049959525
117	0x3dbc70e0	0.09201217
118	0x3bd3e75c	0.006466789
119	0xbdb85bda	-0.09001894
120	0x3d594f5d	0.053054202
121	0x3e12dddf	0.1434245
122	0xbd3bc3da	-0.045841075
123	0x3d4c53ed	0.049884725
124	0x3d9b2e7b	0.07577225
125	0xba9de454	-0.0012046196
126	0x3dae0634	0.08497277
127	0x3e17916f	0.14801572

mu.weight f4 [20, 128]
0	0x3d412119	0.047150705
1	0xbda4f010	-0.08053601
2	0xbc6f3d32	-0.014601992
3	0xbd01ec66	-0.031719588
4	0x3db5ce8c	0.08877286
5	0x3db732df	0.0894525
6	0x3d929d64	0.07158926
7	0x3b76d9ad	0.0037666366
8	0x3c3954e9	0.011311748
9	0x3d512a6d	0.05106585
10	0xbdad3be5	-0.084586896
11	0x3b22a52f	0.0024817695
12	0xbd143141	-0.036179785
13	0x3d9be55d	0.07612107
14	0xbd169082	-0.036758907
15	0xbb2e632e	-0.0026609409
16	0xbd14a2db	-0.036288124
17	0x3c85bde4	0.016325898
18	0x3bf151f7	0.0073645073
19	0x3d890607	0.06690603
20	0x3db89a4d	0.090138055
21	0xbd0e6657	-0.034765568
22	0xbd25e7b1	-0.04050416
23	0x3d728b72	0.059215017
24	0xbadc46dc	-0.0016805786
25	0x3c1e0fad	0.009647292
26	0x3d77bd92	0.060483523
27	0xbdaaf5c1	-0.08347655
28	0x3d637494	0.0555311
29	0xbcb8515b	-0.02249973
30	0x3d907f28	0.07055503
31	0x3c85bfc1	0.016326787
32	0x3dc4890e	0.095964536
33	0xbd98a03b	-0.074524365
34	0x3c85b1a7	0.016320063
35	0xbc47ab4d	-0.012186837
36	0xbd899bac	-0.06719145
37	0x3cf322f5	0.029679755
38	0xbd870906	-0.06593518
39	0x3beb02d3	0.0071719675
40	0x3d959229	0.073032685
41	0xbc21de03	-0.009879592
42	0xbdb45da0	-0.0880692
43	0x3d92eeba	0.0717444
44	0x3cccbea7	0.024993254
45	0xbc6ef847	-0.014585561
46	0x3b94736e	0.004530362
47	0x3dac3d08	0.08410078
48	0xbd97c45f	-0.07410502
49	0xbd5f7f87	-0.05456498
50	0xbda285ee	-0.07935701
51	0x3d35afb4	0.044357017
52	0x3d33c82a	0.043892063
53	0xbd945bdd	-0.07244084
54	0xbb2d2564	-0.0026419992
55	0xbb479b57	-0.003045758
56	0xbd6e8200	-0.058229446
57	0xbc979742	-0.018504743
58	0x3d91566c	0.07096562
59	0xbd353627	-0.044241097
60	0xbbca708a	-0.0061779665
61	0xb9a5554c	-0.00031534804
62	0x3d6a9c4d	0.057277966
63	0xbd47e2c7	-0.048800256
64	0xbcdb7a4c	-0.026791714
65	0x3d027b72	0.031856008
66	0x3df10b36	0.117697164
67	0xbd58c51e	-0.05292236
68	0xbd330553	-0.04370625
69	0xbda58403	-0.0808182
70	0xbcf2f8c2	-0.029659633
71	0xbd917c37	-0.0710377
72	0xbd6376af	-0.055533107
73	0x3b495403	0.003072024
74	0x3d83d213	0.06436553
75	0x3da53f7a	0.08068748
76	0x3d4e04e7	0.050297644
77	0x3ced5e56	0.028975647
78	0xbd61941a	-0.05507288
79	0x3cc07b60	0.02349633
80	0xbd5e7307	-0.054308917
81	0xbd508c5a	-0.0509151
82	0x3d645534	0.05574532
83	0xbc136d6c	-0.008998256
84	0xbd953505	-0.07285503
85	0x3db8c574	0.09022036
86	0x3da101b0	0.0786165
87	0xbd0c0a92	-0.034189768
88	0xbd602380	-0.054721355
89	0xbc4b5c87	-0.012412197
90	0xbd600154	-0.054688767
91	0x3d895895	0.06706349
92	0xbd8aaf46	-0.06771712
93	0xbbec5a67	-0.0072129252
94	0xbcb1d0a8	-0.02170594
95	0xbd71172c	-0.05885999
96	0x3ca30942	0.019901875
97	0x3d8b39f8	0.06798166
98	0x3be81407	0.0070824656
99	0xbdaa033f	-0.083014004
100	0x3d5b4c4a	0.05353955
101	0x3dba68e0	0.091020346
102	0xbd914f77	-0.07095235
103	0x3c8688bf	0.016422627
104	0xbcbfe9f1	-0.023426982
105	0x3d8d2154	0.068911225
106	0x3d716c58	0.058941215
107	0xbd3e03d4	-0.04639037
108	0x3d43dca9	0.04781786
109	0xbc9072c3	-0.017632848
110	0xbd0357b7	-0.032066073
111	0x3d478c1c	0.048717603
112	0xbd7c9b20	-0.061671376
113	0xbc7643f7	-0.0150308525
114	0xbd3d98f9	-0.046288464
115	0x3d5e0877	0.05420729
116	0x3b3ae872	0.0028519896
117	0xbd762efe	-0.06010341
118	0x3d8524f2	0.065011874
119	0x3da07e33	0.078365706
120	0xbd351cd3	-0.044216942
121	0x3d77c2d8	0.06048855
122	0xbc841370	-0.01612255
123	0xbda1004b	-0.07861384
124	0x3d9de860	0.07710338
125	0xbd13249f	-0.035923596
126	0x3d0b7ec4	0.03405644
127	0xbb3385a3	-0.0027392886
128	0xbd7051d8	-0.058671802
129	0xb986d3bf	-0.00025716235
130	0x3dbc5b1c	0.09197065
131	0x3dd1ca69	0.10243685
132	0xbcf801aa	-0.030274231
133	0x3cf1dd7c	0.029524557
134	0xbdfb4b04	-0.122701675
135	0x3de0d980	0.10978985
136	0x3d532572	0.051549383
137	0xbe152113	-0.14563398
138	0x3da947d9	0.08265657
139	0x3d4a6e6c	0.049421713
140	0x3d0eec97	0.0348936
141	0x3d9c83b7	0.0764231
142	0x3dd34086	0.10315041
143	0x3de2eb22	0.11080004
144	0xbc4befb1	-0.012447284
145	0x3ddfcc63	0.109276555
146	0xbd9a9901	-0.075487144
147	0x3d3db710	0.04631716
148	0x3da56ff6	0.080779955
149	0xbe40a723	-0.18813758
150	0x39422084	0.00018513395
151	0xbc427b9b	-0.01187029
152	0xbd11b915	-0.0355769
153	0x3cf9a42c	0.030473791
154	0xbd9aa110	-0.075502515
155	0xbd60f8fd	-0.054924954
156	0xbcefeaec	-0.029286824
157	0xbd1e13fb	-0.038593274
158	0x3da5355f	0.0806682
159	0xbced4425	-0.028963158
160	0xbe0698b0	-0.13144183
161	0xbc6d57ba	-0.014486248
162	0x3cbad9e8	0.022808984
163	0x3d81cb9d	0.06337664
164	0x3ddf8178	0.10913366
165	0x3d497fda	0.049194194
166	0xbd56c968	-0.05243817
167	0x3d494680	0.0491395
168	0xbdea7e58	-0.114498794
169	0xbd7391f3	-0.05946536
170	0x3a8207fb	0.0009920591
171	0x3c943927	0.018093659
172	0x3d02a14a	0.0318921
173	0x3ddddeff	0.10833549
174	0x3dabe7df	0.08393835
175	0xbaaae4b5	-0.0013038131
176	0xbd603652	-0.054739304
177	0x3d5bda3e	0.05367493
178	0x3d89c455	0.067269005
179	0xbc2f9aa1	-0.010718019
180	0x3d283ab4	0.04107161
181	0x3d9cab4b	0.07649859
182	0xbe15eb49	-0.14640535
183	0xbd6293c9	-0.05531672
184	0xbc9ad6c1	-0.01890123
185	0x3d8b4ed5	0.068021454
186	0xbc9da7fb	-0.019245138
187	0xbd8b8115	-0.0681173
188	0xbd285e55	-0.041105587
189	0x3dc25be4	0.09490183
190	0x3c2da809	0.010599145
191	0x3d3effd9	0.046630714
192	0x3d682a93	0.056681227
193	0xbdcf5610	-0.10123837
194	0xbc288a4f	-0.010286882
195	0xbde7ad74	-0.113123804
196	0x3d488b27	0.04896083
197	0xbc7ca11b	-0.01541927
198	0xbde3ded1	-0.11126483
199	0xbd0c639d	-0.034274686
200	0x3dfab938	0.12242359
201	0xbcd47c10	-0.025938064
202	0xbd7ee2af	-0.0622279
203	0xbd5ebfb6	-0.05438205
204	0x3d23d01c	0.03999339
205	0x3d40e95b	0.047097545
206	0x3d4da8c0	0.05020976
207	0xbc8c7097	-0.01714353
208	0x3d5dae35	0.054121215
209	0xbe25668d	-0.16152401
210	0x3dbd798f	0.09251701
211	0xbda0889d	-0.07838557
212	0xbd9a5e5e	-0.0753753
213	0xbd8c6988	-0.06856066
214	0x3d250529	0.040288124
215	0x3d440df3	0.047864866
216	0x3defd146	0.117098376
217	0x3c2f72db	0.010708536
218	0xbcedb577	-0.029017193
219	0xbdae2df4	-0.085048586
220	0xbcc792a6	-0.02436192
221	0x3d8bfafb	0.0683498
222	0xbdf197e2	-0.117965475
223	0x3c38a1cb	0.011269043
224	0x3cd59058	0.026069805
225	0xbe360a77	-0.1777743
226	0xbd4a6a0c	-0.04941754
227	0x3d8614da	0.06546946
228	0xbd1f9f7d	-0.03897046
229	0xbd9c5a2d	-0.07634387
230	0x3dc4c59d	0.09608004
231	0xbd731677	-0.059347596
232	0xbd026e6d	-0.03184359
233	0x3d0f1e1b	0.03494082
234	0x3d27ea56	0.040994965
235	0xbd986a8f	-0.074421994
236	0xbdbbcf44	-0.09170392
237	0x3dbfedc4	0.09371522
238	0xbdac9767	-0.08427315
239	0x3de1a6f1	0.1101817
240	0x3cbf4336	0.023347478
241	0x3da641cf	0.08118021
242	0xbd3ec068	-0.04657021
243	0x3d5b5765	0.053550143
244	0xbcab4945	-0.020908961
245	0xbde3f01a	-0.1112978
246	0xbd58b24c	-0.052904412
247	0x3d1a4432	0.037662692
248	0x3dc77fcd	0.09741173
249	0xbd6c1904	-0.057641044
250	0xbd3d9f45	-0.04629447
251	0x3d04afa4	0.032394066
252	0xbbd4b435	-0.006491209
253	0x3c627d68	0.0138238445
254	0xbd9c4c74	-0.0763177
255	0xbd2422bc	-0.040072188

mu.bias f4 [20]
0	0xbd8e3e5d	-0.069454886
1	0xbd828e1a	-0.0637476
2	0x3cd2d569	0.025736528
3	0x3c80731d	0.01567989
4	0xbcbecaba	-0.023290027
5	0xbb91f005	-0.0044536614
6	0x3d9d30d3	0.07675328
7	0xbd66a1c3	-0.05630661
8	0xbd84bc32	-0.06481208
9	0x3d853a53	0.06505265
10	0xbd82fb6f	-0.063956134
11	0xbd8e8b6d	-0.06960187
12	0xbd8e8949	-0.06959779
13	0x3d82e6f8	0.0639171
14	0xbdc6b213	-0.09701934
15	0xbdbc928f	-0.09207641
16	0xbd433b9e	-0.047664277
17	0x3cc19701	0.023631575
18	0x3d2c5c71	0.042080346
19	0x3a7609a4	0.0009385592

logvar.weight f4 [20, 128]
0	0x3b860517	0.004089962
1	0x3da84740	0.08216715
2	0x3dc4a2da	0.09601374
3	0x3cf0bd49	0.029387133
4	0x3dab70db	0.08371135
5	0x3d767a1a	0.06017504
6	0xbd034af1	-0.03205389
7	0xbd010238	-0.031496257
8	0xbd268866	-0.040657423
9	0x3d36700a	0.044540443
10	0x3d32821e	0.04358112
11	0xbd702797	-0.058631506
12	0x3d42bb9e	0.047542207
13	0x3cad467b	0.021151772
14	0x39b22165	0.00033975687
15	0x3dc46b13	0.09590735
16	0x3b1a88d2	0.0023580086
17	0xbd982d87	-0.07430559
18	0xbd0b5f4f	-0.03402644
19	0xbcd418c7	-0.025890721
20	0xbd68ce71	-0.056837503
21	0xbbad65c9	-0.0052916748
22	0x3d9c8dca	0.076442316
23	0x3d937944	0.07200864
24	0xbda40f8d	-0.080107786
25	0xbd751635	-0.05983563
26	0xbd828343	-0.063726924
27	0x3dcc778a	0.09983738
28	0x3c9ea737	0.019366844
29	0xbb007a59	-0.0019604175
30	0xbdab6965	-0.08369712
31	0xbb572c6d	-0.0032832876
32	0xbcd4ff95	-0.026000777
33	0xbd031224	-0.031999722
34	0x3c6de7af	0.01452057
35	0x3d702a9e	0.058634393
36	0x3c157e97	0.00912442
37	0xbc94b8e5	-0.01815457
38	0x3dbdf8bf	0.0927596
39	0xbc942d5b	-0.018088033
40	0xbc5187c4	-0.012788717
41	0x3d40aa49	0.047037397
42	0xbd649173	-0.055802774
43	0xbd055c46	-0.032558702
44	0xbda0df6c	-0.07855114
45	0xbce94ef8	-0.028480038
46	0x3d28f6f6	0.041251145
47	0x3d8e4eea	0.069486454
48	0xbda013f3	-0.07816305
49	0xbd1464b2	-0.036228843
50	0xbd2f4142	-0.042786844
51	0x3da8288b	0.08210858
52	0x3d921fb6	0.07134955
53	0x3b584854	0.0033002095
54	0x3cd86a5c	0.026417904
55	0xbcc742dc	-0.024323873
56	0xbd716aeb	-0.058939856
57	0xbc6bbb93	-0.014387983
58	0x3d8d91ce	0.06912576
59	0xbd7e337f	-0.06206083
60	0x3c8b9ee1	0.017043533
61	0x3d61e023	0.055145394
62	0xbb85dce7	-0.0040851715
63	0xbba583e7	-0.0050511244
64	0xbd6672b5	-0.056261737
65	0xbd03d4c4	-0.03218533
66	0xbd379eab	-0.044829052
67	0xbd9a28b6	-0.07527296
68	0xbce85d3b	-0.028364768
69	0xbda12d48	-0.07869965
70	0xbda3df5e	-0.08001588
71	0x3c0c2407	0.008553511
72	0x3ca80c4f	0.020513682
73	0x3d571919	0.05251417
74	0x3ce62987	0.028095974
75	0x3d89bf84	0.06725982
76	0x3b0da4cc	0.002161312
77	0x3c0763f0	0.008263573
78	0xbc653530	-0.013989732
79	0x3d9d2e34	0.07674828
80	0xbd52d5ee	-0.05147355
81	0x3d3e5690	0.04646927
82	0x3db11e98	0.086484134
83	0x3cf731b4	0.030175067
84	0xbd089ad0	-0.033350766
85	0xbd4f121c	-0.05055438
86	0x3da5fcab	0.08104833
87	0xbd7aee98	-0.061262697
88	0x3d8376a4	0.06419113
89	0x3c784b23	0.015154633
90	0xbcef86d9	-0.029239105
91	0xbda3d1d9	-0.0799901
92	0x3c2aff06	0.010436779
93	0xbd9082ce	-0.07056199
94	0xbd9b4667	-0.075817876
95	0xbd9b2d21	-0.07576967
96	0xbd1daf64	-0.038497344
97	0xbd77fc9b	-0.060543638
98	0x3c268b17	0.010164998
99	0x3d8a4dcc	0.0675312
100	0xbc6e4f97	-0.014545343
101	0xbd6dd02c	-0.058059856
102	0xbd180b1d	-0.037119973
103	0xbd7b2e92	-0.06132371
104	0xbc2e67f3	-0.010644901
105	0x3d32123e	0.04347443
106	0xbd5dae64	-0.05412139
107	0x3d41d253	0.04731972
108	0xbc0033e6	-0.007824874
109	0x3ddab9c1	0.10679961
110	0xbc6e5d08	-0.014548548
111	0xbcebab47	-0.028768195
112	0x3d997c4e	0.07494412
113	0xb99c0c45	-0.0002976378
114	0x3bb46544	0.005505236
115	0x3df34f11	0.11880315
116	0xbd4e4848	-0.0503619
117	0xbd8f007e	-0.06982516
118	0x3d210cb9	0.039318774
119	0xba745115	-0.00093199435
120	0x3c28246c	0.01026259
121	0x3c49e48d	0.012322557
122	0x3dcce6e0	0.100049734
123	0xbbbcec0c	-0.0057654437
124	0xbd1455d9	-0.036214683
125	0x3dd67f4a	0.10473497
126	0xbbe5065e	-0.0069892844
127	0xbce953ea	-0.028482396
128	0xbcabf7d8	-0.020992205
129	0xbd3f8a32	-0.046762653
130	0x3ca745ee	0.020419087
131	0x3d7dd358	0.06196913
132	0x3d992884	0.07478431
133	0xbd272083	-0.04080249
134	0x3d7e55c6	0.06209352
135	0xba51d762	-0.0008004812
136	0xbd74eafc	-0.05979441
137	0x3cafd359	0.021463083
138	0xbc39c4ed	-0.011338455
139	0xbc45179b	-0.012029554
140	0x3dbed42f	0.093178146
141	0x3cc94b70	0.024572104
142	0xbdc7bfc8	-0.09753376
143	0xbd9d70d2	-0.076875344
144	0xbd275c06	-0.040859245
145	0xbaeb80bd	-0.0017967444
146	0x3c95e52d	0.018297756
147	0x3d970484	0.07373908
148	0xbd434009	-0.04766849
149	0xbd8bb077	-0.068207674
150	0xbd91b675	-0.07114879
151	0x3cc7fedf	0.024413524
152	0xbd533f13	-0.051573824
153	0xbd5bafda	-0.053634502
154	0x3d9bc46b	0.07605823
155	0xbd89f3d1	-0.067359574
156	0xbe0e04a9	-0.13868965
157	0xbc8b4e95	-0.017005244
158	0xbd8db846	-0.06919913
159	0xbc51620f	-0.012779727
160	0xbda82b9f	-0.08211445
161	0xbd4b83e7	-0.04968634
162	0xbd5dc9d9	-0.054147575
163	0xbd947a89	-0.07249934
164	0x3d1fdd73	0.03902955
165	0x3c3d43e5	0.011551832
166	0xbda30d35	-0.079615034
167	0xbd07fc80	-0.033199787
168	0x3d26b045	0.040695447
169	0xbcd3d82f	-0.02585992
170	0x3ca85302	0.020547394
171	0xbdc80334	-0.09766236
172	0xbc4cdee9	-0.012504318
173	0xbca048e7	-0.019566013
174	0x3c88d40c	0.016702674
175	0x3d8b137a	0.06790824
176	0xbe03544b	-0.12825124
177	0xbde25d90	-0.11053002
178	0xbd88f7f1	-0.06687916
179	0xbc186059	-0.009300315
180	0xbcac2dbb	-0.0210179
181	0xb9b9c692	-0.00035433896
182	0x3cee7720	0.029109538
183	0xbd7118b9	-0.058861468
184	0xbd06ff9e	-0.03295862
185	0xbe0790af	-0.13238786
186	0xbcd42410	-0.025896102
187	0x3c5a9a26	0.013342416
188	0x3d248058	0.04016146
189	0x3d03ff5c	0.03222595
190	0xbd897a37	-0.06712764
191	0x3d476384	0.04867889
192	0xbd0297a7	-0.03188291
193	0xbda449d0	-0.08021891
194	0x3dba4001	0.09094239
195	0xbdc2fc7a	-0.09520812
196	0x3e09e928	0.13467848
197	0xbd537d73	-0.05163331
198	0xbdfd9987	-0.12382799
199	0xbd35f53e	-0.044423334
200	0xbdb2dc6e	-0.0873345
201	0x3dfaa60f	0.122387044
202	0xbd9c9023	-0.076446794
203	0xbdb35d09	-0.087579794
204	0x3d484809	0.048896823
205	0xbe0ac92e	-0.13553306
206	0xbd881eb2	-0.0664648
207	0xbda4cde4	-0.08047083
208	0xbd07fee6	-0.033202074
209	0x3d6734a3	0.056446683
210	0xbc7acaa0	-0.015307099
211	0x3d3edff5	0.0466003
212	0xbc0e2566	-0.008675909
213	0xbd69d887	-0.057091262
214	0x3c5dbb3d	0.013533411
215	0xbca370c8	-0.01995124
216	0xbd0f35c2	-0.034963377
217	0x3da26025	0.07928494
218	0xbdb586f1	-0.08863629
219	0xbdfffa1f	-0.12498879
220	0xbdbe681d	-0.09297202
221	0x3bd32fee	0.0064449226
222	0xbd8c20b8	-0.06842178
223	0x3d2f2d34	0.04276772
224	0xbc877442	-0.016534928
225	0xbda5a4f9	-0.08088107
226	0xbbdf90af	-0.0068226676
227	0xbd64b956	-0.055840813
228	0xbc4879ef	-0.0122361025
229	0x3d091c9f	0.03347456
230	0xbbec70c3	-0.0072155907
231	0xbbd5caa2	-0.0065244
232	0x3d116ff4	0.035507157
233	0xbdd52d28	-0.104090035
234	0xbdb9780a	-0.09056099
235	0x3dfaf6bc	0.12254092
236	0xbd9525d0	-0.07282603
237	0x3c16b166	0.0091975685
238	0xbe027089	-0.12738241
239	0x3b94cac4	0.004540773
240	0x3d8ab303	0.06772425
241	0xbdacd34f	-0.084387414
242	0x3d9deaa9	0.077107735
243	0x3de543de	0.11194585
244	0xbd7a8834	-0.06116505
245	0xbd1b4fd9	-0.037917946
246	0x3d114680	0.035467625
247	0xbcb24215	-0.021760026
248	0xbd727748	-0.059195787
249	0xbca01dbc	-0.019545428
250	0x3d059194	0.032609537
251	0x3b9948a7	0.0046778503
252	0xbdcb749e	-0.09934352
253	0xbda01928	-0.07817298
254	0xbd84012c	-0.06445536
255	0xbdea2474	-0.11432734

logvar.bias f4 [20]
0	0xbdd19c22	-0.10234858
1	0xbcd1de04	-0.02561856
2	0x3cb026e9	0.021502929
3	0x38a5151b	7.871744e-05
4	0xbd9b1775	-0.075728334
5	0xbd365b50	-0.044520676
6	0xbc5a0fe7	-0.0133094555
7	0x3cc1085f	0.023563562
8	0x3b45876a	0.0030140528
9	0xbd6f2282	-0.05838252
10	0xbda13fcf	-0.07873499
11	0xbe323afc	-0.17405313
12	0x3d828ba0	0.063742876
13	0xbcf099fb	-0.029370299
14	0xbd9fb2af	-0.07797753
15	0xbda90585	-0.08253006
16	0x3d862cae	0.06551491
17	0x3ccdd0e0	0.025124013
18	0xbdbcc73c	-0.092176884
19	0xbd82f261	-0.06393886

decoder.0.weight f4 [128, 20]
0	0xbe19ecbd	-0.15031715
1	0x3d45ac68	0.048260123
2	0xbe1b7e56	-0.15184912
3	0x3dd7d262	0.10538174
4	0xbd9f63e6	-0.07782726
5	0x3e4aef97	0.19817959
6	0x3e155805	0.14584358
7	0xbe227980	-0.15866661
8	0xbda034ae	-0.07822548
9	0x3da4310d	0.08017168
10	0xbe40998f	-0.18808578
11	0x3d887187	0.066622786
12	0xbd59124d	-0.05299597
13	0x3e438a6e	0.19095775
14	0xbe411c45	-0.1885844
15	0xbdc8f58e	-0.09812461
16	0xbdd30899	-0.10304374
17	0xbc20a52b	-0.009805004
18	0xbe0adee6	-0.13561592
19	0x3db2fc29	0.08739502
20	0x3d78cf41	0.060744528
21	0x3c138f6e	0.009006364
22	0x3d23ec7a	0.040020443
23	0xbe1757cc	-0.14779586
24	0x3e42d1bc	0.1902532
25	0xbe03cf26	-0.1287199
26	0xbe45590a	-0.19272247
27	0x3d3d5ef5	0.046233136
28	0x3dff2b95	0.124594845
29	0xbe36bcc2	-0.17845443
30	0x3e0dbcf2	0.13841608
31	0x3ce7afa2	0.02828199
32	0xbe3ee7af	-0.18643068
33	0xbe697936	-0.22800145
34	0xbe3107f1	-0.17288186
35	0xbcc7179d	-0.024303252
36	0xbd2ef926	-0.042718075
37	0x3e4a012e	0.19727013
38	0xbc805612	-0.015666042
39	0xbe29d6f6	-0.16585907
40	0x3dba19e8	0.090869725
41	0x3e71a798	0.23599088
42	0xbe09a2b8	-0.13440979
43	0x3d6f7cf7	0.058468785
44	0x3de8628e	0.11346923
45	0x3e101eb8	0.14074218
46	0x3e3a7e30	0.18212199
47	0xbd97dc9c	-0.07415125
48	0xbc84a1d2	-0.016190443
49	0x3e1cd1a4	0.15314347
50	0x3ddb5bd9	0.10710878
51	0x3e4301a1	0.1904359
52	0xbe056a0f	-0.1302874
53	0xbd91415e	-0.07092546
54	0xbdb9a182	-0.09064008
55	0x3cebeb08	0.028798595
56	0xbc46130a	-0.0120895
57	0xbd27b77d	-0.040946472
58	0xbd97e3f0	-0.074165225
59	0xbe2647b8	-0.16238296
60	0xbe39ca5a	-0.18143597
61	0xbd6befdc	-0.057601795
62	0x3aa1fc02	0.0012358429
63	0x3cb37a14	0.021908797
64	0x3de5a803	0.11213686
65	0x3dc59db7	0.09649222
66	0xbe4a1911	-0.19736125
67	0x3e1caecf	0.15301059
68	0x3c264b12	0.010149734
69	0x3e57bb70	0.21067595
70	0x3d7eba67	0.062189486
71	0xbe2dbe33	-0.16967086
72	0xbd3e4832	-0.04645557
73	0xbe3508ad	-0.17679091
74	0x3c22e934	0.009943295
75	0xbe1410a3	-0.14459471
76	0x3cfdb2c2	0.030969027
77	0x3d4b2941	0.04959989
78	0xbd95f094	-0.07321277
79	0xbd194841	-0.037422422
80	0xbdba5875	-0.09098903
81	0xbe4846b4	-0.19558221
82	0xbe06bcd2	-0.13157967
83	0xbe00ee69	-0.12590946
84	0x3e0c1295	0.13678963
85	0x3e2a6053	0.16638307
86	0xbd180125	-0.037110467
87	0x3e4f9f53	0.20275621
88	0xbc86ad5e	-0.01644009
89	0xbe1f773f	-0.15572833
90	0xbd75f705	-0.06005003
91	0x3e808c0c	0.25106847
92	0xbe176c3a	-0.14787379
93	0x3e29063d	0.16506286
94	0x3e1f4ef4	0.15557462
95	0x3dcf57ab	0.10124143
96	0xbe3880c3	-0.18017869
97	0xbd1ea092	-0.03872735
98	0x3d2ed52f	0.042683776
99	0x3e231338	0.159253
100	0xbe3a40a0	-0.18188715
101	0xbe01ec13	-0.12687711
102	0xbcdfe96e	-0.027332988
103	0xbe233be7	-0.1594082
104	0xbe0d5dd8	-0.1380533
105	0x3e10ce55	0.1414121
106	0x3e1e22a8	0.15442908
107	0xbd9d3354	-0.07675806
108	0xbb4e83c0	-0.0031511635
109	0x3e4bb841	0.19894506
110	0xbe4ba652	-0.19887665
111	0x3d15dcaa	0.036587395
112	0x3d2783b7	0.040897097
113	0x3e45356c	0.1925866
114	0x3cdc9629	0.02692707
115	0xbdda1b85	-0.1064978
116	0x3d26e293	0.04074342
117	0xbd9adf55	-0.075621285
118	0xbd42526f	-0.047441896
119	0xbe271291	-0.16315676
120	0x3cbdd50c	0.023172878
121	0xbc4cdccd	-0.012503815
122	0x3d3f3a08	0.046686202
123	0x3e3054e1	0.17219879
124	0xbdea4736	-0.11439364
125	0x3df64a27	0.12025862
126	0x3de81527	0.113321595
127	0x3e3e583f	0.1858835
128	0x3e3b064a	0.18264118
129	0x3ddef5ce	0.10886727
130	0xbcb06f7f	-0.02153754
131	0xbdf547f5	-0.11976615
132	0xbb93ed1f	-0.004514351
133	0x3e2ae70d	0.16689701
134	0xbd6037be	-0.05474066
135	0xbe0cc10d	-0.13745518
136	0xbd3ec8a1	-0.046578053
137	0xbe25f6d2	-0.16207436
138	0xbe191d9f	-0.14952706
139	0x3d84c3b6	0.064826414
140	0x3dd6dbec	0.104911655
141	0x3e3aafdb	0.18231146
142	0x3e48caf7	0.19608675
143	0x3db66ceb	0.08907493
144	0xbd7c91e8	-0.061662585
145	0x3d428a0e	0.04749494
146	0xbd8c499a	-0.06849976
147	0x3c35bad3	0.011091906
148	0x3d88bc92	0.06676592
149	0xbdf4fa5e	-0.11961816
150	0x3df7b85e	0.12095712
151	0x3e73f19d	0.23822637
152	0xbd584c25	-0.052806992
153	0xbd041999	-0.032250974
154	0x3e44350e	0.19160864
155	0x3e313905	0.17306907
156	0xbdd233c6	-0.10263781
157	0xbe06f6ed	-0.13180132
158	0xbe37db90	-0.1795485
159	0x3e37bcde	0.17943141
160	0x3c3a2a7f	0.011362671
161	0xbe0db117	-0.13837086
162	0xbd9edba1	-0.07756735
163	0xbe3d40ab	-0.184817
164	0x3e4bd6de	0.19906184
165	0xbe0cf558	-0.13765466
166	0xbe37149c	-0.17878956
167	0xbdb7f80a	-0.089828566
168	0xbd4019d6	-0.04689964
169	0x3deb13fc	0.11478421
170	0x3e0928fe	0.13394544
171	0x3e8fcdba	0.28086644
172	0xbe270e7c	-0.16314119
173	0x3d3009cc	0.042978093
174	0x3e3c263b	0.18373959
175	0x3e38a6f0	0.18032432
176	0x3c988ac0	0.018620849
177	0xbd2f698d	-0.04282527
178	0x3d5de1ef	0.054170545
179	0x3de55a6e	0.11198889
180	0xbc6adc3b	-0.014334734
181	0x3defae42	0.11703159
182	0xbd953153	-0.072847985
183	0x3e1dc3fd	0.15406795
184	0xbe1e4562	-0.15456155
185	0x3e2c9824	0.16854912
186	0x3cfef786	0.031123888
187	0xbdafc6d5	-0.08582846
188	0xbd86abfa	-0.06575771
189	0xbe5054b6	-0.20344815
190	0x3e4ae3ae	0.19813415
191	0x3d31e01c	0.043426618
192	0xbb7871d6	-0.0037909648
193	0x3c91551f	0.017740784
194	0xbd443302	-0.047900207
195	0xbe17365f	-0.14766835
196	0xbd84a46d	-0.06476674
197	0xbe31247e	-0.17299077
198	0xba9a22af	-0.0011759604
199	0xbdc37449	-0.09543664
200	0x3d44b807	0.048027065
201	0xbe0c906f	-0.13726972
202	0xbd10184a	-0.035179414
203	0x3e3ca531	0.1842239
204	0xbd6d3677	-0.05791327
205	0xbe0a2469	-0.13490452
206	0x3e28c8c7	0.1648284
207	0xbd7d25cf	-0.061803635
208	0x3e259b7f	0.16172598
209	0xbdf358a2	-0.1188214
210	0x3e174dd8	0.14775789
211	0xbd85f120	-0.065401316
212	0x3bb4e272	0.0055201584
213	0x3bc59b04	0.006030442
214	0xbe00b76e	-0.12569973
215	0x3db72ff6	0.08944695
216	0xbdf598d8	-0.11992043
217	0xbd439ecd	-0.047758866
218	0x3ce1f556	0.027582806
219	0xbdd7d90b	-0.105394445
220	0xbda77d2b	-0.08178171
221	0x3e74ee77	0.23919092
222	0x3db5eaca	0.08882673
223	0x3e048968	0.12943041
224	0x3e3a6b7c	0.18205065
225	0x3ce88b1a	0.028386641
226	0xbd2d1e61	-0.0422653
227	0x3e115ccc	0.14195555
228	0xbd5396fc	-0.05165766
229	0xbe30b106	-0.17255029
230	0xbdd7eb8e	-0.10542975
231	0x3e6c4380	0.23072624
232	0xbdab34f6	-0.08359711
233	0x3cee8b7b	0.029119244
234	0xbdd8032b	-0.10547479
235	0x3d735f7d	0.059417237
236	0xbdc6dd1f	-0.09710144
237	0x3e25fc7f	0.16209601
238	0xbd8f7aa4	-0.07005814
239	0x3dc1e9b1	0.09468401
240	0x3e33da7d	0.17563815
241	0x3e512f37	0.20428167
242	0xbe48fdcd	-0.19628067
243	0xbcc69e0a	-0.02424528
244	0xbe3214a1	-0.17390682
245	0x3d730a5a	0.059336044
246	0x3d856f88	0.065154135
247	0x3e39b8c2	0.18136886
248	0xbe301084	-0.171938
249	0x3da20a55	0.07912127
250	0xbdf95b7a	-0.12175651
251	0xbd75d89e	-0.060021035
252	0xbd84031b	-0.06445905
253	0xbd6e7757	-0.05821928
254	0x3e42f78f	0.19039749
255	0xbe363612	-0.17794064

decoder.0.bias f4 [128]
0	0xbe308bd5	-0.17240842
1	0xbe482b76	-0.19547829
2	0xbe154360	-0.14576483
3	0x3db0f573	0.08640566
4	0xbd7b5017	-0.061355677
5	0xbd973fe2	-0.073852316
6	0xbccdabfb	-0.02510642
7	0x3d8d1338	0.06888431
8	0xbe022798	-0.12710416
9	0x3e2898fc	0.16464609
10	0xbe160273	-0.14649372
11	0x3e01ceb8	0.12676513
12	0x3e2ee6ff	0.17080306
13	0xbde422cb	-0.11139449
14	0x3d0d88df	0.03455436
15	0x3e0d475e	0.13796756
16	0x3d3f48f7	0.046700444
17	0x3e0a7445	0.13520916
18	0xbd8fdf82	-0.070250526
19	0x3e05bdd5	0.13060696
20	0xbe36d06c	-0.17852944
21	0x3d25df25	0.04049601
22	0xbd4ea1a3	-0.050447118
23	0x3d81287b	0.06306549
24	0xbe304488	-0.17213643
25	0x3dcd8d5c	0.10036728
26	0x3c66f5f9	0.01409673
27	0xbda6b48a	-0.08139904
28	0x3e698141	0.22803213
29	0x3db51ad6	0.08843009
30	0x3da7121b	0.0815775
31	0x3d2876a8	0.041128784
32	0xbe2423c8	-0.16029274
33	0xbe2f57dc	-0.1712336
34	0x3e1f0e2b	0.15532748
35	0x3dbc6997	0.09199827
36	0xbcd87591	-0.026423248
37	0x3e592d0d	0.21208592
38	0x3d011742	0.03151632
39	0x3e04a2a3	0.12952666
40	0x3dfd7982	0.123766914
41	0x3e2bd7a5	0.1678148
42	0x3c59dca7	0.0132972365
43	0x3e1553cd	0.14582749
44	0x3e2eaba2	0.1705766
45	0xbb966285	-0.004589381
46	0x3dd767fe	0.10517882
47	0x3d688213	0.056764673
48	0x3e3ca927	0.18423901
49	0x3e073159	0.13202418
50	0x3e16a896	0.14712748
51	0xbe3c9918	-0.18417776
52	0xbc9d753f	-0.019220946
53	0x3e5160ff	0.20447157
54	0xbe22b785	-0.1589032
55	0xbe13c133	-0.14429168
56	0xbe0cf185	-0.13764007
57	0xbe2d9391	-0.16950823
58	0x3e15961b	0.14608042
59	0x3d2b1a2d	0.04177301
60	0xbe14b343	-0.14521508
61	0xbdd74047	-0.10510307
62	0xbe4c2903	-0.1993752
63	0x3e10c10d	0.14136143
64	0x3cc432e2	0.023950044
65	0x3e5a8484	0.21339613
66	0xbdbeee8d	-0.09322844
67	0x3d190fd8	0.037368625
68	0x3dba707a	0.091034845
69	0x3e5d6a78	0.21622646
70	0x3e86231b	0.26198658
71	0xbe53580e	-0.20639059
72	0xbdd01ab2	-0.10161342
73	0xbd85f174	-0.06540194
74	0x3df2a428	0.118477166
75	0xbde99fea	-0.11407454
76	0xbd7a2298	-0.061068147
77	0xbc360777	-0.011110178
78	0x3e305e03	0.17223363
79	0x3e7ceb63	0.24699168
80	0x3d5fadf7	0.054609265
81	0xbcf948f4	-0.030430295
82	0x3d21f962	0.03954447
83	0xbd9023e4	-0.070380956
84	0x3cea221f	0.028580723
85	0x3d30c767	0.043158915
86	0x3baf6a5b	0.0053532547
87	0x3e1cb290	0.15302491
88	0xbdc46980	-0.09590435
89	0x3d97267b	0.073803864
90	0x3dfc723e	0.123264775
91	0x3e06b63d	0.13155456
92	0xbd249f3b	-0.040190917
93	0xbdde4164	-0.10852316
94	0x3e17d7e4	0.1482845
95	0x3e5df5d0	0.21675801
96	0xbcaa3d2a	-0.020781118
97	0x3e339e96	0.17540964
98	0x3e14d047	0.14532577
99	0x3e81947c	0.25308597
100	0xbe4cb9fb	-0.19992821
101	0x3dd143b7	0.10217994
102	0x3dbc86b0	0.09205377
103	0x3e7509e9	0.23929562
104	0x3c9ae76a	0.018909175
105	0xbd44ec4a	-0.048076905
106	0xbdeeb406	-0.116554305
107	0xbe3a32e8	-0.18183482
108	0xbe6eefb0	-0.23333621
109	0x3df31b9b	0.118705
110	0x3e102676	0.14077172
111	0xbe3e86d8	-0.18606126
112	0x3d714700	0.0589056
113	0xbdb74f1e	-0.08950637
114	0xbdda15b3	-0.1064867
115	0xbe052338	-0.13001716
116	0x3e26cc2a	0.1628882
117	0x3e3c2718	0.18374288
118	0x3ca2beb5	0.019866327
119	0xbb2c8215	-0.0026322652
120	0xbdcdf669	-0.10056765
121	0xbce7e2e5	-0.028306434
122	0xbe0f7fa4	-0.14013535
123	0xbe7fb643	-0.24971871
124	0x3e3d9ae2	0.18516114
125	0xbd6cd369	-0.057818804
126	0x3e28edb8	0.16496933
127	0xbdc8fb84	-0.09813598
