vaee/vae_model_checkpoint.pth (torch, 74966 bytes, 13 tensors)

encoder.0.weight f4 [128, 1]
-0.165223 -0.705665 -0.27874848 0.16108665 -0.2580668 0.7907669 0.4310174 -0.40109587
0.13590018 -0.7451278 -0.15622456 -0.12917502 0.18491733 0.14943767 -0.32027173 -0.53700775
0.33133793 0.31762192 -0.5012859 0.7647079 -0.16245914 -0.08828275 0.694305 0.05648759
-0.00021517277 0.52489525 0.4754107 -0.44225258 -0.37325752 -0.70703584 0.42311072 -0.007944984
0.9480485 -0.26709348 -0.8230077 0.28476653 -0.59257716 -0.19485667 -0.7571571 0.95533335
-0.5112314 0.7172532 0.31484446 0.6866765 -0.4419053 -0.5862733 -0.84015507 -0.79615664
-0.7319227 0.9769376 0.19885634 -0.35159847 -0.55135494 0.2877814 0.64351225 0.975137
-0.2160064 -0.84545875 -0.46684882 0.37461436 -0.7615705 0.23352484 -0.31176734 -0.32849184
0.26353353 -0.82683134 -0.51161397 -0.00096178055 -0.11951411 0.11719614 0.3783331 0.74145895
0.24312277 0.39153814 -0.82377315 0.2901467 -0.44885013 0.44576478 0.19852911 -0.08844006
0.096599855 0.54554707 -0.84282607 0.7768267 0.032337107 0.22187543 0.22837818 -0.23257554
-0.26514426 0.61713064 -0.1994046 -0.015875936 -0.20156029 0.717612 0.49995646 0.49595204
-0.6348872 0.19687234 -0.9296759 -0.22528644 -0.56441224 0.9338368 -0.76561683 0.4634018
0.31732923 -0.98661035 -0.66670555 -0.89054775 -0.29510587 -0.43149033 0.80235213 0.3646556
-0.01910809 -0.8200068 0.14201282 0.9519211 0.14652659 -0.47668222 -0.79072565 -0.4041605
-0.4503273 -0.537672 -0.5888344 -0.32492176 -0.95612496 0.6047354 -0.3367869 0.68891895
00000000: 3830 29be 76a6 34bf 1fb8 8ebe e6f3 243e
00000010: 5521 84be b36f 4a3f 50ae dc3e 705c cdbe
00000020: 6b29 0b3e b2c0 3ebf 55f9 1fbe 7546 04be
00000030: f85a 3d3e 3006 193e a8fa a3be 5779 09bf
00000040: 20a5 a93e 579f a23e 4654 00bf e6c3 433f
00000050: b05b 26be 96cd b4bd f9bd 313f 885f 673d
00000060: 00a0 61b9 895f 063f 0869 f33e ee6e e2be
00000070: 9c1b bfbe 4d00 35bf f8a1 d83e ae2b 02bc
00000080: 4eb3 723f 7ac0 88be a2b0 52bf ebcc 913e
00000090: 23b3 17bf 8288 47be 0cd5 41bf ba90 743f
000000a0: 10e0 02bf e89d 373f 4b33 a13e 08ca 2f3f
000000b0: 6941 e2be 0216 16bf 6714 57bf ecd0 4bbf
000000c0: 495f 3bbf 9518 7a3f ffa0 4b3e b704 b4be
000000d0: 9925 0dbf 1558 933e 38bd 243f 94a2 793f
000000e0: c830 5dbe fc6f 58bf cf06 efbe 74cd bf3e
000000f0: 49f6 42bf 2321 6f3e f89f 9fbe 1530 a8be
00000100: deed 863e 38ab 53bf 22f9 02bf 0020 7cba
00000110: d0c3 f4bd 8804 f03d e0b4 c13e 41d0 3d3f
00000120: 2df5 783e b077 c83e cce2 52bf 1c8e 943e
00000130: afcf e5be 483b e43e 374b 4b3e 1020 b5bd
00000140: 25d6 c53d f9a8 0b3f 73c3 57bf 1dde 463f
00000150: ea73 043d 5033 633e f8db 693e 4828 6ebe
00000160: fdc0 87be 46fc 1d3f b830 4cbe 400e 82bc
00000170: d265 4ebe 6cb5 373f 4bfa ff3e 6ded fd3e
00000180: f887 22bf e798 493e 3dff 6dbf 7db1 66be
00000190: 527d 10bf ee0f 6f3f 77ff 43bf 0043 ed3e
000001a0: fa78 a23e 7f92 7cbf 37ad 2abf f0fa 63bf
000001b0: 1e18 97be 4dec dcbe f366 4d3f 24b4 ba3e
000001c0: 9288 9cbc f7eb 51bf cf6b 113e 1ab1 733f
000001d0: 110b 163e b10f f4be ff6c 4abf 20ee cebe
000001e0: 4d91 e6be dfa4 09bf dabd 16bf 255c a6be
000001f0: 9bc4 74bf f0cf 1a3f 556f acbe fe5c 303f

encoder.0.bias f4 [128]
0.97947854 -0.84164506 -0.5300403 0.3020066 0.71115816 -0.7624067 -0.852564 -0.9083404
0.84507936 -0.17481321 0.047674976 0.12148042 0.2769526 -0.9137114 0.23420799 0.026948633
-0.05063012 0.94713384 0.3462287 -0.33748007 0.55007905 0.21262564 0.3243205 0.88797516
-0.12921047 0.5117374 -0.6006247 -1.0002487 0.642376 -0.60698396 0.922311 0.1530484
0.83538276 0.5554086 0.4230578 -0.30514815 0.98725873 0.45496905 0.8618831 -0.040881433
-0.38183877 0.39850917 0.48297226 -0.26833448 -0.96669024 0.67052823 -0.27692452 -0.10635933
0.80791897 0.68986094 0.23182203 0.11991929 0.53924495 0.944169 -0.87528265 -0.8534731
0.45469594 -0.4971394 -0.7964812 0.41857988 -0.82027626 0.6586727 -0.96512127 0.73082656
0.6153133 0.6957753 0.78834397 -0.08010721 -0.6716777 0.7822555 0.7241233 -0.8651876
-0.26018932 -0.7267293 0.07576716 -0.44945395 0.1394879 -0.057723127 0.57971215 -0.5442679
-0.14829654 -0.6209652 0.32633018 -0.7142325 0.8873222 -0.49897826 -0.877252 0.62167776
-0.19953439 -0.98470736 -0.60693705 -0.25058305 -0.29660103 0.5150477 0.2862747 0.78202665
-0.67743766 0.74682146 -1.0104617 0.8461399 -0.6658648 -0.9113544 -0.32511887 -0.7493881
0.97352827 0.8642903 -0.1509598 0.6975358 0.8823795 0.7352649 -0.62921524 -0.5582838
0.059505932 0.5300781 -0.04009153 -0.6158919 0.26737878 0.71303093 -0.91050375 0.80739856
-0.9353392 0.73714083 -0.66860646 -0.34350893 0.16263463 0.182659 0.08595802 -0.9629291
00000000: 1bbf 7a3f 0d76 57bf b9b0 07bf 9ca0 9a3e
00000010: 760e 363f 162d 43bf a241 5abf ff88 68bf
00000020: 1f57 583f 3c02 33be d646 433d baca f83d
00000030: bbcc 8d3e fee8 69bf 38d4 6f3e 61c3 dc3c
00000040: 8761 4fbd 5d77 723f e344 b13e 30ca acbe
00000050: fbd1 0c3f 89ba 593e 560d a63e 5752 633f
00000060: c04f 04be 3901 033f 8ac2 19bf 2608 80bf
00000070: c172 243f 4d63 1bbf 931c 6c3f b8b8 1c3e
00000080: a5db 553f 422f 0e3f 089b d83e 613c 9cbe
00000090: fdbc 7c3f b4f1 e83e 5fa4 5c3f 4a73 27bd
000000a0: 5f80 c3be 6509 cc3e 2448 f73e 2363 89be
000000b0: 0379 77bf bda7 2b3f 0dc9 8dbe ecd2 d9bd
000000c0: c7d3 4e3f ba9a 303f c162 6d3e 3f98 f53d
000000d0: f50b 0a3f 0fb5 713f 8612 60bf 377d 5abf
000000e0: e8cd e83e 0e89 febe 31e6 4bbf 1a50 d63e
000000f0: a0fd 51bf c69e 283f 3012 77bf 7317 3b3f
00000100: 2c85 1d3f 541e 323f e9d0 493f 400f a4bd
00000110: 12f3 2bbf e541 483f 2560 393f ef7c 5dbf
00000120: 8937 85be ee0a 3abf d02b 9b3d d41e e6be
00000130: ebd5 0e3e 166f 6cbd 0468 143f 2455 0bbf
00000140: 0cdb 17be 93f7 1ebf c014 a73e f1d7 36bf
00000150: 8c27 633f 147a ffbe 9693 60bf 4626 1f3f
00000160: be52 4cbe c815 7cbf 3a60 1bbf 6c4c 80be
00000170: 17dc 97be 2bda 033f 9992 923e e632 483f
00000180: 8e6c 2dbf b12f 3f3f cf56 81bf a09c 583f
00000190: 1e76 2abf 864e 69bf fb75 a6be e6d7 3fbf
000001a0: 2639 793f 2142 5d3f 3595 1abe b591 323f
000001b0: 9fe3 613f 523a 3c3f 4014 21bf b0eb 0ebf
000001c0: 7ebc 733d 33b3 073f 0437 24bd 17ab 1dbf
000001d0: dfe5 883e 3289 363f c616 69bf acb1 4e3f
000001e0: 6472 6fbf 43b5 3c3f cb29 2bbf 67e0 afbe
000001f0: b189 263e f60a 3b3e c20a b03d 8682 76bf

encoder.2.weight f4 [64, 128]
0.046616253 -0.044967312 0.026443109 -0.06905418 -0.078658916 -0.028871788 -0.014049001 -0.03228355
0.038161248 -0.004347757 0.024332525 -0.05166589 0.053952735 -0.058283053 -0.008921316 -0.015045457
-0.02367768 -0.01162383 0.03518675 0.073665224 0.032941952 -0.043072965 0.017910825 -0.014989042
0.0028476864 0.061562862 0.0243484 0.08067373 0.02954374 -0.007485947 -0.08330923 0.04801604
-0.014733918 -0.062017377 -0.0015275952 -0.013488278 0.065912664 0.08544742 -0.075373635 -0.05583299
0.04782854 0.014152761 0.07739468 -0.014429821 0.06618456 0.02135309 -0.07687392 -0.045497194
-0.007063336 -0.041273955 -0.0676655 0.06747521 0.061301205 0.041770644 0.018855013 0.066383585
-0.05094241 -0.08427472 -0.04435301 0.013748571 -0.017059492 0.07552942 0.012355894 -0.085629374
-0.004617981 -0.0659621 -0.061045066 0.010792419 -0.076973535 0.0046018055 -0.041864272 -0.08376852
-0.06852656 -0.02534718 -0.043950476 -0.033608086 0.036689326 0.06770756 0.025873967 -0.011206113
-0.050617862 -0.03434503 0.011838045 -0.08484626 0.022020936 0.0108995885 -0.043418817 -0.027388776
0.004595261 -0.0053813756 -0.02425126 0.03350646 -0.073220074 0.04501693 0.058848053 -0.074410915
-0.07643536 0.012872659 -0.0119364485 0.022019284 0.064009875 0.010320495 -0.025280401 -0.0699863
-0.02718165 -0.020072995 0.030909536 0.059400707 -0.013590401 0.085731655 0.073247865 0.004538752
-0.019546323 -0.06310247 -0.0001058615 -0.033102356 -0.047496665 0.0057561947 0.07648869 -0.035103645
-0.06268299 -0.057053078 0.0769604 -0.06797604 0.07815608 0.06536696 0.08083605 0.069646664
0.04278104 0.087863676 0.02980709 -0.0644425 0.037288208 0.07186158 0.009202473 0.042667724
-0.010046506 -0.077367485 -0.007008155 0.06673644 0.017916162 -0.07669113 -0.0026335889 0.012765689
0.05879253 0.05867207 0.014553295 -0.06651607 -0.020849736 -0.08022796 0.04574849 -0.029586226
0.08776412 -0.022251843 -0.048197538 -0.011328891 -0.021759018 -0.07083997 0.0395019 -0.020520316
-0.08730579 -0.032198 0.0069441227 0.009623034 -0.021004595 -0.023788368 -0.03811273 -0.084317945
-0.022405595 0.056489427 -0.03421637 -0.024131037 0.080428086 -0.07140335 -0.06475269 -0.030149337
-0.08521102 0.0723832 -0.0483836 0.080721006 -0.054330464 0.05939957 0.07442377 -0.07641136
0.020336216 -0.017744772 0.068475224 -0.08048632 0.00623554 0.007807115 -0.031650808 -0.07627653
-0.005030135 -0.03928782 -0.027098197 0.005835071 -0.08016163 0.0679906 -0.08610636 -0.05766024
0.019262668 -0.039984863 0.006688262 -0.01764422 0.01622688 0.056825723 0.049760744 -0.073084794
-0.07129685 -0.07673352 0.09137789 0.04405119 -0.002412988 -0.010364816 -0.0020780936 0.02617067
0.042633407 0.021909535 0.08415306 0.0041189566 -0.02820564 0.020706682 -0.035313495 -0.0041195545
-0.052225836 0.048807118 0.01697933 0.033581387 -0.086521454 0.0402052 -0.049386516 -0.06680665
0.06528831 -0.07404014 -0.036555078 -0.042598575 0.0013645228 -0.07757169 -0.05562857 -0.049776692
-0.02768854 -0.08317566 -0.089002304 -0.08014963 0.012153778 0.072984196 -0.019937374 -0.055698738
0.011542633 0.04546768 0.045616068 0.02884879 -0.056658443 -0.09142395 0.08023426 0.08214008
00000000: aff0 3e3d a52f 38bd 389f d83c 476c 8dbd
00000010: ed17 a1bd 8784 ecbc c82d 66bc c13b 04bd
00000020: f84e 1c3d a177 8ebb 0155 c73c 9d9f 53bd
00000030: 8bfd 5c3d 36ba 6ebd b62a 12bc 3881 76bc
00000040: b2f7 c1bc e071 3ebc fb1f 103d cbdd 963d
00000050: 24ee 063d 476d 30bd b9b9 923c 9994 75bc
00000060: 40a0 3a3b 5729 7c3d 4c76 c73c 4538 a53d
00000070: b705 f23c ad4c f5bb 089e aabd 78ac 443d
00000080: 8866 71bc ef05 7ebd 9739 c8ba f0fd 5cbc
00000090: 38fd 863d 0fff ae3d 7e5d 9abd 22b1 64bd
000000a0: dce7 433d fbe0 673c 1a81 9e3d 0e6b 6cbc
000000b0: c58b 873d adec ae3c 1370 9dbd 445b 3abd
000000c0: 8f73 e7bb e10e 29bd 3694 8abd 7130 8a3d
000000d0: f916 7b3d b217 2b3d d475 9a3c 1ef4 873d
000000e0: fda8 50bd 3998 acbd 80ab 35bd b041 613c
000000f0: 59c0 8bbc 2baf 9a3d 6070 4a3c 745e afbd
00000100: 6f52 97bb 2317 87bd 640a 7abd b0d2 303c
00000110: 4da4 9dbd beca 963b df79 2bbd d48e abbd
00000120: a757 8cbd e4a4 cfbc 6a05 34bd a2a8 09bd
00000130: 8c47 163d 43aa 8a3d a4f5 d33c d899 37bc
00000140: ad54 4fbd 60ad 0cbd 5cf4 413c e0c3 adbd
00000150: 4065 b43c 3094 323c eed7 31bd 6d5e e0bc
00000160: d893 963b 4056 b0bb 94aa c6bc 123e 093d
00000170: 68f4 95bd ac63 383d a80a 713d c064 98bd
00000180: 248a 9cbd d8e7 523c 1891 43bc c961 b43c
00000190: 9c17 833d 4b17 293c d818 cfbc fa54 8fbd
000001a0: 0dac debc 1f70 a4bc ff35 fd3c 284e 733d
000001b0: 46aa 5ebc 1494 af3d fa02 963d d0b9 943b
000001c0: 9c1f a0bc de3b 81bd f601 deb8 5696 07bd
000001d0: dd8b 42bd 769e bc3b 1aa6 9c3d d7c8 0fbd
000001e0: f15f 80bd 7db0 69bd 6a9d 9d3d 0637 8bbd
000001f0: 4b10 a03d 1ddf 853d 5f8d a53d e9a2 8e3d
00000200: 2c3b 2f3d dff1 b33d 002e f43c 6efa 83bd
00000210: 85bb 183d 2a2c 933d f8c5 163c 5ac4 2e3d
00000220: 1a9a 24bc d872 9ebd aaa4 e5bb 1dad 883d
00000230: eac4 923c 3d10 9dbd 4a98 2cbb 2e27 513c
00000240: 70d0 703d 2052 703d f270 6e3c 9439 88bd
00000250: 11cd aabc 8f4e a4bd c562 3b3d d05e f2bc
00000260: adbd b33d 7f49 b6bc c86a 45bd d09c 39bc
00000270: f83f b2bc 8c14 91bd bfcc 213d 391a a8bc
00000280: 61cd b2bd 0de2 03bd 868b e33b eea9 1d3c
00000290: d411 acbc d3df c2bc 181c 1cbd e3ae acbd
000002a0: f08b b7bc 7561 673d 7726 0cbd 74ae c5bc
000002b0: 7bb7 a43d eb3b 92bd 0f9d 84bd befb f6bc
000002c0: 1e83 aebd a53d 943d e22d 46bd 0e51 a53d
000002d0: 9f89 5ebd f74c 733d 7d6b 983d 8f7d 9cbd
000002e0: 2398 a63c 7c5d 91bc bd3c 8c3d 03d6 a4bd
000002f0: 8053 cc3b d4d2 ff3b 47a4 01bd df36 9cbd
00000300: d5d3 a4bb 44ec 20bd 0afd ddbc 2034 bf3b
00000310: c82b a4bd a83e 8b3d 8858 b0bd 252d 6cbd
00000320: becc 9d3c 2bc7 23bd 3529 db3b 9c8a 90bc
00000330: 3cee 843c 17c2 683d ecd1 4b3d 7bad 95bd
00000340: 1504 92bd 7726 9dbd 5524 bb3d 056f 343d
00000350: 3923 1ebb 30d1 29bc a030 08bb df63 d63c
00000360: 5ea0 2e3d a07b b33c 7158 ac3d 50f8 863b
00000370: 840f e7bc 0fa1 a93c e2a4 10bd 54fd 86bb
00000380: c2ea 55bd f9e9 473d 3c18 8b3c a38c 093d
00000390: 2932 b1bd 35ae 243d 8449 4abd edd1 88bd
000003a0: e1b5 853d 5ba2 97bd c7ba 15bd d87b 2ebd
000003b0: cad9 b23a e8dd 9ebd c9da 63bd a5e2 4bbd
000003c0: 14d3 e2bc 0058 aabd d746 b6bd 7d25 a4bd
000003d0: a420 473c bd78 953d b453 a3bc 5c24 64bd
000003e0: 501d 3d3c 513c 3a3d ead7 3a3d 4c54 ec3c
000003f0: af12 68bd 7b3c bbbd dc51 a43d 0f39 a83d

encoder.2.bias f4 [64]
-0.07933215 -0.054315448 -0.026677921 -0.0043400377 0.009163674 -0.08987079 0.048109196 -0.07437276
-0.033353377 -0.022143638 0.014689871 -0.08814603 -0.087538846 -0.011360633 0.012102627 -0.04005848
-0.0036322642 0.045650385 -0.05497245 -0.0027016774 -0.0014501065 0.08557598 -0.041188978 0.06889179
-0.05977398 -0.017892491 -0.01177591 -0.02821981 0.08081571 -0.070652604 0.037468024 -0.04853162
-0.07939233 -0.026618553 -0.03152647 -0.033698685 -0.061511956 0.031221256 0.002317605 0.066750176
0.024149425 0.036413483 -0.030410316 0.081917115 -0.022387441 -0.047048327 0.069075726 -0.05726174
-0.0048283306 0.0065251957 -0.04394055 0.017079106 -0.06407271 0.038713027 -0.020412343 0.034853566
-0.054184247 -0.08343262 -0.021905134 -0.0295983 -0.05244328 0.07631877 0.08561409 -0.00011913235
00000000: e578 a2bd e079 5ebd a88b dabc e036 8ebb
00000010: 3c23 163c 2d0e b8bd 260e 453d bf50 98bd
00000020: 8d9d 08bd 9366 b5bc c9ad 703c e885 b4bd
00000030: 9147 b3bd f321 3abc 194a 463c 5c14 24bd
00000040: 480b 6ebb e6fb 3a3d cb2a 61bd a00e 31bb
00000050: 8011 beba 7642 af3d c6b5 28bd 2417 8d3d
00000060: 90d5 74bd 4693 92bc bfef 40bc 3b2d e7bc
00000070: b582 a53d 50b2 90bd 1278 193d 18c9 46bd
00000080: 7298 a2bd 270f dabc e621 01bd a207 0abd
00000090: f6f3 7bbd b8c3 ff3c f6e2 173b 51b4 883d
000000a0: 04d5 c53c 4e26 153d 0e1f f9bc 29c4 a73d
000000b0: de65 b7bc bfb5 40bd 9377 8d3d 498b 6abd
000000c0: f936 9ebb 4fd1 d53b 02fb 33bd 7be9 8b3c
000000d0: 8e38 83bd 8d91 1e3d c937 a7bc 9dc2 0e3d
000000e0: 4df0 5dbd b9de aabd 6572 b3bc 2278 f2bc
000000f0: c4ce 56bd 044d 9c3d 7156 af3d b2d6 f9b8

mu.weight f4 [2, 64]
0.01443155 -0.05633574 -0.12336986 -0.049380466 -0.09402593 0.039887343 0.04883327 -0.050063126
0.03366369 0.049095705 0.07131306 -0.11203214 -0.050938115 0.030895853 -0.000644126 -0.032346822
-0.050764207 -0.093448564 -0.065455794 -0.09133765 -0.033026993 0.049863122 0.08982189 0.0014309421
-0.07110094 -0.10603961 0.09284747 -0.075268775 0.010934253 0.113994285 -0.04573794 0.017301688
0.006798522 0.027847512 0.06388967 -0.044283096 -0.028108299 -0.109378055 0.042236697 0.0084972875
0.08961056 -0.043104693 0.009196712 0.08486798 0.07929799 -0.043542862 -0.001306206 -0.039530206
0.055468474 0.10110748 -0.04227898 0.07083214 0.10222942 0.013490365 0.05997229 -0.06550816
0.013208506 0.12117882 0.062298518 -0.015773207 -0.116322316 -0.0656214 0.02079828 0.012952022
-0.0457857 0.017421868 -0.06306058 -0.07053451 -0.09123283 -0.018806968 0.061775837 -0.022770645
-0.047110748 0.05881978 0.116808295 0.0038296687 0.024668753 0.1079566 -0.09909136 0.11151714
-0.072755486 0.0808858 0.05222103 -0.051407605 -0.050180003 -0.014919503 0.108542755 0.05797637
0.025824508 0.04318933 -0.070113935 0.089430034 -0.011397552 -0.06532633 0.08750857 0.09200038
-0.053668376 -0.005860446 -0.11556355 0.022789234 0.05983174 -0.059643988 -0.040958486 -0.03749389
0.009782314 0.030983508 -0.04614824 0.051698856 0.028186528 -0.002425328 -0.044195205 0.10732458
-0.035048373 0.0035040372 -0.113865115 -0.011976746 0.07408965 -0.0096463645 -0.059951723 0.074021436
0.02446027 -0.04073976 0.09286594 0.017022818 0.045524497 0.112359695 -0.036673605 -0.0060156975
00000000: 4f72 6c3c 4ec0 66bd 56a9 fcbd 2c43 4abd
00000010: ab90 c0bd e960 233d 6505 483d fe0e 4dbd
00000020: f0e2 093d 9418 493d 950c 923d 1b71 e5bd
00000030: 7ca4 50bd 4d19 fd3c 90da 28ba 1a7e 04bd
00000040: 21ee 4fbd f661 bfbd b00d 86bd 3c0f bbbd
00000050: 5047 07bd 463d 4c3d 8af4 b73d 738e bb3a
00000060: 5f9d 91bd 4c2b d9bd d026 be3d 8426 9abd
00000070: 9525 333c d675 e93d b557 3bbd 45bc 8d3c
00000080: 23c6 de3b 7720 e43c 96d8 823d 3162 35bd
00000090: 6043 e6bc 9a01 e0bd 6300 2d3d 3538 0b3c
000000a0: be85 b73d 8c8e 30bd cead 163c 43cf ad3d
000000b0: fc66 a23d 005a 32bd 0035 abba 6dea 21bd
000000c0: e932 633d 7011 cf3d b92c 2dbd 7110 913d
000000d0: a85d d13d b106 5d3c 81a5 753d 2429 86bd
000000e0: 7d68 583c 9a2c f83d bb2c 7f3d d036 81bc
000000f0: 653a eebd 8364 86bd 2861 aa3c b834 543c
00000100: c989 3bbd 4eb8 8e3c e825 81bd 6674 90bd
00000110: 47d8 babd 1211 9abc a908 7d3d 8189 babc
00000120: 33f7 40bd 02ed 703d 3039 ef3d 2efb 7a3b
00000130: 2016 ca3c 5a18 dd3d 69f0 cabd 1963 e43d
00000140: d400 95bd 74a7 a53d b8e5 553d c890 52bd
00000150: 8c89 4dbd ee70 74bc aa4b de3d a178 6d3d
00000160: eb8d d33c 4be7 303d e597 8fbd 1827 b73d
00000170: ccbc 3abc d0c9 85bd b137 b33d b26a bc3d
00000180: 5fd3 5bbd fc08 c0bb 95ac ecbd 7db0 ba3c
00000190: 2012 753d 414d 74bd 16c4 27bd 3193 19bd
000001a0: 0046 203c 20d1 fd3c f005 3dbd 2ec2 533d
000001b0: 6fe7 e63c 40f2 1ebb 0806 35bd fdcc db3d
000001c0: e28e 0fbd fda3 653b 1d32 e9bd 1d3a 44bc
000001d0: 50bc 973d c90b 1ebc f08f 75bd 8d98 973d
000001e0: e760 c83c bcde 26bd 7f30 be3d 7073 8b3c
000001f0: e577 3a3d d71c e63d 1037 16bd 541f c5bb

mu.bias f4 [2]
-0.02952645 0.049527228
00000000: 74e1 f1bc 10dd 4a3d

logvar.weight f4 [2, 64]
0.07616379 0.09944181 -0.01536575 -0.07260311 0.07679344 0.00411237 0.0147684645 -0.023769367
-0.05402767 0.110983595 -0.033387713 -0.037989665 -0.045551673 0.03694847 -0.067488894 0.0038728423
0.06912754 0.06831981 0.02617304 -0.077732384 0.08576499 0.08770366 -0.06471941 -0.077313215
-0.057829157 -0.03960986 0.047614653 0.05799186 0.019399885 -0.071812525 -0.08447546 -0.10250402
0.0656827 -0.037464913 -0.0704464 -0.0036689534 -0.11344804 -0.020972751 0.027800946 0.055692248
-0.0617197 -0.024952516 -0.056754783 0.08282052 -0.079203695 -0.10899755 -0.02851966 0.010050113
-0.05672187 -0.02656062 -0.08281962 0.0048340796 0.017225668 -0.08348429 0.06775249 0.067773834
-0.082738236 0.02228409 -0.09269499 -0.07022241 -0.098483354 0.11443126 0.06855616 -0.034328263
0.061786734 0.05016216 -0.036069334 -0.077068895 -0.10711904 0.06561966 0.07484006 0.049717996
0.091327175 0.009689512 -0.04141615 -0.01776822 0.085018784 0.035390925 -0.06252879 0.0015721499
-0.093979165 0.015809134 -0.011492163 0.09733637 -0.07967126 -0.046175476 -0.0738094 -0.01748228
0.0071812407 -0.014602578 0.036789376 0.024372172 -0.0065518343 -0.021131054 -0.050039325 -0.03545724
-0.052386235 0.07714226 0.093114644 -0.0059569017 0.045172065 0.034899607 -0.010466862 -0.05562355
0.107048735 0.108343944 0.09338804 -0.0882052 -0.10116814 -0.10401417 0.12092738 0.0018424192
0.07447304 -0.07202893 0.004051725 0.020718066 -0.088946745 -0.041662063 -0.070180066 0.10986107
-0.08442323 -0.01677458 -0.06546365 0.10597485 -0.014187474 0.08539886 0.011055052 0.06116672
00000000: c3fb 9b3d 26a8 cb3d a0c0 7bbc f0b0 94bd
00000010: e145 9d3d 0fc1 863b 6ef7 713c fab7 c2bc
00000020: 1e4c 5dbd 5e4b e33d 8ec1 08bd 0d9b 1bbd
00000030: 6494 3abd 4757 173d 9e37 8abd 83cf 7d3b
00000040: bd92 8d3d 42eb 8b3d d868 d63c 2832 9fbd
00000050: 8ea5 af3d fa9d b33d 9c8b 84bd 6456 9ebd
00000060: 44de 6cbd f33d 22bd 9507 433d df88 6d3d
00000070: 82ec 9e3c 7212 93bd 7801 adbd a1ed d1bd
00000080: a784 863d cf74 19bd 3446 90bd d372 70bb
00000090: 7257 e8bd 0ccf abbc cfbe e33c 8e1d 643d
000000a0: cccd 7cbd 3869 ccbc b477 68bd ce9d a93d
000000b0: 8c35 a2bd 1c3a dfbd 10a2 e9bc 3ba9 243c
000000c0: 3155 68bd a895 d9bc 559d a9bd 3367 9e3b
000000d0: d81c 8d3c d0f9 aabd d1c1 8a3d 02cd 8a3d
000000e0: aa72 a9bd 208d b63c dfd6 bdbd c4d0 8fbd
000000f0: a4b1 c9bd f05a ea3d 2c67 8c3d cb9b 0cbd
00000100: 1614 7d3d d676 4d3d 70bd 13bd 4cd6 9dbd
00000110: 3a61 dbbd 9a63 863d bf45 993d 19a5 4b3d
00000120: be09 bb3d c2c0 1e3c fba3 29bd a88e 91bc
00000130: 541e ae3d 13f6 103d 180f 80bd 9910 ce3a
00000140: 2678 c0bd 2882 813c a049 3cbc 4a58 c73d
00000150: b02a a3bd 7f22 3dbd 6229 97bd 0037 8fbc
00000160: 9d50 eb3b a73f 6fbc 75b0 163d 26a8 c73c
00000170: c5b0 d6bb 081b adbc 09f6 4cbd 9c3b 11bd
00000180: f392 56bd c3fc 9d3d e4b2 be3d 1d32 c3bb
00000190: 5806 393d e4f2 0e3d 337d 2bbc 85d5 63bd
000001a0: 5e3c db3d 6ee3 dd3d 3b42 bf3d eea4 b4bd
000001b0: 3e31 cfbd 6205 d5bd c6a8 f73d 547d f13a
000001c0: 5285 983d e783 93bd 55c4 843b efb8 a93c
000001d0: b629 b6bd d7a5 2abd 91ba 8fbd d7fe e03d
000001e0: 16e6 acbd d86a 89bc ce11 86bd 5809 d93d
000001f0: 9472 68bc 99e5 ae3d 4020 353c f489 7a3d

logvar.bias f4 [2]
-0.06947304 0.034155693
00000000: e247 8ebd d7e6 0b3d

decoder.0.weight f4 [64, 2]
0.3345913 -0.016044803 -0.53033787 0.16902716 -0.43875083 0.23690267 0.52350986 0.5623319
-0.2086255 0.66235554 0.26913503 0.51909095 0.11189556 0.46228644 0.36933655 -0.025002766
-0.38385186 0.4443265 0.4236148 -0.15563044 -0.07710183 0.016330294 -0.22411026 -0.4207401
-0.52919286 0.41612753 0.30223888 -0.035408534 -0.0767056 0.122887425 0.30316418 0.57809865
0.43746716 -0.09532744 0.3144088 -0.3393047 0.34756798 -0.0585662 0.4882511 -0.4426924
-0.39780444 -0.14317687 -0.19800827 -0.43404293 0.0012962811 -0.5361602 0.29909524 0.38782164
0.14444944 0.14178142 0.40566152 0.46376 0.024034161 -0.5898138 -0.02028111 -0.2531255
-0.50646806 -0.12954865 0.5738881 0.30649474 0.1228945 0.44722497 -0.39114133 0.58896136
0.19916865 -0.20707835 0.17472883 0.2802579 0.41586033 -0.19307625 -0.17734508 -0.369863
-0.615421 0.42815822 -0.25571716 -0.42915332 -0.30345497 -0.60597014 -0.64424217 0.5774898
-0.13676214 -0.12358365 -0.5904251 0.036896855 -0.43801993 0.54326534 0.034516092 0.482651
-0.3411106 0.27869326 0.48898348 -0.1126168 -0.4752641 0.5315371 -0.62379295 -0.46106088
-0.5316925 0.51181614 0.4967179 -0.3221358 -0.36686274 -0.22800396 -0.2658186 -0.16496338
0.35023215 -0.10013565 -0.3493365 0.272231 0.28480634 -0.31965703 0.3856191 -0.5799354
-0.1487039 -0.5038533 0.16255537 -0.18700373 -0.07128485 0.22093956 -0.40392274 -0.4396762
-0.44280976 -0.0870919 -0.34394738 0.23663266 0.16496046 0.023977185 -0.104531705 0.5534575
00000000: 8d4f ab3e 6470 83bc 39c4 07bf 7515 2d3e
00000010: f3a3 e0be 9d96 723e be04 063f fcf4 0f3f
00000020: eca1 55be 2290 293f 11cc 893e 25e3 043f
00000030: 8029 e53d cfb0 ec3e ae19 bd3e 9ad2 ccbc
00000040: 3b88 c4be c37e e33e 0ae4 d83e 965d 1fbe
00000050: 90e7 9dbd 1cc7 853c 297d 65be 3f6b d7be
00000060: 2f79 07bf ab0e d53e 0ebf 9a3e 8a08 11bd
00000070: d317 9dbd 67ac fb3d 5638 9b3e 46fe 133f
00000080: b2fb df3e 083b c3bd 31fa a03e 58b9 adbe
00000090: 6ef4 b13e 1de3 6fbd 0cfc f93e 94a8 e2be
000000a0: 06ad cbbe f59c 12be aec2 4abe e03a debe
000000b0: fae7 a93a cb41 09bf 0323 993e 8f90 c63e
000000c0: 8eea 133e 262f 113e deb2 cf3e f371 ed3e
000000d0: 4ae3 c43c 0afe 16bf 9224 a6bc aa99 81be
000000e0: e4a7 01bf 67a8 04be 55ea 123f e1ec 9c3e
000000f0: 1db0 fb3d acfa e43e ad43 c8be 2cc6 163f
00000100: def2 4b3e 590c 54be 1dec 323e f77d 8f3e
00000110: a5eb d43e c8b5 45be f399 35be af5e bdbe
00000120: 3b8c 1dbf 8e37 db3e 5ced 82be fcb9 dbbe
00000130: 735e 9bbe dc20 1bbf 0eed 24bf 5fd6 133f
00000140: 600b 0cbe 6d19 fdbd 1926 17bf 2821 173d
00000150: 2644 e0be 7013 0b3f bf60 0d3d 081e f73e
00000160: 0ca6 aebe e2b0 8e3e 0b5c fa3e a3a3 e6bd
00000170: d155 f3be d112 083f e5b0 1fbf 2c10 ecbe
00000180: 001d 08bf 6206 033f cf51 fe3e fcee a4be
00000190: 6fd5 bbbe df79 69be 6019 88be 29ec 28be
000001a0: a151 b33e eb13 cdbd 3cdc b2be dd61 8b3e
000001b0: 23d2 913e 16aa a3be de6f c53e a576 14bf
000001c0: d645 18be 88fc 00bf ea74 263e e87d 3fbe
000001d0: cbfd 91bd fb3d 623e f6ce cebe 3d1d e1be
000001e0: f6b7 e2be 3d5d b2bd df19 b0be d54f 723e
000001f0: 65eb 283e cd6b c43c b814 d6bd 64af 0d3f

decoder.0.bias f4 [64]
-0.04613238 0.14179584 0.51711524 0.29382893 -0.69137406 0.24150562 0.06986235 -0.4788622
0.00017087343 -0.22448614 -0.025732318 -0.48912573 0.18273017 -0.5888527 0.08450415 -0.025757488
0.59268254 0.48191372 0.35936594 -0.29486194 0.22743633 0.5226076 -0.46728814 0.24974202
0.16287027 0.121796764 0.44009742 0.22887518 -0.6947147 0.45095518 -0.67895836 -0.058217205
-0.01189901 0.56729436 -0.3598298 -0.04566443 0.5687911 -0.35440785 -0.6072688 -0.6352375
0.09505702 -0.5927816 0.052025 -0.5388291 -0.39965743 -0.6681925 -0.12535068 -0.4119559
0.4923786 0.49475926 0.30255666 -0.06798485 -0.38279322 -0.07158345 0.2056809 -0.16199547
-0.2781569 0.015860315 0.59224904 0.37707725 0.49981105 0.58505887 0.43272987 0.44523603
00000000: 4ef5 3cbd ee32 113e aa61 043f bf70 963e
00000010: e4fd 30bf 404d 773e fe13 8f3d 6d2d f5be
00000020: 7d2c 3339 b2df 65be 95cc d2bc b06e fabe
00000030: 9e1d 3b3e 0dbf 16bf 8310 ad3d 5e01 d3bc
00000040: 0bba 173f 65bd f63e d0fe b73e 25f8 96be
00000050: 12e5 683e 9dc9 053f 6440 efbe 5fbc 7f3e
00000060: 77c7 263e 9570 f93d 7354 e13e 415e 6a3e
00000070: d3d8 31bf 99e3 e63e 37d0 2dbf 2a75 6ebd
00000080: 11f4 42bc 343a 113f 9d3b b8be a00a 3bbd
00000090: 4b9c 113f f274 b5be f875 1bbf ed9e 22bf
000000a0: 41ad c23d 89c0 17bf 2b18 553d b4f0 09bf
000000b0: e69f ccbe aa0e 2bbf ee5b 00be e2eb d2be
000000c0: 0c19 fc3e 1651 fd3e b5e8 9a3e a43b 8bbd
000000d0: 79fd c3be 589a 92bd 049e 523e 24e2 25be
000000e0: 956a 8ebe 7eed 813c a29d 173f 4510 c13e
000000f0: 3ce7 ff3e 6bc6 153f c58e dd3e faf5 e33e

decoder.2.weight f4 [128, 64]
0.085107066 -0.09146182 -0.05421995 0.085364014 0.081642486 0.039952315 -0.020962602 -0.10053249
-0.060821842 0.026078437 0.035994526 -0.03612945 -0.04475669 -0.070172675 -0.12696818 -0.13971233
0.037901767 0.057603635 -0.06633986 0.0662432 -0.06957242 -0.13676977 -0.08241203 0.09375608
0.016586035 -0.13973054 0.07452062 -0.076120526 0.083975956 -0.0829146 0.06111003 -0.04626931
-0.021078289 0.0773612 0.09999338 -0.11582816 -0.028908331 -0.07035237 0.022064054 0.039189003
0.112191066 -0.13618325 -0.0395622 0.104311995 0.110777356 0.069331355 0.018202554 0.0014678759
-0.023575814 -0.03524505 0.11033655 0.09314016 -0.09875165 -0.039714336 -0.055887297 -0.016946023
0.070064686 -0.07135697 0.034502316 -0.025070827 -0.013547396 -0.0035702675 0.07375024 -0.015444338
0.06710161 -0.12761685 -0.0679265 -0.131645 0.022861898 -0.03963426 0.005005151 -0.12474506
-0.0122769335 -0.12645277 0.04418673 -0.042834383 0.044988275 0.04889451 -0.053608757 0.050097197
0.059183743 -0.015723575 -0.12012956 -0.0076216245 0.076691106 -0.07677363 -0.013116316 -0.11622286
0.02970538 -0.104162484 0.069027 -0.07964018 0.106178194 -0.13403907 -0.0910691 0.033474132
-0.03374756 -0.05728902 0.10367767 -0.07189772 -0.123955555 -0.026788043 0.07893588 0.02443865
-0.080880746 0.05338934 -0.078712925 -0.10163295 0.07610931 0.07146218 -0.0022143046 -0.035899166
0.012882554 0.08596342 0.052244652 0.04783001 0.069167495 -0.075361766 -0.014087045 -0.03846932
0.0013654032 -0.105840966 -0.046493966 -0.029255854 0.02985309 -0.09563422 0.05401727 -0.014741152
-0.08467133 -0.14599223 -0.08675065 0.016997814 -0.024744635 0.015032402 -0.044404212 -0.114019915
-0.12543084 0.0773797 -0.12025751 0.14602162 0.070183024 0.08139762 0.067665055 -0.016702157
-0.069959976 0.0811611 0.030199876 0.0108935 -0.06190612 -0.09329301 0.011958223 0.057084765
-0.025069483 0.08314262 -0.11826518 -0.07509081 0.10240426 -0.053361233 -0.102446176 -0.024698026
-0.10124441 -0.14714329 -0.04291305 -0.01785319 -0.09014557 0.06593034 0.103704475 -0.08274994
0.01625692 0.046544645 -0.09744645 0.047795717 0.022282578 0.0052274875 -0.0906337 -0.12017122
-0.033858724 0.08748465 0.07293462 -0.044184633 0.078480884 -0.1391709 0.073471315 0.07878391
0.048595935 -0.1494524 -0.13785519 0.06813948 -0.007586617 -0.092903554 0.07841397 0.055913053
0.0064188973 -0.007958829 0.08458951 0.10559203 0.06758661 -0.01440505 -0.038052615 0.00427244
0.049887534 0.09448576 -0.05432012 -0.026036067 -0.0017436348 -0.03536128 -0.015856216 -0.09922252
0.010534703 0.10403925 -0.06652148 0.026270729 -0.030649269 -0.112028174 0.063892044 -0.08848086
-0.11719046 -0.08425667 0.013558238 -0.110732555 -0.12618653 -0.14298773 -0.055145245 -0.074799016
0.0038170333 -0.052578684 -0.09906144 -0.12535207 -0.1196582 -0.04640432 0.0747902 -0.081633896
0.05847375 0.049882203 0.0039710747 0.03814685 0.034304455 0.06655555 0.055082746 -0.0020130628
-0.09595723 0.08382899 -0.047068685 0.019434974 -0.13172607 -0.11294586 0.008066429 -0.023888849
-0.113190964 -0.106473505 0.022889735 -0.09809424 0.008870259 -0.04852798 0.062703796 -0.018984364
00000000: 9d4c ae3d 5650 bbbd bd15 5ebd 54d3 ae3d
00000010: 2d34 a73d 0aa5 233d c3b9 abbc fae3 cdbd
00000020: 5320 79bd 72a2 d53c ff6e 133d 79fc 13bd
00000030: ca52 37bd b1b6 8fbd f203 02be c010 0fbe
00000040: e23e 1b3d caf1 6b3d 31dd 87bd 84aa 873d
00000050: fc7b 8ebd 600d 0cbe a3c7 a8bd 3003 c03d
00000060: 70df 873c 8615 0fbe 449e 983d 14e5 9bbd
00000070: 96fb ab3d 21cf a9bd 834e 7a3d e384 3dbd
00000080: 60ac acbc 8c6f 9e3d 54c9 cc3d 5037 edbd
00000090: 2ad1 ecbc e714 90bd adbf b43c a684 203d
000000a0: 6ec4 e53d 9f73 0bbe f90b 22bd 87a1 d53d
000000b0: 3ddf e23d 99fd 8d3d 861d 953c be65 c03a
000000c0: 1122 c1bc 1d5d 10bd 21f8 e13d 45c0 be3d
000000d0: 4e3e cabd 80ab 22bd 14ea 64bd 63d2 8abc
000000e0: 137e 8f3d 9a23 92bd 4d52 0d3d 5661 cdbc
000000f0: e6f5 5dbc 26fb 69bb 5e0a 973d 400a 7dbc
00000100: 926c 893d fead 02be 0d1d 8bbd f2cd 06be
00000110: e048 bb3c 8957 22bd 4002 a43b 577a ffbd
00000120: 3125 49bc d67c 01be 25fd 343d 1b73 2fbd
00000130: a045 383d 9c45 483d db94 5bbd b832 4d3d
00000140: a76a 723d bace 80bc 7d06 f6bd d2be f9bb
00000150: 3a10 9d3d 7e3b 9dbd d1e5 56bc 4006 eebd
00000160: b258 f33c 2453 d5bd 075e 8d3d 641a a3bd
00000170: f473 d93d 8a41 09be 7082 babd 2c1c 093d
00000180: e23a 0abd e4a7 6abd f554 d43d 1d3f 93bd
00000190: 69dc fdbd 9972 dbbc 22a9 a13d 9033 c83c
000001a0: cea4 a5bd c8ae 5a3d 3e34 a1bd f024 d0bd
000001b0: 33df 9b3d c35a 923d de1d 11bb 010b 13bd
000001c0: 5911 533c 970d b03d 7dfe 553d 67e9 433d
000001d0: b0a7 8d3d 4557 9abd 59cd 66bc 0192 1dbd
000001e0: 54f7 b23a 26c3 d8bd 7570 3ebd f9a9 efbc
000001f0: 788e f43c e0db c3bd 3741 5d3d df84 71bc
00000200: 2a68 adbd fd7e 15be 53aa b1bd 003f 8b3c
00000210: 43b5 cabc 774a 763c 31e1 35bd 4683 e9bd
00000220: f170 00be 4079 9e3d 9249 f6bd b186 153e
00000230: 1ebc 8f3d ccb3 a63d fa93 8a3d f6d2 88bc
00000240: 2d47 8fbd ca37 a63d bb65 f73c a77a 323c
00000250: 4691 7dbd 6810 bfbd 6cec 433c b7d1 693d
00000260: 845e cdbc ae46 aa3d 0435 f2bd 36c9 99bd
00000270: 53b9 d13d 4f91 5abd 4dcf d1bd 8453 cabc
00000280: 3b59 cfbd bbac 16be 98c5 2fbd da40 92bc
00000290: 3e9e b8bd 7c06 873d 0363 d43d cd78 a9bd
000002a0: 3b2d 853c 99a5 3e3d 0192 c7bd 71c5 433d
000002b0: f489 b63c 584b ab3b 299e b9bd 541c f6bd
000002c0: 72af 0abd 272b b33d bf5e 953d f2fa 34bd
000002d0: 96ba a03d d182 0ebe 2178 963d 7559 a13d
000002e0: 880c 473d 0d0a 19be e929 0dbe b68c 8b3d
000002f0: 2899 f8bb 3844 bebd 8197 a03d 1605 653d
00000300: 9d55 d23b c065 02bc 443d ad3d a240 d83d
00000310: d96a 8a3d 2903 6cbc 0fdd 1bbd d3ff 8b3b
00000320: df56 4c3d c081 c13d c67e 5ebd 9749 d5bc
00000330: ad8a e4ba fdd6 10bd e5e4 81bc 2d35 cbbd
00000340: bf99 2c3c 8812 d53d 6a3c 88bd b635 d73c
00000350: 2d14 fbbc 076f e5bd d5d9 823d 7435 b5bd
00000360: 8d01 f0bd c38e acbd 5f23 5e3c c0c7 e2bd
00000370: 0b37 01be 606b 12be fbdf 61bd 3a30 99bd
00000380: 3127 7a3b bf5c 57bd b9e0 cabd 4b5c 00be
00000390: 5c0f f5bd 7512 3ebd 9b2b 993d ac2f a7bd
000003a0: 2c82 6f3d 4851 4c3d ca1f 823b df3f 1c3d
000003b0: d482 0c3d 474e 883d 729e 613d 97ed 03bb
000003c0: 3985 c4bd 89ae ab3d 18cb 40bd 1836 9f3c
000003d0: 33e3 06be 2950 e7bd 0e29 043c 8cb2 c3bc
000003e0: aad0 e7bd c80e dabd 4183 bb3c a2e5 c8bd
000003f0: 9054 113c 46c5 46bd d96a 803d 1985 9bbc

decoder.2.bias f4 [128]
-0.059875224 0.065668136 -0.15589015 0.101162106 -0.08628752 0.044187326 0.08076625 -0.13190602
-0.011884929 0.027704861 -0.13162713 -0.0074516847 -0.14944278 -0.021826904 0.06334004 0.02853638
0.017214693 -0.03315785 0.017773628 -0.08522605 -0.06391476 -0.03591809 -0.06242601 0.08042278
-0.03867388 0.015647864 -0.080891915 0.07121409 -0.04942667 -0.09907389 0.053607017 -0.09738443
-0.04857659 0.070224114 0.045814745 0.045695484 -0.05326897 0.013005177 -0.064824514 -0.11547908
-0.14108258 0.07355236 0.05617701 -0.024974054 -0.006456064 -0.079999395 0.0018951999 -0.03357314
-0.021136828 0.008932578 0.0040307194 -0.042237397 0.044580527 -0.038382627 -0.068849504 -0.13054577
-0.03617952 -0.095737614 -0.04150976 -0.02777759 -0.115195766 -0.055128712 -0.046636436 0.02207343
0.058175556 0.062595 0.060131546 0.059025392 -0.07040541 0.014363802 -0.07139643 0.0052670566
-0.043241907 -0.0880655 -0.076275006 0.077613 0.04549379 0.072342485 0.084229514 -0.108090505
-0.06639277 0.07227171 -0.03814503 -0.029303329 -0.041271977 -0.046512853 -0.1283413 0.034614027
-0.11367899 -0.103896365 -0.0597903 0.067864195 0.08048297 0.09812761 0.061764058 -0.083038144
0.07783744 0.07009845 0.0076754214 0.056820534 -0.015199804 -0.010230076 0.030522255 0.057879824
-0.13280627 -0.09664222 -0.09355798 -0.10536436 0.05128731 0.061836366 0.087221764 -0.086879656
0.049910296 0.04257247 -0.029124718 0.0111794025 0.08743183 -0.053977422 -0.060416862 -0.09339492
0.03556107 -0.051632285 -0.05323649 -0.013092335 0.08896552 -0.1458825 -0.079182036 -0.056270573
00000000: b93f 75bd 047d 863d aba1 1fbe 142e cf3d
00000010: 83b7 b0bd c5fd 343d c768 a53d 5f12 07be
00000020: 01b9 42bc 4ef5 e23c 43c9 06be 432d f4bb
00000030: 8707 19be 56ce b2bc 6cb8 813d 20c5 e93c
00000040: d405 8d3c 87d0 07bd 009a 913c ff8a aebd
00000050: bee5 82bd d91e 13bd 6ab2 7fbd b3b4 a43d
00000060: 8168 1ebd f32f 803c a9aa a5bd b1d8 913d
00000070: 9f73 4abd 40e7 cabd 0893 5b3d 7d71 c7bd
00000080: 3ff8 46bd a9d1 8f3d 3ea8 3b3d 302b 3b3d
00000090: 9030 5abd aa13 553c b7c2 84bd 4c80 ecbd
000000a0: f477 10be 9fa2 963d dd19 663d 6396 ccbc
000000b0: 648d d3bb b9d6 a3bd 5b68 f83a fd83 09bd
000000c0: 2427 adbc f359 123c 2014 843b 1f01 2dbd
000000d0: 129a 363d 1a37 1dbd f800 8dbd caad 05be
000000e0: fa30 14bd 1512 c4bd 2306 2abd d48d e3bc
000000f0: c2eb ebbd a5ce 61bd d905 3fbd 56d3 b43c
00000100: 7e49 6e3d cf31 803d 7f4c 763d 9cc4 713d
00000110: b630 90bd 2756 6b3c 4b38 92bd 4697 ac3b
00000120: 6d1e 31bd af5b b4bd 1236 9cbd 91f3 9e3d
00000130: b257 3a3d 4c28 943d 8680 ac3d 8e5e ddbd
00000140: eff8 87bd 3103 943d f73d 1cbd 890d f0bc
00000150: ce0c 29bd 4384 3ebd e76b 03be 70c7 0d3d
00000160: 88d0 e8bd 9ec7 d4bd ace6 74bd 62fc 8a3d
00000170: 41d4 a43d 21f7 c83d 4ffc 7c3d e70f aabd
00000180: 3c69 9f3d c78f 8f3d 1a82 fb3b a6bc 683d
00000190: 9908 79bc 0c9c 27bc cf09 fa3c 6513 6d3d
000001a0: 5efe 07be 5bec c5bd 549b bfbd 45c9 d7bd
000001b0: a412 523d 2148 7d3d 53a1 b23d f6ed b1bd
000001c0: bd6e 4c3d 7860 2e3d f696 eebc d029 373c
000001d0: 760f b33d 6e17 5dbd ac77 77bd d645 bfbd
000001e0: 7ca8 113d 607c 53bd 810e 5abd 3c81 56bc
000001f0: 8e33 b63d 3962 15be 312a a2bd f97b 66bd

decoder.4.weight f4 [1, 128]
1.8335515e-05 0.027265018 0.024353372 -0.0066352477 -0.0016434556 -0.06271264 0.0018266843 0.01271365
0.006556667 -0.00035131178 -0.00031074835 0.009801998 0.0474929 -0.017515292 -0.020108819 -0.010806479
0.0005452274 0.023425627 -0.04738865 0.0007119243 -0.0075201956 -0.001317097 0.018913858 0.0006992682
-0.02039261 0.007883692 -0.02075645 -0.039462425 0.037830636 -0.05059893 0.008329547 0.016406978
-0.047767583 -0.0015221915 -0.02842757 -0.0017460138 0.067975156 0.02723465 0.0007089738 -0.017738469
0.010081762 -0.01681325 0.012580673 0.028793646 0.015657634 -0.0013535463 -0.011641651 0.004496068
-0.0044219973 0.00043220556 -0.032658316 -2.7659662e-05 -0.03165985 0.037920155 -0.0008946955 -0.029422719
0.0012045497 0.00497041 0.00014858341 -0.00024211439 -8.492478e-05 0.022896148 0.0011983523 -0.0062680547
-0.001339124 0.020142324 0.0006867466 -0.011442355 -0.008844804 -0.026217856 -0.07140022 0.00926989
0.025492981 -0.015758712 -0.00156011 -0.016890308 0.004674646 -0.00044699016 -0.0035771313 -0.017562406
-0.00013303732 -0.0014915414 0.00012367204 0.044261374 -0.05610266 -0.014506981 -0.044826012 -0.010914527
0.013738851 0.00012493083 -0.019118857 -0.0005454607 0.036590245 0.021462845 -0.00047416368 -0.025519922
-0.0082433345 -0.0009692769 -0.00041420967 0.012112157 0.012313717 -0.004675942 0.07551299 0.04667011
-0.06544392 0.0047091655 0.007684712 0.0027083128 -0.000490798 0.0044504944 0.015164173 0.0054773553
-0.00073297357 -0.0061819875 -0.048830863 -0.07280869 -0.013248998 -0.041403227 -0.0012716224 -0.047338076
-0.00030758325 0.004423976 0.0010494413 0.04117851 -0.013752863 -0.0019062617 -0.0069950433 3.777185e-06
00000000: 38cf 9937 e35a df3c b980 c73c 7e6c d9bb
00000010: 3869 d7ba 7c6f 80bd 5b6d ef3a ea4c 503c
00000020: 4fd9 d63b 4530 b8b9 f0eb a2b9 8f98 203c
00000030: ea87 423d 3b7c 8fbc 40bb a4bc a80d 31bc
00000040: 97ed 0e3a 1ae7 bf3c 9a1a 42bd 6ea0 3a3a
00000050: f96b f6bb 71a2 acba 3cf1 9a3c 184f 373a
00000060: 670e a7bc 9a2a 013c 6e09 aabc 5aa3 21bd
00000070: 4cf4 1a3d d340 4fbd a778 083c ed67 863c
00000080: f1a7 43bd 4584 c7ba efe0 e8bc 80da e4ba
00000090: 8f36 8b3d 331b df3c 6dda 393a 4450 91bc
000000a0: fa2d 253c f1bb 89bc 2b1f 4e3c a7e0 eb3c
000000b0: 7044 803c 7a69 b1ba a0bc 3ebc c153 933b
000000c0: 67e6 90bb a699 e239 bac4 05bd ac06 e8b7
000000d0: c2ad 01bd 2a52 1b3d 008a 6aba ea07 f1bc
000000e0: fbe1 9d3a d2de a23b 0ecd 1b39 16e0 7db9
000000f0: a519 b2b8 b490 bb3c 0812 9d3a 4164 cdbb
00000100: 8c85 afba 8401 a53c c906 343a b778 3bbc
00000110: cce9 10bc d4c6 d6bc 473a 92bd bde0 173c
00000120: a8d6 d03c 6a18 81bc 9b7c ccba 8b5d 8abc
00000130: c62d 993b 015a eab9 4e6e 6abb 09df 8fbc
00000140: ef7f 0bb9 d37f c3ba f6ad 0139 6a4b 353d
00000150: e7cb 65bd b0ae 6dbc 7b9b 37bd d8d2 32bc
00000160: eb18 613c ddff 0239 269f 9cbc 3ffd 0eba
00000170: a7df 153d d9d2 af3c 2c99 f8b9 280f d1bc
00000180: 0d0f 07bc 1217 7eba 482a d9b9 1272 463c
00000190: 79bf 493c a538 99bb 8ea6 9a3d 2829 3f3d
000001a0: 7607 86bd 584f 9a3b 09d0 fb3b f37d 313b
000001b0: e5a8 00ba 74d5 913b 2773 783c 637b b33b
000001c0: 0625 40ba 4592 cabb df02 48bd b91c 95bd
000001d0: 5312 59bc 6e96 29bd 91ac a6ba 92e5 41bd
000001e0: 2043 a1b9 00f7 903b 688d 893a ccaa 283d
000001f0: b053 61bc 87db f9ba ad36 e5bb 8b7b 7d36
