pinn/seismic_pinn_checkpoint.pth (torch, 73782 bytes, 21 tensors)

layers.0.weight f4 [50, 2]
00000000: 6d4a 54bf 9b35 17bb 486c 153f 49dd 1a3e
00000010: a586 33bf 8d09 00bf 9077 55bf c08b b33e
00000020: 8b5b 16bf 958e dfbe 827f ba3d 619a 26bd
00000030: cc81 083d 4621 e63e cf4d babd 97c7 87be
00000040: eabf 273f 49b6 6a3f f1d9 2f3f dfe1 cebe
00000050: 8488 e13e accc 27bf 41ca 34bf 70a8 d0bd
00000060: f1fd ce3e 5e4e 4cbf 6b52 84be b758 ffbe
00000070: 4e58 9e3e 5840 a23e 8922 ce3d 2a38 dbbe
00000080: 9107 673e 34e0 1d3f d50d bdbe 8874 a5be
00000090: 48f6 56bf 6f41 62bd bef2 503f ab34 983e
000000a0: 30f1 403d 8527 703e 0872 31be 3995 753e
000000b0: 9127 43bd b9a0 b33e 8001 7ebe d554 8c3e
000000c0: ec89 adbe 040c 6d3f 266f 393f 477b 2dbf
000000d0: d134 e13e 436a 013f d8c2 85be 9a8a 71bf
000000e0: dc8a 12bf dbd0 64bf d716 c13e 03bb 003f
000000f0: afb2 a7be ce86 2bbf 63ab 383d 99ce 2abf
00000100: a665 893e 9ecc 663f 51f0 0fbf 1327 d73c
00000110: e540 87be 3786 f8be 9a6f bf3e 6f6a 1b3f
00000120: a676 c8be 0377 553f 9621 443f 0aaa 28bf
00000130: 19f7 4b3f d9e4 bd3e d5f3 25bf b71c ffbe
00000140: cc35 c6be 8cfd 133e 0183 343f e2e1 6a3e
00000150: 7459 353d 5352 b83b 9b5a 73bc 5e9b 43be
00000160: d53e 10bf e69c 85bf cbda 5c3f da43 aa3e
00000170: 9cf1 b5be 3ecd 46bf 6cde 0bbf 9a0e 62bf
00000180: 1e6d 4cbc 743e 7abf 5e06 933d 54cf 18bf
-0.82926065 -0.0023072723 0.5836835 0.15123476 -0.70127326 -0.50014573 -0.8338556 0.35067558
-0.58733433 -0.4366347 0.091063514 -0.04067457 0.03332691 0.4494726 -0.09096872 -0.26519462
0.6552721 0.91684395 0.6869193 -0.404067 0.44049466 -0.6554668 -0.70621115 -0.10188377
0.40428117 -0.7980708 -0.2584413 -0.49872372 0.30926746 0.31689715 0.10065181 -0.42816287
0.2256148 0.6167023 -0.36924616 -0.3231547 -0.83969545 -0.055238184 0.81620395 0.29727682
0.047105014 0.23452576 -0.17328656 0.23982705 -0.047645155 0.3508356 -0.2480526 0.27408472
-0.3389429 0.9259646 0.72435224 -0.6776623 0.43985608 0.5055277 -0.26125216 -0.94352114
-0.5724313 -0.8938119 0.37712738 0.5028536 -0.32753512 -0.6700257 0.045085322 -0.66721493
0.26835364 0.9015597 -0.5622607 0.02626375 -0.26416698 -0.48539898 0.37389833 0.6070928
-0.39153022 0.8338472 0.7661375 -0.6588446 0.79673916 0.3708866 -0.64825183 -0.49826595
-0.3871292 0.14452189 0.70512396 0.2293773 0.044274762 0.005625048 -0.014853145 -0.19102237
-0.56345874 -1.0438507 0.8627135 0.33254892 -0.35535896 -0.77656925 -0.54636264 -0.8830353
-0.012477187 -0.97751546 0.07178949 -0.5969136

layers.0.bias f4 [50]
00000000: b156 463f aa02 32bf d104 f6be fa01 303f
00000010: bb86 d33d c05d 113f 19ad 9dbe 3860 80be
00000020: 3a31 11bf 9ed9 133f c40a cfbe 68bb 363f
00000030: f285 cbbc 878a c33e 0540 87be d774 d5bd
00000040: b4f3 99be 3b3f 203f a1ba 613f ef30 8b3e
00000050: a829 ab3e 9006 0ebf 29cf 163f ef29 893e
00000060: 89f4 dcbe afd2 50be b47f 2ebf ef19 3f3f
00000070: ee6a ccbd 6f3f b6be 2277 b1be 83da f93e
00000080: dfb5 76be a001 09bf e2b4 ddbe 99df 10bf
00000090: e46e 32be 54e2 963e 3745 0a3f fa91 0abe
000000a0: f50c 06be 2468 54bf c4b6 2e3f 38dd 3abf
000000b0: 3f73 4ebe e124 aa3e e8f6 c1be d55a 703e
000000c0: 5718 273e b3bc 8cbe
0.7747603 -0.69535315 -0.4805055 0.68753016 0.10328432 0.56783676 -0.30796126 -0.2507341
-0.5671574 0.5775393 -0.404379 0.7137971 -0.024844144 0.38191625 -0.2641603 -0.10422676
-0.30068743 0.6259648 0.881754 0.2718577 0.3343022 -0.55478764 0.5890985 0.26789805
-0.43155316 -0.2039287 -0.6816361 0.74648947 -0.09981333 -0.3559527 -0.34661204 0.48799524
-0.24092816 -0.53518105 -0.43302065 -0.5659118 -0.17425114 0.2946955 0.54011863 -0.13532248
-0.1309088 -0.82971406 0.6824763 -0.72993803 -0.2016115 0.3323126 -0.37883687 0.2347215
0.16317879 -0.27487716

layers.1.weight f4 [50, 50]
00000000: 18ef 24be 7e04 c73c dfc4 ac3d 4150 b73d
00000010: 84a1 fabd 953d 973c ddb0 873d 42eb f6bc
00000020: 2b3c 403e 3ad9 e3bd 70bf 453b b3fc 94bd
00000030: 3650 1f3b 5266 1abe 7ed7 393d dbd3 cf3c
00000040: e98e 083e ed7b 893d 5db5 9abb a5fc cfbc
00000050: 072d 0dbe b379 0a3e cc01 303c 199a 163c
00000060: 374f a53a b183 3dbd 77ec 223b 5125 313d
00000070: c919 12be 7b5d 8abd e3bb a8bd 6163 c33c
00000080: 6b10 aabd 2755 b63c 6c86 bdbd 8232 283e
00000090: 0a02 c7bd 5fa4 ddbd 15ee 8c3d 2aff c9bd
000000a0: 7fe8 e7bd ae56 973c 2f46 1c3d f8a7 6b3c
000000b0: 3c88 d7bb 50c6 97bc 6192 c0bd 121d 47be
000000c0: df22 bc3d ba0f de3d 6e26 473e 9934 87be
000000d0: 02ba d5bd 4dd5 683e d732 c2bd 976e de3d
000000e0: 557e 83be a67e 9f3d a273 1dbd 689c 453e
000000f0: a1f0 b9bd f13c 9b3e 26fd cfbd 44ad 803e
00000100: 95c3 40be e485 053d a3ef 66be 33e4 683e
00000110: 85dc 0e3e 5b82 ac3d 4356 2d3d c79a 45be
00000120: 7392 183e 5e09 633e c628 83bd 791d 65be
00000130: 17ad cdbd baa8 b13e 3c8f 1cbc af88 bdbe
00000140: 84c9 aa3d 7f37 793d 59c4 26be 3700 b4bd
00000150: 9453 7abd 120b 9abe abbe 3cbd af89 443d
00000160: f15f 00bd c3a9 febd 75b3 e6bc 9b3a 3abe
00000170: f608 3c3d 8da0 b5bd 530f 09be 7426 a13d
00000180: 4bf0 853d 9225 9fbd 1e08 983d 8e67 bc3d
00000190: 91a4 443e 50d0 babc 71da b9bd 8ad8 203e
000001a0: 6094 bf3d 7f0a 193e 69b3 97be 47d7 0cbe
000001b0: f740 d0bd 5073 043e d57a ae3d 8dcf 1e3e
000001c0: d933 5a3e ba0c ab3e e710 9dbe 4285 4abd
000001d0: 96e5 36be 0776 3d3c ddf7 673e 32bd 253e
000001e0: 12ac 01be a5c8 3cbe 62c3 52bd b80e b33c
000001f0: 499f 95be ca3e 3d3e 7f3d 48be f609 a33e
00000200: a927 00bc a582 d0bd 919b ac3d aec0 8d3e
00000210: f5be 07be b1c5 29be 5997 833d dcfd 87be
00000220: 0179 4bbe 7b10 453e 9f53 b03d eed5 56bd
00000230: 355e 453d 33f2 6abe e2b6 86bb eecb 30be
00000240: ac72 09be df77 163e b004 23bc 2c22 123e
00000250: 6bfc fc3d 51d7 d5bd 7b05 abbe dee3 d03e
00000260: 093f a33d d3d1 a3be 983d 48bd 1d90 c6bd
00000270: cd25 863e ef66 b5bd 1b0c 483e 54cb 64bd
00000280: 4d81 a63e aef4 9ebe ac7d 5a3e e759 b9be
00000290: c788 423e 9562 4a3e c4a6 8a3d 3ee2 9ebe
000002a0: e9af 89be 44a6 39be c2f7 60bc 1145 cb3d
000002b0: 86a0 783b 535e 9fbe 2e9d 943d 81b6 353e
000002c0: 9641 bd3e d8e5 a2be 5f34 cd3c d2d5 883e
000002d0: 1d6e 88bc 22a8 7abd a5d0 e03d 9c1c 263e
000002e0: 4f2c 5b3e 6c37 b53e 0396 f4bd c13b 2d3d
000002f0: 1e2c 8bbc 40ea cf3b ce43 16be 7ae6 bf3e
00000300: bf66 f6bd d561 023c bd3d dd3d a189 0bbe
00000310: 4a44 f33d 6f72 d0b9 e31c 3c3b 2170 fa3c
00000320: cdbc 8fbd 7501 90bd b8b2 963d 8e45 553d
00000330: 3bbc 9b3d b8dd c63d 5fdb fb3d 75bc a9bd
00000340: a7b1 183e 4f29 0cbe f1e1 33bd 8688 8bbd
00000350: a38e 8cbd fd65 05be db5b 003d 1433 7b3c
00000360: 905d fd3d 7a83 03be 1862 b3bd 2a3f 8dbd
00000370: d2b8 073e 544b b43d b116 87bd 3cf5 d83c
00000380: e8f9 063e 42ad 2b3e bf26 f2bd c9b1 8cbd
00000390: a8f9 d63d 0417 3bbd fac3 b4bd 51e2 edbd
000003a0: 3e7c 1b3e 1b94 88bd ed1d a13d 52f5 8dbc
000003b0: b9ac b5bd 51e9 75bd df92 2a3d fe62 c23c
000003c0: 8f8b 8c3d 7eb1 cf3c a132 06be edc8 55bb
000003d0: ac84 463c 9727 6b3d 5a41 a73c e01a 6cbb
000003e0: 7f04 9cbd 8eb9 f93d db29 c8bd 9e8e 60bd
000003f0: ec6b 733d ac4f 8ebd e8fa 153e 507e 3e3e
-0.16106832 0.024294134 0.08435988 0.08950854 -0.12237838 0.018461982 0.06625531 -0.030141477
0.18772952 -0.11125417 0.003017392 -0.07274761 0.0024309284 -0.15078095 0.045371525 0.025369575
0.13335766 0.0671309 -0.004721327 -0.025389025 -0.13786708 0.13522987 0.010742616 0.009192013
0.0012612109 -0.04626817 0.0024860182 0.04324848 -0.14267649 -0.06756111 -0.082389615 0.023851098
-0.08303913 0.0222574 -0.092541546 0.16425517 -0.09717186 -0.10822367 0.06881348 -0.09863122
-0.11323642 0.01847395 0.03815287 0.014383309 -0.0065775197 -0.01852718 -0.094029196 -0.19444683
0.09186339 0.10842843 0.19448254 -0.26407316 -0.10435869 0.22737618 -0.09482353 0.10860937
-0.2568232 0.07787828 -0.038440354 0.19297945 -0.090790994 0.30319932 -0.10155706 0.2513219
-0.18824609 0.03259839 -0.22552352 0.22743301 0.13951309 0.08423301 0.042318594 -0.19297324
0.14899616 0.22171542 -0.06404261 -0.22374524 -0.1004278 0.3469904 -0.009555634 -0.37018344
0.08339217 0.06084394 -0.16285838 -0.087891035 -0.061114863 -0.3008657 -0.046080273 0.047982868
-0.031341497 -0.12434723 -0.028161744 -0.18186419 0.045906983 -0.08868513 -0.13384752 0.078686625
0.06539973 -0.07770838 0.07423423 0.09199439 0.19203402 -0.02280441 -0.090748675 0.15707603
0.09354472 0.1494541 -0.29629067 -0.13753997 -0.10168641 0.12934613 0.08519522 0.15508862
0.21308841 0.33408147 -0.30676958 -0.04944349 -0.17861018 0.011563784 0.22653146 0.16185454
-0.12663296 -0.18435915 -0.051455863 0.021857604 -0.29223087 0.18480983 -0.19554709 0.31843537
-0.007821956 -0.101811685 0.084281094 0.27686065 -0.13256438 -0.1657932 0.06425352 -0.26560867
-0.19870378 0.19244568 0.086096995 -0.052450113 0.048185546 -0.22943954 -0.004111157 -0.17265293
-0.1342265 0.14694165 -0.009949848 0.14270848 0.123528324 -0.10441459 -0.3340262 0.4079885
0.079710074 -0.3199602 -0.048886865 -0.09695456 0.26200715 -0.08857524 0.19535868 -0.05585797
0.32520524 -0.3104605 0.21337003 -0.36201403 0.18997489 0.19764169 0.06770089 -0.31031984
-0.2689202 -0.18129832 -0.013730945 0.09925283 0.0037937476 -0.3112665 0.07256542 0.17745401
0.369641 -0.31815982 0.025049387 0.26725632 -0.016654069 -0.0611955 0.10977296 0.16221851
0.21403621 0.35393846 -0.11942675 0.042293314 -0.01698881 0.0063450634 -0.14674303 0.37480527
-0.12031316 0.007957895 0.10802791 -0.1362672 0.118782595 -0.0003975811 0.0028703741 0.030571045
-0.07018433 -0.07031528 0.07358307 0.052068286 0.076042615 0.09710258 0.12297701 -0.082878985
0.14911519 -0.13687633 -0.043916646 -0.06813149 -0.06863143 -0.13027187 0.0313376 0.015332002
0.12371361 -0.12843123 -0.08758944 -0.06896813 0.13254097 0.0880343 -0.06596125 0.026484124
0.13181269 0.16765311 -0.118237965 -0.06869847 0.10496837 -0.045676246 -0.08826442 -0.11615432
0.15184113 -0.06668874 0.07867036 -0.017328892 -0.08870835 -0.06003696 0.041643973 0.023728844
0.06862556 0.02535319 -0.13105251 -0.0032620982 0.012116592 0.057410803 0.020416904 -0.003602676
-0.07618045 0.12193595 -0.09773608 -0.05482351 0.059429094 -0.0694879 0.14646494 0.18602872

layers.1.bias f4 [50]
00000000: 300b 573d 14f4 b83d 3610 79bc d60d 23bd
00000010: 3b4f 66bd 9571 203e 74fb 01be 223c f4bd
00000020: 9ec9 13be 2ece f63d 942d 4cbd 4082 a13d
00000030: 951b 56bd 954e 3bbe cddb e1bc b01b ddbb
00000040: a478 f13d 6a85 493e 1685 373e 4e51 053d
00000050: 0c23 933d ddad e43d 5f9e 9f3d c9d5 283e
00000060: 7e69 653e 6368 48be 41d8 57bd ca39 1fbd
00000070: 2cc2 e93d 5f48 debd 90af abbd 1be2 753d
00000080: 6f00 ecbc a151 053e eba7 f6bd f220 0a3e
00000090: af5a aebd 710e edbd a8f9 9d3d daa3 73bd
000000a0: a7de 05be 0321 a1bd b150 203d 4963 e6bc
000000b0: 3925 cdbb 44e3 96bd daf4 d6bd e138 29be
000000c0: e5ef 88bd f451 023e
0.052500904 0.09030929 -0.015201619 -0.039808117 -0.056227904 0.15668328 -0.12693578 -0.11925532
-0.1443238 0.120510444 -0.049848154 0.07886171 -0.052272398 -0.18291695 -0.02757063 -0.0067476854
0.117905885 0.196798 0.17921862 0.03254824 0.07184419 0.11165974 0.07793879 0.16487803
0.22403523 -0.1957107 -0.05269647 -0.03887347 0.114139885 -0.108536474 -0.08383095 0.060030084
-0.0288088 0.1301942 -0.120437466 0.1348913 -0.0851339 -0.1157502 0.07713634 -0.059482433
-0.13073216 -0.078676246 0.039139453 -0.028123515 -0.006260541 -0.07367566 -0.104959205 -0.16525604
-0.06686381 0.12726575

layers.2.weight f4 [50, 50]
00000000: 8d6f 60bd 076c 92ba d357 c53d 3c08 5f3d
00000010: 935b e83d 7a26 4c3c 0561 88bd ec7f 473d
00000020: 1105 213c fc54 9fbd 528b 923d 49c5 d43d
00000030: 01c1 1dbc b538 0ebe 8e91 ecbd 1a7a e2bc
00000040: 3058 aebd c5c5 a13d ada6 e03d bb6a bdbd
00000050: 09aa 223d ed4e 43be 0f44 ff3d 5da1 afbd
00000060: 1926 07be ca5b c03d 0963 b4bd 1673 15be
00000070: 150e 9fbd 741b c53d 4024 cabd e1f0 0d3e
00000080: 6160 12bd be22 2cbe adff 0ebd 8248 9e3d
00000090: e529 073e ed58 2a3d 8dd6 33be b72f 03be
000000a0: 8c00 8c3d 962a d73d bf4c 843d 7491 1c3d
000000b0: a341 b53d ac2d f6b8 6bbf 143e 990d c33d
000000c0: e5cf a3bd 624c 0c3d 860c 2fbd 4491 e03d
000000d0: 0744 bbbd a36b 11be 474e ce3d 59bb debd
000000e0: 4219 20bd 0820 a6bd 8469 03be d355 443d
000000f0: 54cf 2cbd bbff ea3d 0f2c ebbd 1c4c 403e
00000100: 7853 8fbd 0368 2a3e 5e24 a7bd 3b5e e63d
00000110: 470c e5bd a1d1 d7bd 4839 5a3e 2204 58be
00000120: 5099 e4bd c18d 883d 7367 ce3d 990d 043e
00000130: 4ed2 903d 7924 ee3c 5e18 36bd fde2 0dbe
00000140: 8c53 973d e343 63bc f539 d43d ad13 a6bd
00000150: 6bc8 00be af68 b53d 1d69 f23d 14bd 073c
00000160: 77f7 c03c 2d48 a93d 07e5 9a3d 3b06 ebbd
00000170: 0a8d 88bd f9d3 06be dda3 f2bd 9082 f4bc
00000180: 6510 fabb 5c33 24bd 73b5 903d 636b e0bd
00000190: 5300 b33c 84a2 b2bd 4716 b1bc 81d3 b23d
000001a0: ce4c af3d 16cd cd3d 97db d2bd 85e9 3abd
000001b0: bc31 d03d 71b7 4c3e 6de5 ce3d 5c3c cf3d
000001c0: 6214 d2bd ce4d fabc 82d6 5c3e 56ac 31be
000001d0: aed4 cabd 9306 b9bd 7a6d b6bd 209c 87bb
000001e0: 1677 cfbc 5e37 e23d d9b0 313e 5179 d53d
000001f0: 00f2 6c3e 8a5e e23c b213 c23d f587 3abd
00000200: 4096 c43e 85e2 20be 039d af3d fc7d 02be
00000210: a924 c53b 2e92 3d3e a59a d33d c539 b33d
00000220: 457e f33d 726e 97be 0168 793e ab85 163e
00000230: 5ca6 0f3e ab5f a43d 0668 8dbe bf9c f8ba
00000240: 116a 89bd 02e8 003e bdfc b4bd 448d 893d
00000250: 36e2 5dbd da7f 513d 7a85 923e 2d6f d2bc
00000260: 7093 633e 1547 88be db6a e6bd 50fc 813d
00000270: 182d cb3d af35 9c3d d6e1 e6bd 1d93 b0bc
00000280: 7e03 e0bd 9b08 143d 0f8c 97bd f2aa 39bd
00000290: 3560 a9be 1114 893e 4a20 eebc af19 9c3e
000002a0: 858b fdbd d647 7dbb 0f03 bfbd c143 e8bd
000002b0: ca4e fe3b 5d33 a3bd f03e 22be 47fd f13c
000002c0: 768a d0bc 8530 2fbe 47c8 b3be 1892 153e
000002d0: d31e 063e ce46 703e 7a93 933d d7de 04bf
000002e0: 6884 22bf 5526 e4bd 0029 dcbd e65a 563e
000002f0: 1f93 f4be 7f17 0fbe 0fd3 c03d 1252 7cbd
00000300: 1fd2 b43e 4bab cc3d 4010 ee3b b0d2 8abc
00000310: e5fd ae3d ef82 8dbd 3c5d abbd 8205 023e
00000320: 0a50 40bd 8e7d d4bd cee6 55bc 5264 423d
00000330: 5bac 913d 9208 59bd fe60 81bd 331f d43d
00000340: 1bed 0b3e 1a56 973d 32a4 f33b f880 663c
00000350: ca68 703e dbab f1bd 9852 05be cce7 343e
00000360: f1a6 a03d 763f b6bd ed66 25bd 4856 02be
00000370: 226a 293e 44c0 7bbe c11d 5ebd 7931 0bbe
00000380: 3fa7 80be 2ff0 623e bb58 a23d f2bc 7fbd
00000390: c54b bcbd fd0c 6c3c 850a e93d b06f 18be
000003a0: 1120 dbbc aad3 2cbe 96fa 77be 914b a0bc
000003b0: 6636 753d cd6a 91bc 4c54 febd 117f 193e
000003c0: 02b1 a3bd cb3e c9bd 3bdc 473d 4c8d 0cbd
000003d0: 9f44 dd3d 03f1 b43d f579 8dbd 3ce0 1a3c
000003e0: eb1b 683b 91b3 c8bd f8c5 72bd 8420 b2bd
000003f0: 73da 003e 22c4 31be d197 df3c 5294 e93c
-0.054793883 -0.0011171111 0.09635892 0.054451212 0.113455914 0.012460345 -0.0665913 0.04870598
0.009827868 -0.07779881 0.071554795 0.10389192 -0.009628535 -0.1388882 -0.115512 -0.027646113
-0.08512914 0.0789905 0.10969291 -0.09248873 0.03971294 -0.19073077 0.12464153 -0.085756995
-0.13198127 0.093925074 -0.08807952 -0.14594683 -0.07766358 0.09624377 -0.098701954 0.1386142
-0.035736445 -0.16810128 -0.0349118 0.077286735 0.13199575 0.041588712 -0.17562313 -0.1281117
0.06836042 0.105061695 0.06459951 0.038224652 0.0885041 -0.00011738701 0.14526145 0.09524078
-0.07998637 0.03425253 -0.042736553 0.10965207 -0.091438346 -0.14201216 0.10073524 -0.108755775
-0.039086588 -0.08111578 -0.1283322 0.04793341 -0.04218991 0.11474558 -0.11483013 0.18779033
-0.06998342 0.1664124 -0.08161233 0.11248442 -0.11183982 -0.105380304 0.21310914 -0.21095327
-0.111620545 0.066676624 0.10078325 0.12895812 0.070713624 0.029070126 -0.044456832 -0.1385612
0.07388982 -0.013871166 0.10362617 -0.081092216 -0.12576453 0.088578574 0.11836455 0.008284826
0.0235555 0.082657196 0.07563215 -0.11475798 -0.06667526 -0.13166799 -0.11847661 -0.029847413
-0.007631349 -0.040088043 0.07065859 -0.109579824 0.02185074 -0.08722404 -0.021617068 0.087317474
0.08559571 0.10048883 -0.1029579 -0.045632858 0.10165736 0.19991852 0.10102353 0.101189345
-0.10257794 -0.030554678 0.21566203 -0.17350897 -0.09903847 -0.09034457 -0.089076 -0.0041384846
-0.02532534 0.11045717 0.17352618 0.1042353 0.2313919 0.02763297 0.09476413 -0.045539815
0.38395882 -0.1571141 0.085748695 -0.12743372 0.006016333 0.18512794 0.103322305 0.08751253
0.118893184 -0.2957645 0.2435608 0.14699428 0.14028305 0.0802606 -0.27618426 -0.0018967612
-0.06709684 0.12588504 -0.088372685 0.067163974 -0.05417081 0.05114732 0.2861746 -0.025687778
0.22224212 -0.2661673 -0.1125085 0.06346953 0.0992071 0.07627427 -0.112735435 -0.021554524
-0.10938166 0.03614102 -0.07399761 -0.04532904 -0.33081213 0.26773122 -0.029068131 0.30488345
-0.12380127 -0.0038647554 -0.09326755 -0.11341048 0.007760857 -0.07968781 -0.15844321 0.029539717
-0.025456648 -0.17108352 -0.35113737 0.14606512 0.13097696 0.2346451 0.07205863 -0.51902527
-0.63483286 -0.11140124 -0.10750008 0.20933113 -0.47768494 -0.13973807 0.09415256 -0.061601706
0.3531656 0.09993609 0.0072651207 -0.016946167 0.0854452 -0.06909739 -0.083673924 0.12697414
-0.04695133 -0.1037551 -0.013055516 0.047458954 0.07112952 -0.05298669 -0.06317328 0.10357513
0.13664667 0.073894694 0.007435345 0.0140688345 0.23477474 -0.11800357 -0.13019788 0.17666548
0.078443415 -0.08898823 -0.04038136 -0.12728226 0.16544393 -0.24585062 -0.054227594 -0.13593091
-0.251276 0.22161935 0.0792708 -0.06243605 -0.091941394 0.0144073935 0.113789596 -0.14886355
-0.026748689 -0.16877618 -0.24216685 -0.019567283 0.05986633 -0.017751122 -0.12418422 0.14989878
-0.07992746 -0.0982643 0.048794013 -0.03431444 0.10804104 0.08835032 -0.06908027 0.009452876
0.003541703 -0.097998746 -0.05927083 -0.08697608 0.12583332 -0.17359975 0.027294071 0.028513107

layers.2.bias f4 [50]
00000000: 2b72 e53d b147 513d a93b 3c3e 228b dabc
00000010: 2cbe 30be a3d0 4fbd f3ec 15bd 6889 b63d
00000020: cb7c a2bd b4b6 a73d 95ee 773d 333c dc3d
00000030: efee 81bd 955c cebc c19b 82bd e53b 58bd
00000040: 987a df3d bffc 593b bbe4 e23c 9dff f83d
00000050: 7238 b6bd e814 113e 6383 81bd 0e16 f63c
00000060: 6058 afbd b842 bbbd 5aa1 193e 9ebd 05be
00000070: a84e 4a3d f794 453e 174c f0bc 896d cebd
00000080: 2401 c43d 43af 253d fdf9 053d 5f22 613d
00000090: 4b8c 97bd 944a ce3d dd2b e1bd 3bc0 8c3d
000000a0: 4f87 eabd f9a3 6ebb 1766 2d3c bfa3 4ebc
000000b0: ca9b 83bd 8db4 f33d 4c40 f1bd e300 ccbd
000000c0: 5838 583e 9fec 403e
0.112034164 0.05109376 0.18382134 -0.026677672 -0.17260045 -0.05073608 -0.036602926 0.08912927
-0.079339586 0.08189145 0.060530264 0.107536696 -0.06344401 -0.02519063 -0.06377364 -0.052791495
0.10912055 0.003326222 0.027696958 0.12158129 -0.08897485 0.14168131 -0.06323888 0.030039813
-0.08561778 -0.09143585 0.15002957 -0.13060614 0.04939142 0.19295107 -0.029333157 -0.10079486
0.0957053 0.040450346 0.03270911 0.05496442 -0.07399806 0.100728184 -0.109946944 0.068726026
-0.11451589 -0.0036413653 0.010583422 -0.012612282 -0.06426199 0.11899672 -0.11779842 -0.09961107
0.21115243 0.18840264

layers.3.weight f4 [1, 50]
00000000: cbfb b03d 516b 42be 60c7 38be b070 1c3e
00000010: 9709 8a3d 689d e13d 88f0 fc3d 876a 41be
00000020: c472 793d 262b 9c3e 483a 343e dded 22be
00000030: b21a 353e 19a2 123e 68ea 893e 7d8b c8bb
00000040: 8c4c b83d e377 753d ecf5 15be 14af f03d
00000050: 1b81 753e 3088 3639 3706 f23d 519d 2e3e
00000060: f61d b13d 3f27 e8bd 3b9a 2bbe f242 4f3e
00000070: 2393 303e e496 833e 811a 2c3e c749 0cbe
00000080: 897b 8d3e 6ed9 8a3e 44c9 1f3e 1292 8dbd
00000090: 57c6 a93d 24fc ddbd 72ee cbbd d635 f63d
000000a0: 2d91 2dbe 6881 82bd 30ca bd3d 2dd8 603e
000000b0: 8aac b4bc 4526 56be 9fbd 56be 16ad 3b3e
000000c0: 7c57 05be 3891 a2be
0.08641776 -0.1898625 -0.18044806 0.15277362 0.0674011 0.11016351 0.12350565 -0.18888293
0.060900465 0.3050167 0.17600358 -0.1591105 0.17685965 0.14319648 0.2693665 -0.006120144
0.08998975 0.059928786 -0.14644593 0.117521435 0.23975031 0.00017407606 0.11817592 0.17052199
0.08648293 -0.113356106 -0.16758053 0.20240381 0.17243628 0.25701058 0.16806985 -0.13700019
0.27633312 0.2711901 0.1560412 -0.06912626 0.082897834 -0.10839108 -0.09957589 0.12021987
-0.16949911 -0.063723385 0.0926708 0.21957465 -0.02205493 -0.20913036 -0.20970772 0.18327746
-0.13021654 -0.31751418

exp_avg f4 [50, 2]
00000000: 8d19 72b7 078d d0b6 2e94 5737 89f8 0637
00000010: 3923 e9b5 e556 54b5 1c6e 0437 69fd b734
00000020: 2472 15b8 8036 2a37 cf40 d1b5 e2c3 c8b5
00000030: 8cf4 4038 8fa5 f8b6 5929 29b6 989b 5737
00000040: e56a b438 6326 aab7 b37b a6b6 3828 aab6
00000050: ea99 59b8 9d85 ecb6 18b3 18b7 aab9 b636
00000060: bede 54b8 a356 7336 cf09 90b8 876a e936
00000070: 0eb4 7b38 0c20 99b7 e6c4 23b8 40c8 6037
00000080: 92aa d138 5494 a4b7 5357 d6b7 59ce 86b6
00000090: 9ede ccb7 d592 cab6 507d 9bb6 706a cab6
000000a0: 45fd a635 a341 4435 1596 6b37 c3fa a835
000000b0: 23f7 0936 0efe 9eb6 faac 9037 217d 4bb7
000000c0: e0dd b038 e1da 46b6 ec50 62b8 9f98 a1b6
000000d0: 8cab 0f38 8600 8137 7c50 8bb8 95e6 b2b6
000000e0: cb68 f4b6 491a 1f37 2e18 9338 c8e0 91b7
000000f0: ecf5 7eb5 db30 ed36 3197 4bb8 0ab7 2036
00000100: 0f66 7538 f2ec a0b7 f172 8236 7a57 8835
00000110: 93f8 66b7 1a53 2334 b74f 8538 45cb 3836
00000120: 6311 ce38 b877 d5b7 31c9 e0b7 84e0 6836
00000130: 4908 9db6 0a72 02b5 8fdd fdb6 8f9c 3837
00000140: c854 3838 1c16 a837 7c4d 3db6 4a5d 89b4
00000150: a45d 59b7 56a6 eab6 0f04 7a36 fd7c 1f36
00000160: 3b43 85b7 c418 0937 3d00 5db5 5cdc d5b5
00000170: 5805 48b7 6b5b 7db5 4b24 73b8 ad6c 9237
00000180: f909 96b8 102e a637 d829 e7b7 87ef 5436
-1.4430273e-05 -6.215301e-06 1.2849499e-05 8.044889e-06 -1.7370104e-06 -7.91026e-07 7.89345e-06 3.4270786e-07
-3.563067e-05 1.0145479e-05 -1.5590575e-06 -1.4958171e-06 4.600412e-05 -7.4102495e-06 -2.520703e-06 1.2851226e-05
8.6029795e-05 -2.0283454e-05 -4.961586e-06 -5.071077e-06 -5.1880175e-05 -7.0489027e-06 -9.1016045e-06 5.445637e-06
-5.0752184e-05 3.626025e-06 -6.868282e-05 6.9563425e-06 6.0010752e-05 -1.8253944e-05 -3.9045604e-05 1.3398065e-05
9.997668e-05 -1.9619394e-05 -2.5551451e-05 -4.0175332e-06 -2.442236e-05 -6.0371626e-06 -4.6339483e-06 -6.03246e-06
1.2441675e-06 7.3111204e-07 1.4042035e-05 1.2589957e-06 2.0558443e-06 -4.738343e-06 1.7246686e-05 -1.2128877e-05
8.4336614e-05 -2.9631703e-06 -5.3957963e-05 -4.8159413e-06 3.4253622e-05 1.5378242e-05 -6.643028e-05 -5.3316567e-06
-7.283966e-06 9.4832585e-06 7.01401e-05 -1.7390019e-05 -9.4980237e-07 7.068838e-06 -4.853978e-05 2.39484e-06
5.85076e-05 -1.9183823e-05 3.887683e-06 1.0158249e-06 -1.3766944e-05 1.521079e-07 6.356782e-05 2.7536455e-06
9.826084e-05 -2.5447327e-05 -2.6796568e-05 3.470138e-06 -4.679929e-06 -4.859472e-07 -7.5657804e-06 1.1003706e-05
4.3947977e-05 2.0037456e-05 -2.8208296e-06 -2.5586115e-07 -1.295601e-05 -6.9931075e-06 3.7255265e-06 2.37656e-06
-1.5886142e-05 8.1716025e-06 -8.232926e-07 -1.593387e-06 -1.1922173e-05 -9.4382875e-07 -5.7969515e-05 1.7455162e-05
-7.154415e-05 1.9810192e-05 -2.755683e-05 3.1729885e-06

exp_avg_sq f4 [50, 2]
00000000: 7291 2f39 5efb 1837 6bdf 2c39 9658 0f37
00000010: 8e3f ae36 43ca 2736 0940 8039 f85a bf38
00000020: e68d 4138 4e26 dc37 3b22 f935 3da9 2c37
00000030: c3fa e937 32bd eb38 d9f7 7c37 358b 9437
00000040: 4466 d538 fa2b f737 dd79 0337 a349 cc37
00000050: c464 f538 47f9 9538 e58e 6039 0d21 a036
00000060: 4d62 5a38 1fc2 8b39 41f3 0839 f38a 7339
00000070: a654 a738 8082 4639 c18f ce37 2d49 dc38
00000080: 88a2 3738 f65f 2e39 4fa3 1139 00e8 1337
00000090: d943 0639 9ce9 8036 14a4 bd36 0824 0037
000000a0: f479 af37 33e8 8e38 4df2 f535 98f9 a237
000000b0: ccc8 ce36 97af b037 51ba 9838 6334 8b38
000000c0: e0e0 4039 457d 053a 932d e939 6a36 463a
000000d0: d5da c338 6950 e338 f3e5 4e39 9458 043a
000000e0: bf6e 3138 8dc6 1638 848b 9838 fb43 ba38
000000f0: 3614 a235 3d9e 5434 cb8f e737 a786 f438
00000100: 6c9e cf37 24d5 4336 330e 0036 a584 3937
00000110: 926c 6436 e1bb 8935 2442 c638 47c4 0938
00000120: bcfe a339 e6c1 a73a 2589 0439 f7a0 3f39
00000130: 344d c836 4fc8 bc36 9748 1f38 27b0 fd37
00000140: 5e59 1b39 5091 a938 5adf 9339 02dc 1d39
00000150: 1761 7b35 3cd1 7936 75ac 2f37 59c2 8e37
00000160: bda4 c437 44a2 2837 d3fe 9237 a0fc 6637
00000170: 4ce5 c136 9947 8b36 7b09 8038 e371 d037
00000180: d9f6 e537 567c 5338 e4f0 1337 9946 bf36
0.00016743483 9.118432e-06 0.00016486428 8.54409e-06 5.193003e-06 2.500267e-06 0.00024461772 9.124534e-05
4.614694e-05 2.624388e-05 1.8561908e-06 1.0291403e-05 2.7892534e-05 0.000112409136 1.5078077e-05 1.7707798e-05
0.0001017568 2.9465173e-05 7.836582e-06 2.4352985e-05 0.000117012794 7.151305e-05 0.00021415537 4.772219e-06
5.20668e-05 0.00026656777 0.0001306059 0.00023226049 7.9789475e-05 0.00018931367 2.4624054e-05 0.000105040475
4.378197e-05 0.00016629681 0.00013889115 8.8158995e-06 0.00012804511 3.841893e-06 5.65174e-06 7.637784e-06
2.0918415e-05 6.814338e-05 1.8324441e-06 1.9428131e-05 6.1626542e-06 2.10626e-05 7.282629e-05 6.637794e-05
0.0001839432 0.0005092214 0.0004447518 0.0007561209 9.339085e-05 0.00010839181 0.00019731354 0.00050485996
4.230323e-05 3.59477e-05 7.2739116e-05 8.8818335e-05 1.2075823e-06 1.9801605e-07 2.7604305e-05 0.000116599076
2.4750094e-05 2.9181329e-06 1.9081751e-06 1.1057743e-05 3.4037844e-06 1.0261975e-06 9.4536954e-05 3.2846143e-05
0.00031279575 0.0012798875 0.00012639591 0.00018275144 5.969452e-06 5.6261556e-06 3.797616e-05 3.0241978e-05
0.00014815244 8.0856145e-05 0.00028204435 0.00015054646 9.364607e-07 3.7225682e-06 1.0470966e-05 1.701822e-05
2.3441733e-05 1.0051361e-05 1.7523218e-05 1.3767887e-05 5.778542e-06 4.150858e-06 6.1052815e-05 2.4848565e-05
2.7413875e-05 5.0422117e-05 8.8179695e-06 5.700462e-06

exp_avg f4 [50]
00000000: 041d 95b7 fc2f eb37 a546 e4b7 a3a4 0d37
00000010: 990a e5b7 37ee 28b8 2297 2938 26e0 4238
00000020: 59b7 b037 ba16 75b8 4d8b 38b8 470a 8136
00000030: 9adc a3b6 a0d3 2436 fece 66b8 827d 2138
00000040: f1a2 c6b7 2cab 18b8 d4a0 19b8 e09b 28b7
00000050: 17b9 dab7 51c5 8238 34a7 3eb8 73bc 15b8
00000060: 8cd5 8738 c899 80b7 ddf7 2138 efe0 34b7
00000070: ce7f 36b8 1cd5 44b8 ef60 1b37 6a31 3bb8
00000080: 336a b933 652a bf37 1958 0f36 1a4e 4338
00000090: 1aaf 66b8 e3f8 6db8 f3b5 a437 0117 09b7
000000a0: d257 0939 dabe a7b7 1e5c 42b8 2eda 0338
000000b0: eb61 e5b7 f71a c637 caa6 fbb7 0f0b dbb7
000000c0: 6801 cc37 bff7 4a36
-1.7775696e-05 2.8036528e-05 -2.7212614e-05 8.442587e-06 -2.7303862e-05 -4.0276176e-05 4.0433493e-05 4.646196e-05
2.1066213e-05 -5.8433718e-05 -4.3998753e-05 3.845696e-06 -4.88346e-06 2.4561086e-06 -5.502905e-05 3.850228e-05
-2.3679315e-05 -3.639904e-05 -3.6627825e-05 -1.0049873e-05 -2.6073814e-05 6.235636e-05 -4.545525e-05 -3.5699875e-05
6.477078e-05 -1.5330399e-05 3.8616232e-05 -1.07812075e-05 -4.351121e-05 -4.6928515e-05 9.261289e-06 -4.4630295e-05
8.634051e-08 2.2788716e-05 2.135994e-06 4.656436e-05 -5.499935e-05 -5.6736997e-05 1.963505e-05 -8.171192e-06
0.00013098054 -1.9996824e-05 -4.6338995e-05 3.143603e-05 -2.7344524e-05 2.3615996e-05 -2.9999199e-05 -2.6111984e-05
2.431935e-05 3.0244553e-06

exp_avg_sq f4 [50]
00000000: 27f1 b138 afa2 de37 a1ed 3b37 223c 7f39
00000010: 93a5 8638 1cd6 8f38 37a9 8b39 254f 6238
00000020: 55b3 cf38 386d f438 f01e 3f39 402c 3538
00000030: bbfc ef39 e305 8939 e651 9239 1678 3039
00000040: 6392 5a39 d96f 7d37 ed55 2238 1087 5837
00000050: 8a7e e038 a888 2739 e4b0 8f38 de76 1f39
00000060: 5dfb 913a 8001 c13a ec17 c638 12ba 173a
00000070: 2aca 1339 72e7 0939 2589 6135 626a 8d39
00000080: 9cfc e637 f220 4738 2fb3 a835 16f2 6637
00000090: a852 123b 827e 1d3a 17ba 9337 3831 2f38
000000a0: 7cd1 0e3a 7c18 2b39 158d 4438 e854 2738
000000b0: 57a8 1338 9849 c437 6121 0b38 2a04 9638
000000c0: 0228 b838 34e2 8c37
8.484936e-05 2.6540218e-05 1.1201396e-05 0.00024341096 6.4204585e-05 6.858652e-05 0.0002663822 5.3956308e-05
9.9039324e-05 0.0001165517 0.00018226705 4.3194974e-05 0.0004577393 0.00026135062 0.0002790831 0.00016829403
0.00020844633 1.5106017e-05 3.8703834e-05 1.290605e-05 0.00010704722 0.0001597727 6.85172e-05 0.00015207703
0.0011137534 0.0014725178 9.4458315e-05 0.00057879195 0.00014094324 0.00013151558 8.4018603e-07 0.00026972877
2.7535767e-05 4.747598e-05 1.2569125e-06 1.3765433e-05 0.00223271 0.0006007926 1.761042e-05 4.176909e-05
0.0005448086 0.00016316952 4.6861434e-05 3.9894978e-05 3.520431e-05 2.339929e-05 3.317127e-05 7.153333e-05
8.781256e-05 1.6794635e-05

exp_avg f4 [50, 50]
00000000: 198d bc37 e60e dfb7 6142 7bb7 22ec 8637
00000010: 30ed 4937 578a e037 3665 aab7 257b 2ab7
00000020: 1b8f 14b8 52ff cc37 3af0 2fb7 81e0 ce37
00000030: 6d8c 2437 65c5 c337 5745 85b7 bb10 dab4
00000040: 874e b2b7 aae6 f437 a1d5 d037 37b6 3836
00000050: 148e 7237 ed4b ebb7 8f97 ce37 2134 1b37
00000060: c2ec 06b8 0122 2e36 1164 08b8 c8d9 2d38
00000070: 88ba 9d36 7852 b9b7 832f 46b7 0551 0138
00000080: 5fc9 b0b7 d4d3 b5b7 bdb3 8fb7 7f28 02b8
00000090: 9018 a8b7 9117 9337 e36f 8c37 c4ba 1136
000000a0: 2827 08b7 68fe f0b7 e247 ff37 e52d 01b8
000000b0: 923e 99b5 fa54 a136 c42b 5ab7 9e61 b937
000000c0: 48d6 9837 6a9a 0db7 72a7 15b6 dbbf 9735
000000d0: 2ee3 92b6 789d 06b6 10e7 64b6 589a 3e36
000000e0: 8a8c d4b4 3094 0fb6 8d2f 3b36 e172 9a36
000000f0: 90ee 9ab4 67a0 f3b5 1756 9f35 dc01 73b5
00000100: 6c70 c235 e868 24b5 810a a735 3ea2 88b4
00000110: cf4e ffb5 3f90 9236 d619 1236 67fa 48b6
00000120: 95e3 3836 056f 8133 89ec 35b6 ac41 4936
00000130: 9275 5a35 5c18 efb3 259d 81b6 558d eb35
00000140: 2353 77b6 5637 b835 03cd 0e36 8c0d 8fb6
00000150: 9bc4 70b6 4ccc 8b35 c076 0ab6 964a 9e36
00000160: 54bd 9636 666c 85b6 d87a 3eb6 677d c935
00000170: 83d0 4a36 9a51 58b6 23fc 86b6 570c 9536
00000180: 0243 81b6 f218 56b6 3a33 9fb5 f5a1 fdb5
00000190: eff7 65b7 62bb 2237 a95c af36 2f95 7ab7
000001a0: f01a acb4 a530 53b6 ccab 0f33 9ec8 2f36
000001b0: 8a8a c835 4301 7eb5 653d 1f37 e486 3eb7
000001c0: c6f7 0a37 ffa4 0cb6 e6fd 2e36 0749 8436
000001d0: 945c a734 4eeb ceb6 0e3f 6fb7 6088 61b6
000001e0: 78ff 5ab6 9106 df35 7b33 b9b6 16f0 bab6
000001f0: d4c0 a2b6 8c91 4e37 a48d cd36 ac20 20b6
00000200: d2c5 9a36 fb85 2536 f4fa 9c36 0269 fa34
00000210: bdcd 0cb6 aeab 3036 b8f0 9136 75a8 7f36
00000220: 73ad eab6 7672 ab36 c81f b2b6 a801 3c36
00000230: a421 25b6 1b8a 4037 a3eb 8db6 0a7e af36
00000240: a6eb bf36 e5d8 8db6 b4c4 b036 e042 fd35
00000250: b45b 9036 0ebe b236 0d52 8e36 35bb 08b6
00000260: 0a1a 2e37 b2cf 6d36 fc9f 0437 0486 ddb6
00000270: 4667 4935 3169 aa36 7b12 deb6 7ffb 30b7
00000280: 0760 c835 0f3c 6936 b7ac f9b5 7e35 0c36
00000290: 746e 59b6 ebbe ee35 8c2a 4bb6 a928 9c34
000002a0: 622b 6936 35fd 2bb7 7875 aeb6 0a96 e536
000002b0: af28 dfb6 03b8 15b5 b430 bb36 f309 c4b6
000002c0: 2234 d7b5 664b c734 9df8 1c37 5730 86b6
000002d0: 7d09 1437 4973 41b6 6945 b3b6 4b80 2537
000002e0: 5a12 0f37 cbdc 1ab6 7f92 8436 8bfe 2eb7
000002f0: 032d 32b7 dc5d 1d37 efbb d236 c485 3ab6
00000300: 9802 eeb6 bf46 0037 801a 2437 35c8 2fb7
00000310: cd60 1b37 28d6 0137 0273 6236 7f96 a136
00000320: b228 3f37 86bf 3fb7 d940 71b7 e20f 3737
00000330: 9b84 05b6 8350 5f37 f5c8 bbb6 bf8d 02b7
00000340: 0cf8 d3b6 f71f 6637 4770 21b7 9505 3937
00000350: 688a cfb5 e0b1 c236 987e 66b6 3026 82b6
00000360: cd3c 6eb6 4a0e 3937 3d69 5737 5657 2537
00000370: 3899 1c37 f985 56b7 40a6 7037 3b1a d236
00000380: b781 12b7 891f 53b6 5f9d 39b7 cbfe 4837
00000390: 8f77 0ab7 e60d 97b6 b856 4bb7 e0b6 1d37
000003a0: d9aa 1cb5 2b04 68b7 3d2e 5ab7 ecb2 13b7
000003b0: a36e 58b6 39c6 0437 ef9f 7b37 0749 00b7
000003c0: 6c47 9fb6 3ebb 53b7 4ff1 7f37 7674 89b7
000003d0: e958 37b7 4ced 3a37 b579 5cb7 b53b 0bb5
000003e0: de13 c0b4 17a4 14b7 4e12 3ab8 b306 4438
000003f0: c818 4d38 6f40 23b8 6668 98b5 2fc5 5bb8
2.247705e-05 -2.659061e-05 -1.4976221e-05 1.6084003e-05 1.2035758e-05 2.67673e-05 -2.031271e-05 -1.0161461e-05
-3.5419227e-05 2.4437588e-05 -1.0486745e-05 2.4661656e-05 9.807857e-06 2.333773e-05 -1.5887124e-05 -4.0617837e-07
-2.125582e-05 2.9194478e-05 2.4895011e-05 2.75242e-06 1.4457404e-05 -2.8049539e-05 2.4627689e-05 9.250857e-06
-3.2168587e-05 2.5947813e-06 -3.251812e-05 4.144924e-05 4.7006797e-06 -2.2092121e-05 -1.1812782e-05 3.0831452e-05
-2.1074606e-05 -2.1675522e-05 -1.7130626e-05 -3.103213e-05 -2.0038598e-05 1.753474e-05 1.6741402e-05 2.1715396e-06
-8.1153485e-06 -2.8728697e-05 3.0431842e-05 -3.079874e-05 -1.1417599e-06 4.8080665e-06 -1.30040025e-05 2.2099175e-05
1.8219594e-05 -8.440207e-06 -2.2300196e-06 1.1306214e-06 -4.3775863e-06 -2.0059215e-06 -3.4109144e-06 2.8402046e-06
-3.9590333e-07 -2.1394917e-06 2.789285e-06 4.6029313e-06 -2.8858312e-07 -1.8151594e-06 1.1871479e-06 -9.052726e-07
1.4486845e-06 -6.124742e-07 1.2445527e-06 -2.545002e-07 -1.9021917e-06 4.3679315e-06 2.1770734e-06 -2.9948076e-06
2.7550607e-06 6.027225e-08 -2.7108783e-06 2.998956e-06 8.1382416e-07 -1.1133736e-07 -3.8627936e-06 1.7549997e-06
-3.685426e-06 1.3725173e-06 2.1278981e-06 -4.263309e-06 -3.5877226e-06 1.0415765e-06 -2.0632724e-06 4.71745e-06
4.492389e-06 -3.976328e-06 -2.838371e-06 1.5012164e-06 3.0221715e-06 -3.2234007e-06 -4.022864e-06 4.4419826e-06
-3.8523003e-06 -3.1903005e-06 -1.1861332e-06 -1.8897105e-06 -1.370719e-05 9.699581e-06 5.2261935e-06 -1.4935896e-05
-3.2057096e-07 -3.1469765e-06 3.345103e-08 2.6193807e-06 1.4941481e-06 -9.462421e-07 9.491433e-06 -1.1356289e-05
8.28313e-06 -2.0957666e-06 2.6075809e-06 3.942408e-06 3.1173533e-07 -6.1666715e-06 -1.4260191e-05 -3.3606993e-06
-3.2633234e-06 1.6616706e-06 -5.5194228e-06 -5.5711816e-06 -4.8504244e-06 1.2312445e-05 6.1259652e-06 -2.3860875e-06
4.612587e-06 2.4664903e-06 4.678377e-06 4.6642532e-07 -2.098138e-06 2.6325974e-06 4.34936e-06 3.8096016e-06
-6.9939356e-06 5.109522e-06 -5.308513e-06 2.8015147e-06 -2.4606497e-06 1.1476247e-05 -4.229559e-06 5.2300793e-06
5.7196767e-06 -4.2273773e-06 5.268108e-06 1.8869432e-06 4.30221e-06 5.3269387e-06 4.2414817e-06 -2.0374548e-06
1.0377271e-05 3.5436647e-06 7.905062e-06 -6.6019147e-06 7.502862e-07 5.0786407e-06 -6.618267e-06 -1.05489735e-05
1.4929109e-06 3.4754664e-06 -1.8602212e-06 2.0892762e-06 -3.2399812e-06 1.7787946e-06 -3.0274123e-06 2.9086848e-07
3.4744958e-06 -1.0251349e-05 -5.1992793e-06 6.8421987e-06 -6.650654e-06 -5.57746e-07 5.578704e-06 -5.8424134e-06
-1.6033921e-06 3.7121498e-07 9.356209e-06 -3.9991387e-06 8.823697e-06 -2.8826346e-06 -5.342696e-06 9.864637e-06
8.527737e-06 -2.3076307e-06 3.950961e-06 -1.0430474e-05 -1.0620107e-05 9.379783e-06 6.280366e-06 -2.7794022e-06
-7.0932547e-06 7.645866e-06 9.781332e-06 -1.0477427e-05 9.261258e-06 7.738861e-06 3.3743568e-06 4.815694e-06
1.1393962e-05 -1.142908e-05 -1.4379818e-05 1.0911348e-05 -1.989573e-06 1.3310581e-05 -5.5964288e-06 -7.781607e-06
-6.3171665e-06 1.3716511e-05 -9.622489e-06 1.1028159e-05 -1.5462983e-06 5.802358e-06 -3.4346358e-06 -3.8787475e-06
-3.5500154e-06 1.1030186e-05 1.2839501e-05 9.855101e-06 9.333999e-06 -1.2786587e-05 1.4343823e-05 6.2615413e-06
-8.73248e-06 -3.1459806e-06 -1.10635e-05 1.1980253e-05 -8.253278e-06 -4.5017687e-06 -1.2119934e-05 9.400508e-06
-5.8363145e-07 -1.3829248e-05 -1.3004578e-05 -8.803541e-06 -3.2250907e-06 7.913965e-06 1.4998003e-05 -7.6463975e-06
-4.746884e-06 -1.2620176e-05 1.5255368e-05 -1.6385904e-05 -1.0928351e-05 1.1141714e-05 -1.3141359e-05 -5.186842e-07
-3.5777242e-07 -8.859693e-06 -4.4362903e-05 4.673628e-05 4.8898888e-05 -3.8922237e-05 -1.1355266e-06 -5.239731e-05

exp_avg_sq f4 [50, 50]
00000000: e55d 3438 c234 1838 b0fa ef38 db2b 6738
00000010: 1803 eb37 2093 7138 65ec 2737 08d4 0238
00000020: dbd8 2b38 fa80 8c38 ec4c 7038 fe90 1638
00000030: aedd d537 3630 6537 f70e e436 a78f 8f37
00000040: 801c 8637 5829 0238 063d 6138 c1de a438
00000050: ad8b 2038 cb7b 4738 888d a938 5b62 9c37
00000060: 9ba9 e937 9cee b637 a4d6 0a38 54bf 4638
00000070: 65dd a838 35cb 7037 2e67 b638 8a7b d037
00000080: f52c 0f38 f919 a638 d395 af38 efd8 d537
00000090: 44df 9737 ceaa 8337 e457 fc38 bd18 8338
000000a0: 9316 0a37 8e01 3f38 70ba 9f38 083b c638
000000b0: 8095 d838 53b9 c338 8c83 d138 619e 3638
000000c0: 987e 1638 2718 5738 8cfc 2737 3366 8c36
000000d0: 9349 8636 4651 4137 7591 6436 0750 e035
000000e0: 392f bc33 5027 9835 cf7b 3b36 66ae bc36
000000f0: 64e9 3a36 84f0 e036 46f8 8136 0a88 2635
00000100: 39b4 a335 c7ca 1e35 a09c 4835 9b45 9535
00000110: ba74 2437 b83b 8c36 057d 9535 8121 0a36
00000120: ebc6 ed35 38f9 9235 caa6 a336 4681 4337
00000130: c812 ca35 6a6c 8a34 4635 6b36 a61b d135
00000140: 71cb 5236 94b0 3835 c9a7 db35 0f91 8a36
00000150: ac5c 4436 b4cc 8d35 aafa 9e36 134d 3137
00000160: aac7 8a36 9245 7836 73eb 5936 fb79 c836
00000170: 50af f335 0c3b 1136 e35e 7736 810c 8c36
00000180: 7df5 6136 6db5 4136 426b 9535 63e1 ac35
00000190: 7a85 9737 8036 0837 7511 c838 9bf5 6938
000001a0: 92b8 3338 7029 0838 328d 7836 8b2a 0038
000001b0: c782 4238 ab36 3138 c715 8c38 9d89 1637
000001c0: 803e 4238 43cf f936 0d15 b736 a870 cd37
000001d0: b689 a637 b4fd e735 b1c2 c137 307b a838
000001e0: 5869 0b38 01d7 a137 66bd 8138 0291 a537
000001f0: f082 a237 5d6b 3138 a05d 1735 7174 6c37
00000200: f7c8 ba38 8499 6237 44aa aa38 890e b736
00000210: 21d3 5938 2485 7d38 fa57 9938 8790 e636
00000220: 3d20 0138 56eb e436 cf57 cb38 0662 9838
00000230: 2d14 cd36 881a fc36 5ca7 3938 e65a 8338
00000240: 9abc cf38 6e71 ba38 2ee3 bb38 ab33 8938
00000250: 554c 6838 a078 6b38 21c4 2e38 5451 8737
00000260: 26f2 d438 95dc cf37 e348 a138 587e 2438
00000270: f14c b334 2789 f837 657b 9638 3738 d738
00000280: 6cfa 8d36 1323 0238 2506 ef35 e70c 7437
00000290: 1869 ae37 809e c836 2a39 b837 6012 9e36
000002a0: c837 1438 a789 d838 4b33 f237 87b3 2338
000002b0: a9c7 3838 d5d1 3435 7e33 7e37 75ac 0e38
000002c0: 595c 8437 8c7f 3037 8848 c138 c201 0838
000002d0: 5859 aa38 fe70 bd35 5fbb 4638 c896 c238
000002e0: 3ed1 9c38 3be1 ab37 b65e 0337 df05 d338
000002f0: a326 db38 6566 c238 0a31 2d38 1776 e937
00000300: 0f0e 3a38 2c2a 6338 4f7a c938 6f82 dc38
00000310: c557 b638 b2aa a238 1ad2 d637 b55e f537
00000320: 522c 1836 644a 0236 4537 8c36 4232 1c36
00000330: bdc5 f334 8178 2436 b057 cf34 3182 8b35
00000340: a051 3335 f1bc 3e36 e8c5 f035 e5b4 0136
00000350: 540a e634 2fac ed34 db88 3534 ac27 db34
00000360: e0fd 9134 99b2 da35 389d 3f36 1c8e 2b36
00000370: cb94 b935 ceb9 0f36 5316 5036 e439 3335
00000380: 0adb 8235 5ffc 0b35 6f1f dc35 9d87 0036
00000390: c4ef 1536 bcec a634 2a48 4236 121c 9035
000003a0: 206a ea34 ef73 5136 e515 4736 ad45 8835
000003b0: 56a2 ae34 4558 5835 22ba 9636 b3bd ed35
000003c0: 11ed af34 a2a0 2636 104b 5836 0105 8136
000003d0: d5fb 5736 b43d 5436 7272 6336 24d0 2135
000003e0: af91 0635 f9bb cd35 ce56 4738 374d 1d38
000003f0: a4ca 4c39 c2bc 9b38 f649 2038 6598 d038
4.300279e-05 3.628876e-05 0.00011443102 5.5115535e-05 2.8015624e-05 5.75959e-05 1.0009016e-05 3.1191885e-05
4.097154e-05 6.699744e-05 5.7292098e-05 3.589782e-05 2.5494806e-05 1.3660689e-05 6.7966716e-06 1.7113822e-05
1.5987316e-05 3.103292e-05 5.3701013e-05 7.8616205e-05 3.8277056e-05 4.756059e-05 8.08491e-05 1.864245e-05
2.7854743e-05 2.1807202e-05 3.3101664e-05 4.7385067e-05 8.052102e-05 1.4352428e-05 8.697655e-05 2.485306e-05
3.4135726e-05 7.9203346e-05 8.372557e-05 2.5492596e-05 1.8104569e-05 1.5695954e-05 0.00012032667 6.251175e-05
8.230697e-06 4.5539397e-05 7.6164375e-05 9.452371e-05 0.00010327529 9.332844e-05 9.990399e-05 4.3539683e-05
3.5880686e-05 5.1282488e-05 1.0012776e-05 4.1842227e-06 4.0020764e-06 1.1522619e-05 3.4059315e-06 1.6712592e-06
8.763022e-08 1.1336324e-06 2.7937238e-06 5.6231393e-06 2.785201e-06 6.70372e-06 3.8734024e-06 6.203778e-07
1.2196898e-06 5.9154667e-07 7.4733725e-07 1.1121623e-06 9.802339e-06 4.1792773e-06 1.113775e-06 2.0583104e-06
1.7715769e-06 1.095038e-06 4.8771954e-06 1.1653005e-05 1.5055639e-06 2.5783385e-07 3.5048738e-06 1.557976e-06
3.1410857e-06 6.8802296e-07 1.6365603e-06 4.1296075e-06 2.9260218e-06 1.0564895e-06 4.737948e-06 1.0567967e-05
4.1359644e-06 3.6995375e-06 3.247257e-06 5.974665e-06 1.8155934e-06 2.1641054e-06 3.68611e-06 4.173781e-06
3.3670506e-06 2.8864845e-06 1.1132581e-06 1.2880595e-06 1.8062758e-05 8.118921e-06 9.539995e-05 5.5780267e-05
4.284882e-05 3.246352e-05 3.7037066e-06 3.05572e-05 4.6375e-05 4.2251002e-05 6.6797766e-05 8.972737e-06
4.6311412e-05 7.4449067e-06 5.4562756e-06 2.4490364e-05 1.9852869e-05 1.7284679e-06 2.3098053e-05 8.03381e-05
3.323829e-05 1.9292815e-05 6.1864775e-05 1.9737057e-05 1.9372877e-05 4.230008e-05 5.6388126e-07 1.4093807e-05
8.906604e-05 1.3506393e-05 8.137946e-05 5.455517e-06 5.193346e-05 6.0443897e-05 7.3119954e-05 6.8713593e-06
3.078602e-05 6.822326e-06 9.69615e-05 7.266183e-05 6.111825e-06 7.513274e-06 4.4263303e-05 6.263498e-05
9.905659e-05 8.890299e-05 8.9591704e-05 6.542293e-05 5.53842e-05 5.6140707e-05 4.1667492e-05 1.6131125e-05
0.000101540514 2.477904e-05 7.6906545e-05 3.9218314e-05 3.339733e-07 2.962777e-05 7.1755414e-05 0.0001026247
4.2312804e-06 3.102708e-05 1.7808676e-06 1.4546537e-05 2.0791354e-05 5.9789163e-06 2.1961128e-05 4.710906e-06
3.53379e-05 0.000103253224 2.8872533e-05 3.9029426e-05 4.4054967e-05 6.736057e-07 1.5151569e-05 3.401605e-05
1.5778629e-05 1.0520114e-05 9.216467e-05 3.2426564e-05 8.122873e-05 1.4114482e-06 4.738138e-05 9.278726e-05
7.477634e-05 2.048967e-05 7.83026e-06 0.000100623576 0.000104499304 9.269713e-05 4.1292085e-05 2.7830754e-05
4.435895e-05 5.4160293e-05 9.6072086e-05 0.000105147126 8.6947846e-05 7.7565564e-05 2.5608624e-05 2.9250377e-05
2.2675563e-06 1.941481e-06 4.1787594e-06 2.3275065e-06 4.540615e-07 2.4508047e-06 3.8620556e-07 1.0394198e-06
6.6801476e-07 2.8422185e-06 1.7938992e-06 1.9327792e-06 4.2848353e-07 4.426997e-07 1.6906726e-07 4.0820794e-07
2.7193073e-07 1.6294244e-06 2.8552731e-06 2.5563704e-06 1.3826879e-06 2.1416813e-06 3.100741e-06 6.676694e-07
9.749504e-07 5.2148783e-07 1.6400426e-06 1.9152424e-06 2.2342292e-06 3.1092156e-07 2.8950258e-06 1.0737006e-06
4.3663113e-07 3.121091e-06 2.9666055e-06 1.0153068e-06 3.252814e-07 8.059472e-07 4.492017e-06 1.7713086e-06
3.276878e-07 2.4829428e-06 3.22302e-06 3.845082e-06 3.2184082e-06 3.1626378e-06 3.3892252e-06 6.028006e-07
5.013089e-07 1.5328397e-06 4.752614e-05 3.750363e-05 0.00019530446 7.426135e-05 3.8215854e-05 9.9465986e-05

exp_avg f4 [50]
00000000: a427 5738 d1a1 9f36 2a91 fbb6 8b57 3cb7
00000010: 113f d537 aa91 d1b8 b175 0537 cb3d ae37
00000020: eaac e437 534a 04b7 947b 3cb6 8223 81b8
00000030: 9bef 3738 b117 92b7 2e69 7837 03e6 3eb7
00000040: b5c0 88b7 1e5b 1fb9 b6f9 32b8 01fd 35b8
00000050: cbc8 8638 2c15 02b8 f96e b3b7 1114 d2b7
00000060: 2d3f 64b7 8d85 9537 6d4b 3535 97bc fb37
00000070: f8bf 6fb7 9b6c ab37 2d85 da37 74e8 a3b4
00000080: dce4 07b8 67eb 38b8 fa42 2a37 10fc 3db7
00000090: f29c 2538 46cb 02b7 97fb 52b8 7e2b f6b7
000000a0: 4c1d 06b8 899b b4b5 5d6d 0039 b71f 07b5
000000b0: 7af7 8b38 f6e5 6635 d193 1238 20e4 0fb7
000000c0: 6dde c4b6 a582 25b8
5.1296913e-05 4.757407e-06 -7.4972822e-06 -1.1226056e-05 2.5420946e-05 -9.993029e-05 7.95482e-06 2.0771191e-05
2.7260237e-05 -7.885118e-06 -2.8086115e-06 -6.157813e-05 4.385375e-05 -1.7415588e-05 1.4806441e-05 -1.1378436e-05
-1.63022e-05 -0.00015197365 -4.267107e-05 -4.338939e-05 6.4270185e-05 -3.1014133e-05 -2.1390138e-05 -2.5043295e-05
-1.3604568e-05 1.7824374e-05 6.7537513e-07 3.000935e-05 -1.4290206e-05 2.0435362e-05 2.604964e-05 -3.0530248e-07
-3.239965e-05 -4.4088254e-05 1.0148384e-05 -1.1323966e-05 3.9485232e-05 -7.795932e-06 -5.0302213e-05 -2.9345738e-05
-3.1975374e-05 -1.3456312e-06 0.00012247772 -5.033757e-07 6.6741326e-05 8.6016314e-07 3.4946777e-05 -8.576579e-06
-5.867149e-06 -3.9460738e-05

exp_avg_sq f4 [50]
00000000: a028 5a39 afd5 9236 1edc f638 64fc e038
00000010: d20c 1537 dd93 b439 b74a 8f35 673e 8337
00000020: a719 5639 278c 3037 3a6d 9036 994d 1c39
00000030: b50f df37 a397 2437 5680 fb37 ad38 1c39
00000040: 490c 4438 70d8 d738 7402 4739 0f49 1939
00000050: c9b3 ce39 193a bf38 d4ff 1737 1a18 e037
00000060: 4a49 9736 d82f fd36 b923 d338 882d 7836
00000070: 78c9 7a38 cfda e437 3865 c237 8992 c237
00000080: e9cd d237 8663 9e38 2721 ed39 f9db 0c37
00000090: e35b 3b39 561e 1239 2b90 7439 2e35 9e38
000000a0: 73d8 f837 c3c4 5237 4a74 9539 aa97 0c37
000000b0: 6187 7e39 61e3 db38 bf0b 9838 f4e8 6837
000000c0: 4eb9 fc36 21c1 3238
0.00020805234 4.376015e-06 0.00011771194 0.00010728164 8.884077e-06 0.00034442442 1.0676075e-06 1.5645475e-05
0.00020418187 1.0523049e-05 4.30425e-06 0.00014906227 2.6590986e-05 9.810467e-06 2.9981293e-05 0.00014898433
4.6741483e-05 0.000102923135 0.00018979033 0.00014618433 0.00039425332 9.118411e-05 9.059866e-06 2.6714104e-05
4.5086827e-06 7.5455573e-06 0.00010067918 3.6981382e-06 5.9792277e-05 2.7281609e-05 2.3173736e-05 2.3194838e-05
2.5129835e-05 7.552565e-05 0.00045228863 8.395867e-06 0.0001786794 0.00013934946 0.0002332336 7.5439326e-05
2.9664696e-05 1.2562788e-05 0.00028506137 8.379962e-06 0.0002427376 0.000104850864 7.250113e-05 1.3882516e-05
7.5317575e-06 4.2618372e-05
