gans/discriminator_model.pth (torch, 736064 bytes, 5 tensors)

model.0.weight f4 [512, 100]
0	0xbcadfbf9	-0.021238314
1	0xba9cb405	-0.0011955505
2	0xbd98f319	-0.07468242
3	0xbca020b8	-0.019546852
4	0xbc337798	-0.010953806
5	0x3dce20cb	0.100648485
6	0x3c908cbd	0.017645234
7	0xb77b5184	-1.4979745e-05
8	0x3dafb871	0.08580101
9	0x3d994df4	0.074855715
10	0xbd850e80	-0.06496906
11	0xbd86136b	-0.065466724
12	0x3c7ef6ad	0.015561742
13	0xbd2d119a	-0.042253114
14	0x3d697d5c	0.057004318
15	0x3d28c532	0.041203685
16	0x3d051d88	0.032498866
17	0x3d8a4694	0.06751743
18	0xbd5201be	-0.051271193
19	0x3cca5f8d	0.024703765
20	0x3d296ed4	0.04136546
21	0xbccf8746	-0.025333058
22	0xbd7ba4ca	-0.061436452
23	0xbd411cd9	-0.047146652
24	0x3dad0124	0.08447483
25	0xbda4431a	-0.08020611
26	0xbdbf6929	-0.093462296
27	0xbd633b49	-0.05547646
28	0x3d0238a5	0.0317923
29	0x3cf61214	0.030037917
30	0xbc002a5c	-0.007822599
31	0xbd218d2a	-0.039441265
32	0x3d9e6af9	0.07735247
33	0x3d39ab52	0.0453294
34	0x3ce8c6c5	0.028415093
35	0xbcc9b8a6	-0.02462418
36	0x3c245f30	0.01003246
37	0x3d585e5d	0.052824367
38	0x3dbc7277	0.0920152
39	0x3c899597	0.016794963
40	0xbc3fe3ec	-0.011712056
41	0xbd77d44e	-0.060505204
42	0x3d2f2d80	0.042768
43	0x3ca68f5b	0.02033203
44	0xbc477bb5	-0.01217549
45	0xbd32eb61	-0.043681506
46	0xbdaf6877	-0.08564847
47	0xbdfd1e95	-0.12359349
48	0xbda2f6be	-0.079572186
49	0x3c0e92d4	0.008701999
50	0xbc706931	-0.014673517
51	0xbcb69083	-0.022285705
52	0x3d8bc1cb	0.068240725
53	0xbd38821f	-0.04504597
54	0x3cc8bbe2	0.024503652
55	0x3da7576e	0.08170973
56	0xbd103677	-0.03520819
57	0x3d8753c5	0.06607775
58	0xbbb11ea9	-0.0054052663
59	0xbde503dc	-0.11182377
60	0x3ddb1dda	0.10699053
61	0x3bc9e6d0	0.006161548
62	0x3dc78b08	0.09743315
63	0x3dac441c	0.08411428
64	0x3cfbb568	0.03072615
65	0x3dc37ff5	0.0954589
66	0xbdad1869	-0.084519215
67	0xbde8caac	-0.113667816
68	0x3e01f45e	0.12690875
69	0xbd572aff	-0.05253124
70	0x3cab6afa	0.020925034
71	0xbdf6526b	-0.12027439
72	0x3c9b3c67	0.0189497
73	0xbdb50d08	-0.08840376
74	0xbdcbe76e	-0.09956251
75	0xbd095eeb	-0.033537786
76	0xbbffb522	-0.007803575
77	0xbc9b4175	-0.01895211
78	0x3da71d93	0.08159938
79	0xbcc33fc8	-0.023834124
80	0xbd6d3ecd	-0.05792122
81	0x3de03a25	0.1094859
82	0x3d89616e	0.06708036
83	0x3d194d9c	0.03742753
84	0xbdbe6cea	-0.092981175
85	0x3d95df1a	0.07317944
86	0x3d9edd95	0.07757107
87	0xbccc3aac	-0.02493032
88	0xbcf39630	-0.0297347
89	0x3d633199	0.055467222
90	0x3ca25867	0.019817544
91	0xbbdfba80	-0.0068276525
92	0x3d834443	0.06409504
93	0x3c768868	0.01504717
94	0x3a1691d6	0.0005743777
95	0x3d36a4a7	0.04459062
96	0x3cff4ede	0.031165536
97	0xbc8e302c	-0.017356955
98	0xbda31b39	-0.07964177
99	0xbda16ea5	-0.07882432
100	0xbdb075a4	-0.08616188
101	0xbd8fc42d	-0.070198394
102	0x3ce5a798	0.028034016
103	0x3d98646b	0.07441028
104	0x3d96d3a2	0.073645845
105	0xbd0b8841	-0.03406549
106	0x3d3385db	0.043828826
107	0x3db6a4b3	0.08918133
108	0x3bc01ff3	0.0058631836
109	0x3d722ee9	0.05912677
110	0x3c2cf20a	0.0105557535
111	0xbcb7bf8d	-0.022430206
112	0x3ca29137	0.019844634
113	0x3d4fff37	0.0507805
114	0xbd9f8ead	-0.07790885
115	0xbc859336	-0.016305547
116	0xbd8bf652	-0.06834091
117	0xbd7a7106	-0.061142944
118	0x3cc3d301	0.023904325
119	0x3d12cd6e	0.035840444
120	0x3d1ed4de	0.038777225
121	0x3cea7375	0.028619507
122	0x3bae05cb	0.005310749
123	0x3dc97c6d	0.098381855
124	0x3dca30bf	0.09872579
125	0x3dbdb7d4	0.09263578
126	0x3d9cd42e	0.076576576
127	0xbcc5de5a	-0.024153877
128	0xbd804602	-0.06263353
129	0xbd55a5b1	-0.05215997
130	0xbd6df7ed	-0.05809777
131	0xbd5c0775	-0.05371805
132	0xbda80000	-0.08203125
133	0xbca84a90	-0.020543367
134	0xbdc1a8f0	-0.094560504
135	0xbcbe23fe	-0.023210522
136	0x3ca31ac9	0.019910233
137	0x3d4202e6	0.047366045
138	0xbd010f37	-0.03150865
139	0xbc3383b4	-0.010956693
140	0xbc4c940d	-0.01248647
141	0xbdc1d4e4	-0.09464434
142	0x3d9043a7	0.07044154
143	0x3d914b65	0.070944585
144	0x3dca8454	0.09888521
145	0x3d86b8e8	0.06578237
146	0x3ca726d0	0.02040425
147	0xbdb063aa	-0.086127594
148	0x3d45307d	0.048141945
149	0x3c2f46c5	0.010698025
150	0xbd77a27e	-0.0604577
151	0x3da070b1	0.07833994
152	0xbd8670ce	-0.065644845
153	0xbd9e2f71	-0.077238925
154	0x3d58e4bf	0.052952524
155	0xbc52a093	-0.012855667
156	0x3d0f36bb	0.034964304
157	0x3d854ab8	0.06508392
158	0x3be836a6	0.0070865927
159	0xbd54e64e	-0.05197745
160	0x3c76afcf	0.0150565645
161	0xbba89370	-0.005144529
162	0x3cc350c4	0.023842223
163	0x3c767959	0.01504358
164	0x3d17cc4a	0.03706006
165	0xbc8cb0ad	-0.01717409
166	0x3c726985	0.014795666
167	0x3d7dec04	0.06199266
168	0x3d91510e	0.07095538
169	0x3d93694c	0.07197818
170	0xbbd9969a	-0.0066402676
171	0x3c1c0125	0.009521757
172	0x3d9ab39a	0.075537875
173	0x3c13d77c	0.009023543
174	0x3d6d5adf	0.05794799
175	0x3d843af5	0.06456558
176	0x3d7068c1	0.05869365
177	0x3da18569	0.07886774
178	0xbd47592b	-0.04866902
179	0x3d92f1c8	0.07175022
180	0xbd43c73a	-0.04779742
181	0x3d41579f	0.047202703
182	0xbd201a19	-0.03908739
183	0x3d86141b	0.065468036
184	0xbd1b5610	-0.037923872
185	0x3bf0b4eb	0.007345786
186	0x3dca5be8	0.09880811
187	0xbbfe1d87	-0.007754985
188	0xbdbac4d7	-0.091195755
189	0x3da383b1	0.079841025
190	0xbd3339df	-0.043756362
191	0x3abc4a54	0.0014365413
192	0x3d931a7a	0.071827844
193	0x3cb88530	0.022524446
194	0x3cc0ad47	0.023520125
195	0xbcf8c093	-0.030365264
196	0xbd80fd70	-0.06298339
197	0x3d2ebc5c	0.042660102
198	0xbc4f2916	-0.012644073
199	0x3d5525b4	0.05203791
200	0x3b6b08b3	0.003586334
201	0x3c3e9bef	0.011633857
202	0x3dd07339	0.10178227
203	0x3c938e35	0.018012146
204	0x3c23d69c	0.009999897
205	0xbc915f7a	-0.017745722
206	0x3ce54206	0.027985584
207	0x3d02856a	0.031865515
208	0x3d91b486	0.0711451
209	0x3cbc576b	0.022990903
210	0xbd970382	-0.07373716
211	0xbd5b4b29	-0.053538475
212	0xbbe2205b	-0.0069008297
213	0x3c948d62	0.018133823
214	0xbc3b9a83	-0.011450413
215	0xbd4ce3b6	-0.05002185
216	0x3a9f752b	0.0012165656
217	0xbd96449f	-0.07337307
218	0x3dbeb6bc	0.093121976
219	0x3d2b88f7	0.041878667
220	0xbda20ced	-0.07912622
221	0xbde2d9b4	-0.1107668
222	0x3d4ff6d0	0.050772488
223	0x3d9349fe	0.07191847
224	0x3d9b0da7	0.07570963
225	0x3d8af199	0.06784362
226	0xbd463e4e	-0.048399262
227	0xbc716d60	-0.01473555
228	0xbaa7253d	-0.0012752187
229	0xbdb00636	-0.08594935
230	0xbc0f846d	-0.0087596
231	0xbd748b69	-0.059703264
232	0xbca45008	-0.020057693
233	0xbdb4c263	-0.08826139
234	0xbd5d0d79	-0.053967927
235	0x3cfe69d7	0.031056328
236	0xbd9c034c	-0.07617816
237	0xbd936b92	-0.07198252
238	0x3d0094be	0.03139185
239	0x3dc3fd97	0.09569853
240	0x3d1b8632	0.037969775
241	0xbcfc5b54	-0.030805267
242	0xbdc3b350	-0.095556855
243	0x3d260962	0.040536292
244	0xbdaec5e8	-0.08533841
245	0xbcced232	-0.025246713
246	0x3d94bd8b	0.07262715
247	0x3c70b82f	0.01469235
248	0xbddbf02c	-0.107391685
249	0x3d055e09	0.032560382
250	0xbc2121a2	-0.009834679
251	0xbb09d840	-0.0021033436
252	0x3d24f5e7	0.040273573
253	0x3d080aa5	0.033213276
254	0xbcfec93d	-0.031101817
255	0x3d93e8be	0.072221264

model.0.bias f4 [512]
0	0x3cc1a534	0.023638345
1	0x3d94fa82	0.07274343
2	0x3de0fc8b	0.10985669
3	0xbd05b3f2	-0.032642312
4	0x3cb7e16d	0.022446359
5	0xbc56c1df	-0.013107746
6	0x3c709fd4	0.0146865435
7	0x3d156161	0.03646982
8	0x3da0b13e	0.07846306
9	0xbc9bafeb	-0.019004783
10	0x3cd53f8c	0.026031278
11	0xbd9c2c7e	-0.07625674
12	0x3d286e41	0.04112077
13	0x3d58d52f	0.052937683
14	0xbd24715e	-0.040147178
15	0x3dbe3837	0.09288066
16	0xbda4b447	-0.08042198
17	0xbd2d07f6	-0.04224392
18	0xbdba8761	-0.09107853
19	0x3c1fe2b7	0.009758643
20	0xbd670e57	-0.05641016
21	0xbc70f291	-0.01470627
22	0xbdb4548d	-0.08805189
23	0xbc70856d	-0.014680249
24	0xbdc1c877	-0.09462064
25	0xbcc1f1ca	-0.023674864
26	0xbe10c80c	-0.14138812
27	0xbc817770	-0.015804023
28	0x3d6d6582	0.057958134
29	0x3c79ad0a	0.01523901
30	0x3d86a507	0.06574445
31	0xbd95ab49	-0.07308061
32	0xbd05da13	-0.032678675
33	0xbd98b4ae	-0.07456337
34	0xbdfc4d13	-0.12319388
35	0x3cbddda6	0.02317698
36	0xbdea3121	-0.11435152
37	0x3b8f31fe	0.004369973
38	0xbdc379cd	-0.09544716
39	0x3c83d5d1	0.016093167
40	0x3dbf43f1	0.09339131
41	0xbd27214c	-0.04080324
42	0xbdc0bb8d	-0.094107725
43	0xbc130fb9	-0.008975917
44	0x3c265975	0.010153164
45	0xbd48a8e1	-0.04898918
46	0x3d319f2e	0.043364696
47	0x3d7f3f82	0.062316425
48	0x3dfce71b	0.12348767
49	0xbd588617	-0.052862253
50	0xbd2f7e2f	-0.042844947
51	0x3d70d8df	0.058800574
52	0xbdab75fd	-0.08372114
53	0x3d5cd9a3	0.053918492
54	0x3ce75546	0.028238904
55	0x3dd856ff	0.10563468
56	0x3d070e6e	0.032972746
57	0xbd449eff	-0.048003193
58	0xbd09034f	-0.03345042
59	0x3dc292f5	0.09500686
60	0x3ddcdb90	0.10784066
61	0x3da034ac	0.07822546
62	0xbac60f54	-0.0015110769
63	0xbd68ed7f	-0.05686712
64	0x3d94765a	0.07249136
65	0xbcd46101	-0.025925161
66	0xbdd2ce3c	-0.10293242
67	0xbd9d3e17	-0.07677858
68	0xbd6a3ecd	-0.057188798
69	0x3cba0528	0.022707537
70	0xbda73eb8	-0.081662595
71	0xbdcaf806	-0.09910588
72	0x3cab6823	0.02092368
73	0x3b86fa7f	0.004119217
74	0x3dcd3c6e	0.10021292
75	0xbd79a5ed	-0.060949255
76	0xbcfe642a	-0.031053621
77	0x3d415e45	0.047209043
78	0xbb101cff	-0.002198994
79	0xbdae13d8	-0.08499879
80	0x3dc4c429	0.09607727
81	0xbd1ca1be	-0.038240187
82	0x3d65ae86	0.05607464
83	0x3d96d640	0.07365084
84	0xbe013438	-0.12617576
85	0xbd4e6344	-0.050387636
86	0xbbff7e1d	-0.0077970163
87	0xbdab4c3c	-0.0836415
88	0x3d342dd4	0.043989018
89	0xbd65eba6	-0.056132935
90	0x3d8cd298	0.06876105
91	0xbde67863	-0.11253431
92	0x3daff133	0.08590927
93	0xbd25ed1d	-0.040509332
94	0xbddd5f01	-0.10809136
95	0x3bded535	0.0068003186
96	0xbd086d8a	-0.03330759
97	0xbda241fe	-0.07922743
98	0x3c7ba382	0.0153588075
99	0xbc880085	-0.01660181
100	0x3dacbdc3	0.08434632
101	0x3d106c27	0.035259392
102	0xbd154429	-0.036441956
103	0x3d5491cc	0.051896855
104	0x3d17fe43	0.037107717
105	0xbdcdba27	-0.10045271
106	0x3db2e96a	0.087359264
107	0x3d536abe	0.05161547
108	0xbd67a5ac	-0.05655448
109	0xbde4ba5b	-0.11168357
110	0x3d993610	0.07481015
111	0xbccf8d67	-0.02533598
112	0xbde80215	-0.11328522
113	0x3dda5375	0.106604494
114	0x3d277006	0.04087832
115	0xbdce7181	-0.10080243
116	0x3da2f392	0.079566136
117	0x3d9fcbe5	0.07802562
118	0x3d51e7d4	0.05124648
119	0xbd265807	-0.040611293
120	0xbbafcb76	-0.0053648306
121	0xbca3ec9d	-0.020010287
122	0x3c9e726d	0.019341672
123	0xbc0f3029	-0.00873951
124	0x3d9b8d59	0.07595319
125	0x3bae054e	0.005310691
126	0x3d828a00	0.06373978
127	0xbcfa97d8	-0.030589983
128	0x3cbb79da	0.022885252
129	0x3d441e7c	0.047880635
130	0xbdac5c04	-0.08415988
131	0xbd79c480	-0.060978413
132	0xbde81ebb	-0.11333986
133	0x3d5e9261	0.054338817
134	0x3d275aac	0.040857956
135	0xbc5d8af8	-0.013521902
136	0xbd8cd8ac	-0.068772644
137	0xbda00d1f	-0.07815003
138	0xbd86bf1b	-0.06579419
139	0x3d96b390	0.073584676
140	0xbcedeab1	-0.029042574
141	0x3dafe777	0.0858907
142	0xbd96e988	-0.07368761
143	0x3d9e98f0	0.07744014
144	0xbd9760fd	-0.07391546
145	0xbd21ecef	-0.039532598
146	0x3ca38f0d	0.019965673
147	0xbc922da2	-0.017844025
148	0x3c781b3b	0.015143211
149	0xbcf37b2c	-0.029721819
150	0xbd2ccef9	-0.042189572
151	0x3c86d89f	0.016460715
152	0xbc2e4520	-0.010636598
153	0xbdf07b36	-0.117422506
154	0xbcb0e258	-0.021592304
155	0x3d95158b	0.072794996
156	0xbdee9101	-0.11648751
157	0xbc86af28	-0.016440943
158	0x3cdc0099	0.026855754
159	0xbdc7b456	-0.09751193
160	0xbdbdca34	-0.09267083
161	0xbd83bcc9	-0.06432492
162	0x3d67aaab	0.056559246
163	0x3d8539dc	0.065051764
164	0x3d356129	0.044282112
165	0xbd9b253a	-0.0757546
166	0x3c90cde2	0.017676298
167	0xbde45856	-0.11149661
168	0xbde72338	-0.11286014
169	0x3b164cc7	0.0022933946
170	0xbdcd8f14	-0.100370556
171	0xbc097f7d	-0.008392212
172	0xbdc40ba2	-0.09572531
173	0x3b348915	0.0027547528
174	0xbd8b3001	-0.067962654
175	0x3d81794f	0.06321966
176	0xbd310495	-0.04321726
177	0x3dd42fb7	0.103606634
178	0xbd2e44c0	-0.042546034
179	0xbc6f49f4	-0.014605034
180	0x3cd11d6d	0.025526727
181	0x3be85199	0.0070898053
182	0x3deaac29	0.11458618
183	0xbc66a887	-0.014078266
184	0x3bbd2aa3	0.005772905
185	0x3cd0e4c6	0.025499713
186	0xbd9a0041	-0.0751958
187	0xbc4c846a	-0.012482742
188	0x3d238da4	0.03993
189	0xbb5ebd9c	-0.0033987528
190	0xbd0eb324	-0.03483881
191	0x3cf57a10	0.02996543
192	0xbdb9191a	-0.09037991
193	0xbcc1989f	-0.023632346
194	0xbd9b6850	-0.075882554
195	0x3d805c8d	0.06267653
196	0xbd3aae57	-0.04557642
197	0xbdfa59c5	-0.122241534
198	0xbc6e22d2	-0.014534669
199	0xbc90528e	-0.01761749
200	0x3de5e678	0.11225599
201	0x3d493c2e	0.049129657
202	0x3d8fd77a	0.07023521
203	0x3d77efc6	0.0605314
204	0x3d3bf65d	0.045889247
205	0xbddccb0a	-0.10780914
206	0xbe072b92	-0.13200215
207	0x3da7ffd8	0.08203095
208	0xbca91bd3	-0.02064315
209	0xbd21d2ff	-0.039507862
210	0x3dc4681a	0.09590168
211	0xbc09e5f7	-0.008416644
212	0xbb47d4f5	-0.0030491923
213	0x3d2f4494	0.04279001
214	0x3d648591	0.05579144
215	0x3d132d11	0.03593165
216	0xbe06dcb1	-0.13170125
217	0xbdeb2bfb	-0.11482998
218	0x3da04dff	0.078273766
219	0x3dc0952d	0.09403453
220	0x3dea9dac	0.11455855
221	0x3ce957d2	0.028484259
222	0xbc0ecdf6	-0.008716097
223	0xbdb42a7e	-0.08797167
224	0xbc9bd1b7	-0.019020898
225	0x3caa37c1	0.020778539
226	0xbd6daa39	-0.058023665
227	0x39fc6744	0.00048142124
228	0xbd08ba74	-0.03338094
229	0xbd34e2e6	-0.0441617
230	0xbcdcdc63	-0.026960557
231	0x3d97fa8f	0.07420837
232	0x3c8d04ea	0.017214257
233	0xbde7d603	-0.11320116
234	0x3b2e374a	0.0026583248
235	0xbcea1f50	-0.028579384
236	0x3e4c1838	0.19931114
237	0xbd82960c	-0.063762754
238	0xbbeeac57	-0.007283728
239	0xbd94dbbd	-0.07268474
240	0x3d07fe17	0.033201303
241	0x3a49b4e0	0.0007694494
242	0xbd9f7c03	-0.07787325
243	0x3d2c3f1e	0.04205238
244	0xbcfaae2d	-0.030600632
245	0x3ddb7f50	0.10717642
246	0x3d16bed2	0.036803074
247	0x3d3734c9	0.044728074
248	0x3dfbeb1b	0.12300702
249	0xbd39940a	-0.045307197
250	0x3d415e6b	0.047209185
251	0xbc298957	-0.010347686
252	0x3d925d4d	0.07146702
253	0xbcfe6879	-0.031055676
254	0x3ce0ea7b	0.027455559
255	0x3dc793c4	0.09744981

model.2.weight f4 [256, 512]
0	0xbca3603b	-0.019943347
1	0x3b0c420c	0.0021401672
2	0x3c4f87bb	0.012666638
3	0xbc6c0110	-0.01440455
4	0x3ceab431	0.028650375
5	0xbc549e26	-0.012977159
6	0x3cdd2687	0.02699591
7	0x3d6d76bd	0.057974566
8	0x3d28ab43	0.041178953
9	0x3d7cff8e	0.061767153
10	0x3c17874e	0.009248568
11	0xbd0fadd7	-0.035077896
12	0xbc353202	-0.011059286
13	0x3d5137b0	0.0510785
14	0x3cc8b109	0.02449848
15	0x3d352d79	0.04423282
16	0xbd0b40a4	-0.033997193
17	0x3b146308	0.0022642035
18	0x3ceaef5b	0.028678587
19	0x3d8cc318	0.06873149
20	0x3c0fa122	0.008766444
21	0xbd1461dc	-0.03622614
22	0x3c3bb3b7	0.011456422
23	0x3d4f73c7	0.050647523
24	0x3befeb63	0.0073217615
25	0xbbc56446	-0.0060239164
26	0xbc9e9a6a	-0.01936074
27	0xbbde763e	-0.006788998
28	0xbce94c1a	-0.02847867
29	0xbccabe9d	-0.024749095
30	0x3c82af66	0.015952777
31	0xbd0ab666	-0.033865355
32	0x3d4898a9	0.048973713
33	0xbcd21f07	-0.02564956
34	0x3c87453a	0.016512502
35	0x3d3b9445	0.045795698
36	0x3be09483	0.0068536415
37	0x3d04549e	0.03230726
38	0x3cea2133	0.028580284
39	0xbc942252	-0.018082771
40	0x3cf99467	0.030466272
41	0xbced1d20	-0.028944552
42	0xbabe7755	-0.0014531413
43	0x3d1f41e0	0.038881183
44	0xbcef5215	-0.029213944
45	0x3ce4949e	0.027902897
46	0x3d3d16e5	0.046164412
47	0x3d1a4ed4	0.037672833
48	0x3c9ace32	0.01889715
49	0x3b5dfa84	0.0033871243
50	0x3c8481ca	0.01617517
51	0xbcd6c96d	-0.026219094
52	0x3d45b961	0.048272494
53	0x3c819233	0.015816784
54	0x3cd8a143	0.026444083
55	0x3c9dedc4	0.019278415
56	0x3cfd7ef6	0.030944329
57	0xbb732f64	-0.0037107104
58	0xbd3a8632	-0.045538135
59	0x3bd84d44	0.0066010077
60	0xbc42368e	-0.011853827
61	0x3d766efc	0.060164437
62	0x3cc33083	0.023826843
63	0xbc867cb6	-0.016416889
64	0xbca28484	-0.019838579
65	0x3cfa3fdb	0.030548027
66	0x3cad1135	0.021126369
67	0xba74d4e6	-0.00093395857
68	0xbc9f544c	-0.019449376
69	0xbc20de93	-0.009818691
70	0xbce96b16	-0.028493445
71	0x3d6366d2	0.05551798
72	0xbac175f0	-0.001475988
73	0x3c8b1392	0.016977105
74	0xbc3fa774	-0.011697639
75	0xbcd74108	-0.026276127
76	0x3c7cebef	0.01543711
77	0xbc71b29b	-0.0147520555
78	0x3cc153e4	0.023599572
79	0xbcee6691	-0.029101642
80	0x3d5aee5b	0.05344997
81	0xbb0d1d42	-0.0021532332
82	0x3d1afa0a	0.037836112
83	0x3b91fa90	0.004454918
84	0x3ba74899	0.00510509
85	0xbd3d98c5	-0.04628827
86	0xbc1faca7	-0.009745753
87	0x3a08ddee	0.00052210584
88	0xbc917128	-0.017754152
89	0x3d5f9996	0.05458983
90	0xbc2334b0	-0.009961292
91	0xbbe98875	-0.0071268626
92	0xbc8a4794	-0.016879834
93	0xbcc82a0f	-0.024434118
94	0x3d06ddcb	0.032926362
95	0x3c5f4bad	0.013628882
96	0x3d46e13a	0.048554637
97	0xbbec26a4	-0.0072067548
98	0x3d295f36	0.041350566
99	0xbb96241d	-0.0045819418
100	0x3d1cfabe	0.038325064
101	0x3cb7f985	0.022457847
102	0x3c8bf0ce	0.017082598
103	0xbd018dd4	-0.0316294
104	0x3cd38a81	0.02582288
105	0xbacfd364	-0.0015855846
106	0xbc02af03	-0.007976296
107	0xba5afffe	-0.0008354186
108	0xbc8270c2	-0.015922908
109	0x3d952030	0.0728153
110	0x3cc2e8b8	0.02379261
111	0xba8e54de	-0.0010859033
112	0x3b3f49e9	0.002918834
113	0xbcd78d30	-0.02631244
114	0x3d5442f4	0.051821664
115	0x3be792f8	0.0070670806
116	0xbc1a8027	-0.009429968
117	0x3d5e6acf	0.05430108
118	0x3c81b02c	0.015831076
119	0x3d30d11e	0.04316818
120	0xba50ced0	-0.0007965388
121	0x3cf32878	0.029682383
122	0xbcb858bb	-0.022503247
123	0x3c4bdbaf	0.012442513
124	0xbcd8004d	-0.02636733
125	0xbb060956	-0.0020452342
126	0xbca948dc	-0.020664625
127	0xbceb7bbe	-0.028745528
128	0x3d07f96d	0.033196855
129	0x3b11f1d6	0.002226939
130	0x3ce839da	0.028347898
131	0xbb11d0d3	-0.0022249713
132	0x3c0e0d4c	0.008670162
133	0x3a3d1723	0.00072132255
134	0x38ca845a	9.656763e-05
135	0x3cf6585e	0.030071434
136	0xbc9727af	-0.01845154
137	0x3d097e7d	0.033567894
138	0x3cd8797d	0.026425118
139	0xbb698bdb	-0.003563634
140	0xbc40fda3	-0.011779222
141	0xbd0ce9e0	-0.034402728
142	0xbd1e0d5e	-0.038586967
143	0xbc8044f1	-0.015657874
144	0xbc911195	-0.01770858
145	0x3bf9f5be	0.0076281717
146	0x3d03c63e	0.03217148
147	0xbcfee020	-0.03111273
148	0x3ba1102a	0.004915257
149	0x3d0acd96	0.03388747
150	0xbc6ee9b2	-0.0145820845
151	0x3d158a16	0.036508642
152	0xbce880e7	-0.028381778
153	0xbd0c65fd	-0.03427695
154	0x3c328471	0.010895834
155	0x3d1bb0dc	0.038010463
156	0xbb361e2c	-0.002778898
157	0x3cb3d7f4	0.02195356
158	0x3c9567eb	0.018238029
159	0xbc610b51	-0.013735608
160	0x3d57baa0	0.052668214
161	0x3d4919f1	0.049097005
162	0xbcf7498c	-0.030186437
163	0x3cc3fd9e	0.023924645
164	0x3d031d01	0.032010082
165	0x3c91c13d	0.017792339
166	0x3a749c9b	0.00093311974
167	0x3cca27b5	0.024677137
168	0xbce22af9	-0.027608382
169	0x3cbc81b8	0.023011073
170	0xbc56e01f	-0.013114958
171	0x3d76b5be	0.060231917
172	0x3cbd76e2	0.023127977
173	0xbd5baef6	-0.053633653
174	0xbd6514d7	-0.055928078
175	0x3d5972d7	0.053088035
176	0x3d1e2e7c	0.03861855
177	0x3d57a99f	0.052651998
178	0x3c932f75	0.017966965
179	0x3d5bc461	0.05365408
180	0x3ce92d81	0.02846408
181	0x3cc0a11d	0.023514325
182	0x3d1a2cf4	0.037640527
183	0xbd1db018	-0.038498014
184	0x3cf64233	0.030060863
185	0xbbf38fdc	-0.007432921
186	0x3d8a9da0	0.06768346
187	0x3d08590e	0.033288054
188	0x3c82cd21	0.015966954
189	0x3d310449	0.043216977
190	0xbcaf8525	-0.021425793
191	0x3cc855c7	0.024454964
192	0xbcadfa32	-0.021237466
193	0x3c9d35c9	0.019190686
194	0x3d41dbe7	0.047328856
195	0xbad48513	-0.0016213976
196	0x3b46b04a	0.0030317479
197	0x3d4d040c	0.050052688
198	0xbb57a010	-0.0032901801
199	0x3d947234	0.07248345
200	0x3ce8b2f9	0.028405653
201	0x3ce9a164	0.02851934
202	0xbac9cc82	-0.0015396031
203	0x3c261b57	0.010138354
204	0xbd0bd379	-0.034137223
205	0x3d35ca38	0.044382304
206	0x3b18775e	0.0023264508
207	0x3bd9c4ec	0.0066457894
208	0x3cdfe0d8	0.027328894
209	0xbc900577	-0.01758073
210	0x3ce2b198	0.027672574
211	0xbc36a9cd	-0.011148882
212	0x3d17512c	0.036942646
213	0x3cf72890	0.030170709
214	0x3d3ad230	0.045610607
215	0x3d512aee	0.05106633
216	0x3d0d8bb8	0.034557074
217	0xbd815e67	-0.06316834
218	0x3d28c580	0.041203976
219	0xbb8fb6a3	-0.0043857857
220	0x3c5e02b0	0.013550445
221	0xbcaba3e2	-0.020952169
222	0x3bda0ab9	0.0066541103
223	0xbb068657	-0.002052685
224	0x3ccc9d0e	0.024977233
225	0x3cc4e4d9	0.024034904
226	0x3d0b7de6	0.034055613
227	0xbb6ebca7	-0.0036428364
228	0x3cd7460f	0.026278524
229	0xbca6cc8f	-0.020361213
230	0x3d2afcaa	0.041744865
231	0x3af525c2	0.0018703269
232	0x3d227477	0.03966185
233	0xbd22ec0c	-0.039775893
234	0xbcbf69c2	-0.023365859
235	0xbc856c47	-0.016286982
236	0xbd92873b	-0.071546994
237	0x3d0353ba	0.03206227
238	0xbd138c0a	-0.036022224
239	0x3d2e7c70	0.04259914
240	0x3d02c10f	0.031922396
241	0x3d6fef14	0.058577612
242	0x3a3d43be	0.0007219872
243	0xbd060f1c	-0.032729253
244	0x3d8eeaf5	0.06978408
245	0x3d6ad4e4	0.057331935
246	0x3d2cf051	0.04222137
247	0x3d512812	0.051063605
248	0xbc54fa75	-0.012999167
249	0x3cd70d67	0.026251508
250	0xbc85a872	-0.016315673
251	0xbcf5c85f	-0.030002771
252	0x3c86fd59	0.016478227
253	0x3be1e6e8	0.0068939812
254	0x3cb2e324	0.021836825
255	0xbc01d7e2	-0.007925006

model.2.bias f4 [256]
0	0xbc87dbdf	-0.016584335
1	0x3d1b66f0	0.037939966
2	0x3d27be33	0.040952872
3	0x3a660ea3	0.0008775985
4	0x3c83fece	0.016112711
5	0xbd320766	-0.043464087
6	0xbcfffe4b	-0.031249186
7	0x3d302584	0.043004528
8	0xbc142834	-0.009042788
9	0x3c02cfde	0.00798413
10	0xbaf75e2f	-0.0018872673
11	0xbcee0864	-0.029056735
12	0x3bdf6e1d	0.0068185464
13	0xbc823488	-0.01589419
14	0xbd03f1d3	-0.032213043
15	0xbd9eb022	-0.077484384
16	0xbcde902b	-0.027168354
17	0xbc48d64f	-0.012258126
18	0x3d1d7b28	0.03844753
19	0x3cf00a62	0.029301826
20	0xbcc0594f	-0.023480086
21	0x3c86d177	0.016457302
22	0xbc9510d3	-0.018196499
23	0x3cb1995d	0.021679575
24	0x3ca7d287	0.02048613
25	0xbcbfcf7a	-0.023414362
26	0xbc536d68	-0.012904502
27	0x3c9cb68d	0.019130016
28	0x3c5af1f0	0.013363346
29	0x3cad2ef6	0.021140557
30	0xbd0030b3	-0.031296443
31	0xbc5b4079	-0.013382071
32	0xbc2b5ed7	-0.010459623
33	0xbd0676e9	-0.032828245
34	0xbce6cf50	-0.028175026
35	0x3cc04e55	0.023474852
36	0x3d323a79	0.043512795
37	0x3c89b2e4	0.016808935
38	0x3cd34a41	0.025792243
39	0x3c4b7e60	0.012420267
40	0x3893529f	7.0248956e-05
41	0x39c04891	0.0003667516
42	0x3ca520c2	0.020157222
43	0xbc878457	-0.016542597
44	0x3c32725c	0.010891523
45	0xbda426ac	-0.080151886
46	0xbd67159c	-0.056417093
47	0x3c531ac3	0.012884798
48	0x3c303146	0.010753935
49	0x3a91f1f6	0.0011134732
50	0xbcafd110	-0.021461993
51	0xbd2753ae	-0.040851288
52	0x3c4f4e10	0.012652889
53	0xbd28ca04	-0.041208282
54	0xbcefe053	-0.02928177
55	0x3c08080a	0.008302698
56	0x3cd6ec6f	0.026235787
57	0xbc0ba19a	-0.0085224155
58	0x3d0ae01e	0.03390514
59	0xbd4f71d6	-0.05064567
60	0xbd7b4f88	-0.061355144
61	0xbd26ce57	-0.040724125
62	0xbc5e77d9	-0.013578379
63	0xbccab76c	-0.024745665
64	0x3c6e7b43	0.014555755
65	0x3bde699f	0.0067874934
66	0x3d2f9aa6	0.042872094
67	0xbc89c175	-0.01681588
68	0x3b927eba	0.0044706734
69	0xbd8ab9ff	-0.06773757
70	0x3d1b7e8b	0.037962478
71	0x3d3f6f24	0.04673685
72	0x3d4dda78	0.050257176
73	0xbd447f0d	-0.047972728
74	0xbd3f1a00	-0.046655655
75	0x3c2a0311	0.010376708
76	0xbc763104	-0.015026335
77	0xbc182f90	-0.0092886835
78	0xbd4443ab	-0.047916096
79	0xbc87daa6	-0.016583752
80	0xbd0fcc26	-0.0351068
81	0x3c3d9d8b	0.011573206
82	0x3c9ac7e8	0.01889415
83	0xbc9bdb3b	-0.019025436
84	0x3ccaff2f	0.024779884
85	0xbb2b19b7	-0.0026107857
86	0x3c52384b	0.012830804
87	0x3cb03c9b	0.021513274
88	0x3d3d785d	0.046257365
89	0x3bc40677	0.005982216
90	0x3c329836	0.010900548
91	0xba448cbe	-0.0007497779
92	0x3d03dd1b	0.032193284
93	0xbcba534d	-0.022744799
94	0x3ca45790	0.020061284
95	0x3cf61edd	0.030044014
96	0xbc021513	-0.007939595
97	0xbc5020a4	-0.012703095
98	0x3d163beb	0.036678236
99	0x3cc64124	0.024200983
100	0xbd1e7be3	-0.038692366
101	0x3d28b062	0.041183837
102	0x3d025fc5	0.031829614
103	0xbcccd74e	-0.025005009
104	0xbcf0a322	-0.029374663
105	0x3c585897	0.013204715
106	0x3c25c2a5	0.010117208
107	0xbc859134	-0.01630459
108	0xbd14848b	-0.036259215
109	0x3d209c9a	0.039211847
110	0xbbe8f140	-0.0071088374
111	0xbc8d7bf9	-0.017271029
112	0x3b37dce7	0.0028055252
113	0xbbc9c21b	-0.0061571724
114	0xbc23737f	-0.009976267
115	0xbd1ed8e5	-0.038781065
116	0x3bfda311	0.0077403863
117	0xbd568198	-0.052369684
118	0x3cd5e22c	0.026108824
119	0xbd63c639	-0.05560896
120	0x3ce5a88b	0.02803447
121	0x3cd99ecd	0.02656498
122	0x3b30cf5f	0.0026979072
123	0xbd29ec10	-0.041484892
124	0x3cf6d998	0.030133054
125	0xbcd3d0d1	-0.025856407
126	0xbd5742e1	-0.052554015
127	0x3cd23325	0.025659153
128	0x3ab3aa7e	0.0013707427
129	0x3d38a628	0.045080334
130	0xbc8196f4	-0.01581905
131	0xbad243df	-0.0016041956
132	0x3c7da168	0.015480377
133	0x3cfc6a89	0.030812519
134	0x3d019372	0.031634755
135	0x3c194cff	0.009356736
136	0x3c232dd6	0.009959659
137	0x3d1b5ddb	0.037931304
138	0x3d196a80	0.037455082
139	0xbc81587b	-0.015789261
140	0xbba172e3	-0.0049270256
141	0xbcd0d803	-0.025493627
142	0xbc172e06	-0.009227281
143	0xbcad6370	-0.02116558
144	0x3cd247ae	0.025668945
145	0xbbc9d085	-0.0061588907
146	0xbc45637d	-0.012047646
147	0xbce80555	-0.028322855
148	0x3cf0f7c8	0.029415026
149	0x3c2f4dd7	0.010699711
150	0xbc04ed32	-0.008113192
151	0xb879c810	-5.955255e-05
152	0xbcaa2925	-0.020771572
153	0xbd012aa6	-0.031534813
154	0xbc3e6b97	-0.011622331
155	0x3ce1b828	0.027553633
156	0xbb4d6974	-0.0031343373
157	0x3b9500a4	0.0045471955
158	0xbcdbc610	-0.026827842
159	0x3c56992d	0.013098043
160	0x3ceb76b6	0.02874313
161	0xbd07d596	-0.033162676
162	0x3bee6921	0.007275716
163	0x3d3b0733	0.045661163
164	0x3b87a92b	0.0041400394
165	0xbbfe87fa	-0.0077676745
166	0x3cadc4c3	0.021211987
167	0x3d0e758c	0.03478007
168	0x3be062ef	0.0068477313
169	0x3cc7d8b9	0.024395334
170	0x3d13a670	0.0360474
171	0x3d15b63f	0.036550757
172	0x3c8102af	0.01574835
173	0xbcafde71	-0.021468373
174	0x3cbe46ba	0.023227084
175	0x3af3688d	0.0018570587
176	0x3c031a7c	0.00800192
177	0xbc2f439c	-0.010697272
178	0x3c830e2b	0.015997967
179	0x3d2536d7	0.040335502
180	0x3b9bbda5	0.004752832
181	0xbca9670c	-0.02067902
182	0xbcc10f58	-0.023566887
183	0xbcff906e	-0.0311968
184	0xbc804850	-0.015659481
185	0xbbf5fb03	-0.0075067296
186	0x3cebac63	0.028768724
187	0xbbab58fc	-0.0052291136
188	0xbb2df338	-0.0026542675
189	0xbd2cfc20	-0.042232633
190	0xbd108155	-0.03527959
191	0x3ccef4dc	0.025263242
192	0x3bf6891e	0.00752367
193	0xbc4e018c	-0.012573611
194	0x3cd74545	0.026278147
195	0xbcdc6bc7	-0.026906861
196	0x3d2a9b7b	0.041652184
197	0xbd543174	-0.051804975
198	0x3ca8c8f0	0.020603627
199	0xbc4ddff3	-0.012565601
200	0xbcd18073	-0.025573945
201	0x3c5be0b1	0.01342027
202	0xbd9d385f	-0.076767676
203	0x3bec3566	0.007208514
204	0xbc852edf	-0.016257701
205	0x3c6d364d	0.014478278
206	0x3be14e5c	0.0068757962
207	0x3d118530	0.035527408
208	0x3bafdcf5	0.0053669163
209	0x3b474cf8	0.0030410867
210	0xbd1524a0	-0.03641188
211	0x3d48295f	0.04886758
212	0x3b7071c8	0.0036688913
213	0xbc5b7f4b	-0.013397048
214	0xbcf2e091	-0.029648097
215	0x3d2a1746	0.0415261
216	0xbc75eac3	-0.015009585
217	0xbd2a481a	-0.041572668
218	0x3ca3d4ba	0.019998897
219	0xbbf451e8	-0.007456053
220	0x3d4e4910	0.050362647
221	0xbd1cdced	-0.03829663
222	0xbabe20ee	-0.0014505663
223	0xbd219324	-0.039446965
224	0xbc1d5de6	-0.009604907
225	0x37777493	1.4749489e-05
226	0xbc660265	-0.014038657
227	0xbba0e456	-0.0049100323
228	0xbd1ea858	-0.038734764
229	0x3cb8c74a	0.022555966
230	0x3d42fac5	0.047602434
231	0xbbd017fc	-0.0063505154
232	0x3ceafc04	0.028684624
233	0x3d08a1d0	0.03335744
234	0x3d62a583	0.055333626
235	0x3cce5d13	0.025190866
236	0x3d115923	0.035485398
237	0x3cc3999f	0.023876963
238	0xbc461b6f	-0.012091502
239	0xbc84ec70	-0.016226023
240	0x3cd44b05	0.025914678
241	0xbc49b3fe	-0.01231098
242	0x3ce77694	0.028254785
243	0xbd03a7d7	-0.032142486
244	0x3cb73e02	0.022368435
245	0x3cdada3c	0.02671539
246	0x3d137ec7	0.036009576
247	0xb889370e	-6.542924e-05
248	0xbd138a5b	-0.036020618
249	0xbc884936	-0.016636472
250	0x3d0d5986	0.034509204
251	0xbcdbde0f	-0.026839284
252	0x3d103cf3	0.035214376
253	0xbce97308	-0.028497234
254	0xbb72c09c	-0.0037041074
255	0x3d26c40e	0.040714316

model.4.weight f4 [1, 256]
0	0xbda366f7	-0.07978623
1	0x3d52963a	0.0514128
2	0xbcd5435f	-0.026033102
3	0xbd7b8ac3	-0.06141163
4	0x3d02c6d8	0.031927913
5	0xbd3f835c	-0.046756133
6	0x3d7ae16e	0.061250143
7	0xbd28611c	-0.041108236
8	0x3dcadfac	0.09905943
9	0x3d2900fc	0.041260704
10	0xbd9ecde7	-0.077541165
11	0x3d8a7557	0.06760662
12	0x3d2008a9	0.03907076
13	0xbdbad1c9	-0.091220446
14	0x3ced5313	0.028970277
15	0x3d828332	0.0637268
16	0x3d0506f3	0.03247733
17	0xbd66d11e	-0.056351773
18	0xbd91e94f	-0.07124578
19	0x3d89c503	0.0672703
20	0x3d684948	0.05671051
21	0x3d4e22a3	0.050326
22	0xbdb8fdf4	-0.09032813
23	0xbd7081a9	-0.058717404
24	0xbd88bdf9	-0.066768594
25	0xbdc6d32d	-0.09708247
26	0x3d84e370	0.06488693
27	0xbda36faa	-0.079802826
28	0x3db70150	0.08935797
29	0xbdb174c5	-0.0866485
30	0x3d9840f2	0.07434262
31	0x3d9ac468	0.07556993
32	0xbdba6312	-0.091009274
33	0x3d5419fb	0.05178259
34	0x3d5eb273	0.0543694
35	0x3d34fffd	0.044189442
36	0xbdbe8fb4	-0.09304753
37	0xbd223ea4	-0.03961052
38	0xbce58860	-0.02801913
39	0xbd0f13d9	-0.034931038
40	0xbdf5e26e	-0.12006079
41	0xbd5d3796	-0.05400809
42	0x3d90db33	0.07073059
43	0xbd5bcb87	-0.053660896
44	0xbd79f430	-0.06102389
45	0x3dd33c32	0.10314216
46	0x3d480389	0.048831496
47	0xbdb2a02f	-0.08721959
48	0x3d544beb	0.051830214
49	0xbdac4631	-0.084118254
50	0xbdaf9a6c	-0.085743755
51	0x3dc0893a	0.09401174
52	0x3d8da65d	0.06916497
53	0x3d4f7179	0.050645325
54	0xbd76b142	-0.06022764
55	0xbd86117a	-0.06546302
56	0x3cf46a3e	0.029835816
57	0xbd5c353f	-0.053761717
58	0x3dc834df	0.09775709
59	0x3d95267d	0.07282732
60	0x3d76ab76	0.06022211
61	0x3d77bd2d	0.060483146
62	0x3cec183f	0.028820155
63	0xbd5f356c	-0.054494306
64	0x3ce05ee1	0.027388992
65	0xbd4d66cc	-0.050146863
66	0x3da15f82	0.07879545
67	0x3dc178e5	0.09446887
68	0xbd985409	-0.074379034
69	0x3c016be6	0.00789926
70	0x3d99e672	0.07514657
71	0xbd83cfa1	-0.064360864
72	0xbda592ef	-0.08084666
73	0xbdac5701	-0.08415032
74	0x3d87a6d5	0.066236176
75	0xbd7f2c23	-0.06229795
76	0xbd8f90ca	-0.07010038
77	0x3d653ca0	0.05596602
78	0x3d441dee	0.047880106
79	0xbd80cc11	-0.062889226
80	0xbd77d1d1	-0.06050283
81	0xbd5dc8a7	-0.054146435
82	0xbdd281b4	-0.10278645
83	0xbd90c03e	-0.07067917
84	0x3d968099	0.07348747
85	0x3daaf0f9	0.08346743
86	0xbd3590d5	-0.044327576
87	0xbd988d4f	-0.074488275
88	0x3d9c5f46	0.076353595
89	0xbd39b0a1	-0.045334462
90	0xbda52c61	-0.08065105
91	0xbd56ee65	-0.052473444
92	0x3d8ed41d	0.06974051
93	0x3d831230	0.06399953
94	0x3da77255	0.08176104
95	0x3d3b7f49	0.045775685
96	0xbd90a49d	-0.070626475
97	0xbcc11906	-0.023571502
98	0xbd86307e	-0.06552218
99	0x3d8b33e2	0.06797005
100	0x3d76cd6e	0.060254507
101	0x3d6cbdca	0.057798184
102	0xbd9d0e2f	-0.07668721
103	0x3cf0e9ec	0.029408418
104	0xbcba44af	-0.022737829
105	0xbc78f323	-0.015194687
106	0xbd7c9802	-0.061668403
107	0xbd628170	-0.055299222
108	0x3d01771f	0.031607743
109	0xbd2fea41	-0.04294801
110	0x3db5979f	0.0886681
111	0xbd86ac84	-0.065758735
112	0xbd305a38	-0.04305479
113	0x3d41b117	0.047288027
114	0x3da668d3	0.081254624
115	0x3d1419c7	0.036157396
116	0x3ccede89	0.025252597
117	0x3d957324	0.07297352
118	0xbd8b9441	-0.068153866
119	0xbd5d7095	-0.054062445
120	0x3da68f87	0.081328444
121	0xbcd12f60	-0.025535285
122	0xbcd91c2b	-0.02650269
123	0x3d3ea0f6	0.046540223
124	0x3dba33b9	0.090918966
125	0xbda916f4	-0.08256331
126	0x3d4aecce	0.04954224
127	0x3d4ddd22	0.050259717
128	0x3d3e3db5	0.046445567
129	0xbd693d00	-0.05694294
130	0x3d94d6cb	0.07267531
131	0x3d1e1c51	0.038601223
132	0xbdb37787	-0.087630324
133	0xbdc21dc3	-0.09478333
134	0xbd049ce4	-0.032376185
135	0xbd61bf7b	-0.05511425
136	0xbdbdae06	-0.09261708
137	0xbdc0eac3	-0.09419777
138	0xbd7e6067	-0.062103655
139	0xbd2eb0d2	-0.042649098
140	0xbd8ac871	-0.067765124
141	0xbd85e30b	-0.06537446
142	0x3d74de26	0.05978217
143	0x3c8afdc9	0.016966717
144	0x3d0f347c	0.034962162
145	0x3da2d846	0.07951407
146	0xbd904b25	-0.07045583
147	0x3d8d87bf	0.06910657
148	0xbcc32bbc	-0.023824565
149	0xbdb4fabf	-0.088368885
150	0x3d609cb7	0.054836955
151	0x3d96f21c	0.073703974
152	0x3d693b6c	0.056941435
153	0x3d45765b	0.048208576
154	0x3d7c0dad	0.06153648
155	0x3db63531	0.08896864
156	0xbdbd71a6	-0.09250192
157	0x3d8493a0	0.0647347
158	0xbda6608f	-0.08123886
159	0xbda49ad2	-0.08037342
160	0xbd56f3c5	-0.05247857
161	0x3da5d75a	0.08097716
162	0x3d970e59	0.073757835
163	0xbd93358b	-0.07187947
164	0xbdaa9240	-0.08328676
165	0x3d20fae1	0.039301757
166	0xbdab1b96	-0.08354871
167	0x3d8e15dd	0.06937764
168	0x3d87f05e	0.06637643
169	0x3daa6ce4	0.083215505
170	0x3d8d7f00	0.06908989
171	0xbd76d1d2	-0.060258694
172	0xbd4981dc	-0.04919611
173	0x3d935963	0.071947835
174	0x3d2fd8c7	0.042931344
175	0x3d89ad4a	0.067225054
176	0xbd8de9d3	-0.06929364
177	0x3d876bab	0.06612333
178	0xbcfab1a3	-0.030602282
179	0xbd6b45db	-0.057439666
180	0x3d0c34af	0.03422993
181	0x3d457b56	0.048213325
182	0xbd196d68	-0.037457854
183	0x3d6570af	0.056015667
184	0x3d60b122	0.054856427
185	0x3ce1af16	0.027549308
186	0x3d53557e	0.051595204
187	0xbd5ebcef	-0.0543794
188	0x3d38b4ec	0.045094416
189	0x3d5f92b5	0.05458327
190	0x3da87507	0.08225446
191	0xbd98488b	-0.074357115
192	0x3d4f04b8	0.05054161
193	0x3cf70a79	0.030156361
194	0xbd4992c9	-0.04921225
195	0x3d42b101	0.047532085
196	0xbd8e4468	-0.06946641
197	0xbda91bab	-0.0825723
198	0xbdd6c793	-0.104872845
199	0x3d50b521	0.050953988
200	0xbdb22e52	-0.08700241
201	0x3d543493	0.05180795
202	0x3de6dd95	0.11272732
203	0x3d64847d	0.055790413
204	0xbd997c19	-0.07494373
205	0xbd8b1f6e	-0.06793104
206	0x3d94547f	0.07242679
207	0xbd306968	-0.043069273
208	0xbdb43554	-0.08799234
209	0x3d24920c	0.040178344
210	0x3d29cb53	0.04145367
211	0xbda23dc7	-0.07921939
212	0x3cb86914	0.022511043
213	0xbdbb5018	-0.09146136
214	0x3daf9211	0.08572782
215	0xbd5b9b70	-0.053615034
216	0x3d75aa40	0.059976816
217	0x3d242a50	0.040079415
218	0x3d96388d	0.07335005
219	0x3d488226	0.048952244
220	0xbd9b6e7b	-0.07589432
221	0xbd591a99	-0.05300388
222	0x3d88a248	0.06671578
223	0xbd1208fa	-0.035653092
224	0xbd5a3dd6	-0.053281628
225	0x3d9091cd	0.07059059
226	0xbd9ca95f	-0.076494925
227	0xbcca3f99	-0.024688529
228	0xbd7c9a7a	-0.061670758
229	0xbd528c30	-0.051403224
230	0xbd872130	-0.06598127
231	0xbdadf177	-0.084933214
232	0x3d5fb9f9	0.054620717
233	0xbd90b0db	-0.070649825
234	0x3d5f1aac	0.054468796
235	0xbd3f9654	-0.046774223
236	0x3d9ff61d	0.07810614
237	0x3cffb578	0.03121446
238	0x3d7ade63	0.06124724
239	0x3d722faa	0.059127487
240	0x3cf67cd5	0.030088821
241	0x3d87366a	0.066021755
242	0xbd2f0bf1	-0.042735998
243	0x3d91fae4	0.07127932
244	0xbd846d5e	-0.06466173
245	0xbd95eee1	-0.07320953
246	0xbda9f14c	-0.08297977
247	0xbcc7b719	-0.0243793
248	0x3da13f58	0.0787341
249	0x3d33ab99	0.04386482
250	0xbdcbfbf1	-0.099601634
251	0x3d3677e5	0.044547934
252	0x3d6d9c8a	0.058010615
253	0xbd37438a	-0.044742145
254	0x3d21b423	0.039478432
255	0xbdb09a7b	-0.08623215
