gans/generator_model.pth (torch, 918816 bytes, 8 tensors)

model.0.weight f4 [128, 100]
00000000: 48ab bdbd 2ec0 533d b81c dbbd 784e fc3d
00000010: 4278 eb3c 5b23 073e c4dd 3d3d 586c a33d
00000020: 42c8 d6bb aea0 6b3d 7b18 b13d d03b 59bd
00000030: b865 a53d 0431 cb3c 464c 0bbc c457 ad3d
00000040: abf0 d43d 9251 803d 396a cd3c 4d24 c8bc
00000050: ece0 a6bd 6199 41bc 191b 7dbd 79a2 d8bd
00000060: 6260 0e3d 2330 6e3c 6ca1 d3bc 7a03 c63a
00000070: 48c2 17ba bc30 99bd ecfe a7bc d80d 9f3d
00000080: 9557 093e e9d4 88bd f004 f23a 0a04 bdbc
00000090: 4811 553c 2842 b03c cce2 adbd 3198 34bb
000000a0: 3326 e1bc bf0f 02be 7996 ea3d 2b84 da3c
000000b0: 5d4f fc3d 0b30 91bd 1464 df3c c885 80bd
000000c0: 9da6 c83d aa85 a63b 484e 7fbc 6120 9dbd
000000d0: badb ab3d 82d7 24bd da9f 4a3c 8979 8abd
000000e0: d81c a83c 0a0f 78bc cf71 c0bd 50df 813d
000000f0: 8792 9dbc 846a dabd cd5e 9a3d 51eb 52bd
00000100: 4660 63bd 1f68 853c 03c6 453d 2e31 bdbd
00000110: 994f 0a3c 86f4 dd3b b0b9 8dbd 7e06 56bc
00000120: 2f01 5f3d 076b d53d 42d5 08bb 6882 583d
00000130: d610 89bd 3800 e2bc 9966 d2bd 8676 013d
00000140: 143b 25bd 80ec bb3c d7d2 b1bc 57e6 29bd
00000150: fb12 ef3d 131d 423d d4f9 3b3b 55f7 93bd
00000160: bb10 123d e8c0 603d 351b a0bc 6dd0 b8bc
00000170: 9ca1 6e3d 01e1 943d a6fb 3bbc f825 973d
00000180: fc8f 84bd f4e9 23bd 26f8 0c3c af3a ee3c
00000190: 7ece b2bd f738 65bd 80fe a0bd 917e ea3d
000001a0: 8519 f1bc 1486 ac3d f1c0 a03c 5ffc 61bd
000001b0: 5215 853d 524f 98bd ba00 10bd 1c0d b93d
000001c0: c922 a13d 1704 803d 4518 183c 996b 06bc
000001d0: eaa8 9dbd 6b22 69bd ed86 babd 6a17 003c
000001e0: 2739 eabc 1f95 9c3d 71a7 d7bc 8ce6 80bd
000001f0: 4ab3 ec3d d40a bdbc ed9d 873d 12d7 d93c
00000200: 1d29 6fbb 667f cfbd 0814 c73d 377c 38bd
00000210: 7dfd ec3d 05ca 193d 4943 d0bd c478 8d3d
00000220: cba4 83bc 3e29 b4bd 9fcb b1bd a7ef a13d
00000230: 096c 863d 0c94 673d 88d3 11bd f7fd dabd
00000240: 0ea9 143d c6dd cdbc 8529 4b3d a930 93bd
00000250: a826 133d 127a 75bd 5237 b13d 2739 9bbd
00000260: 36be 883a 3398 c73c 10f5 c63d 2f5a 973c
00000270: d73a fdbc 0c00 a33d 169f c2bc 6e43 88bd
00000280: efd6 90bd 09a0 08bc f2a0 aa3d 64a1 c5bc
00000290: 29b9 c2bd 5fbb 8f3d 162e 873c 1417 1ebd
000002a0: c976 6f3d ac9d dcbc a496 403d 55dd 64bd
000002b0: 9084 f13d 7bef 4c3d 6c48 0b3d 737d edbc
000002c0: 87d0 0cbb 261d aebc c1b3 ffbd ae02 e0bd
000002d0: 5129 54bc ea43 f73c 114b af3d 0c72 22bc
000002e0: 7514 c73d 1e5c dfbb 4f64 033d 8dd2 b2bd
000002f0: 9d48 e63d 5182 03bc c6d0 5d3d 87e3 ac3d
00000300: 4360 06bd aabb b5bd 2b49 cebd c4b4 2a3c
00000310: fc88 ab3d cb39 10be 7268 f23d d897 803d
00000320: 92e8 16bd 0eec 53bd 776b d5bd 25c4 dabc
00000330: d22f 11bc cbc7 ff3c d142 023d 403f e93d
00000340: 5757 95bb aee2 4b3d 7be0 24bd 5d40 95bc
00000350: b353 ac3d 0963 9cbc df73 7dbd c04c 8bbb
00000360: a91a 0ebb 0d11 0c3d 0311 bebd 0a41 febc
00000370: 5433 bd3d 6441 b03d 8c85 6d3d b551 71bd
00000380: 26be 773d e7fb 9abd 01dc e1bc 172f 173d
00000390: de8e 533d fb40 97bd 53bc c4bd 2b73 38bd
000003a0: 32e9 1c3d c000 793d b22d 8dbc 000e 2abd
000003b0: 9654 babd b7c8 4c3d 8ba0 dbbc 4f80 423d
000003c0: 7a4f 17bd 1ff4 01be d723 bd3d eadf f63c
000003d0: 2694 e73d aec6 903d 73cd 723d 8f0b 03bb
000003e0: 0652 6c3d 9122 22bd 99f3 49bc fcb3 b53d
000003f0: dafc c63d 3f4a ca3b ce5d a2bc cf84 253d
-0.09261185 0.05169695 -0.10698837 0.12319654 0.028743867 0.13197081 0.04635407 0.07979649
-0.0065546343 0.057526283 0.086472474 -0.053035557 0.08076042 0.024803646 -0.008502072 0.084640056
0.10397466 0.06265558 0.025075065 -0.024431372 -0.08148369 -0.011816354 -0.06179342 -0.10577864
0.034759887 0.014537844 -0.025833808 0.0015107237 -0.0005789143 -0.074799985 -0.020507298 0.07766312
0.13412316 -0.066812344 0.0018464606 -0.023073215 0.013004608 0.02151592 -0.08490524 -0.0027556533
-0.027484035 -0.12701319 0.11454482 0.02667435 0.12319825 -0.070892416 0.0272694 -0.06275517
0.09797404 0.005081852 -0.015582629 -0.076721914 0.08391519 -0.040244587 0.012367213 -0.06761462
0.020521566 -0.015140304 -0.09396707 0.063414216 -0.019234909 -0.106648475 0.07537613 -0.051493946
-0.055511735 0.016285 0.04828454 -0.09237896 0.008441829 0.006773534 -0.06920183 -0.013063071
0.05444449 0.104208045 -0.0020879065 0.05285874 -0.06692664 -0.027587995 -0.10273475 0.031607173
-0.040339544 0.02293992 -0.021706982 -0.041479435 0.11673542 0.04739101 0.0028682845 -0.07224909
0.035660487 0.05487147 -0.019544223 -0.022560323 0.05825959 0.072694786 -0.011473572 0.07380289
-0.06472775 -0.040018037 0.008604085 0.029080717 -0.087307915 -0.05596253 -0.07861042 0.11449922
-0.029431114 0.08424011 0.019623252 -0.05517232 0.06498207 -0.07437004 -0.035156943 0.090357035
0.07867963 0.0625078 0.00928313 -0.008204364 -0.076982334 -0.05691759 -0.09107766 0.007818082
-0.028591705 0.0764563 -0.02632496 -0.06293973 0.11557634 -0.023076452 0.06621919 0.026591811
-0.0036493011 -0.10131721 0.097206175 -0.045040336 0.115717866 0.037546176 -0.101690836 0.069078
-0.01606979 -0.08796929 -0.08681416 0.07907038 0.06563575 0.056537673 -0.035602123 -0.10692971
0.036294036 -0.025130164 0.049600143 -0.071870156 0.035925537 -0.05993087 0.0865313 -0.0757926
0.0010432664 0.024364566 0.09714711 0.01847562 -0.030911846 0.07958993 -0.023757499 -0.06653486
-0.07072245 -0.008338937 0.08331479 -0.024124809 -0.09507973 0.0701816 0.016501468 -0.038596228
0.05846289 -0.026930653 0.047018662 -0.05587514 0.117928624 0.050033074 0.034004614 -0.028990483
-0.0021486597 -0.021254133 -0.12485457 -0.10938011 -0.012949304 0.030183751 0.0855924 -0.009914886
0.09720699 -0.006816401 0.032078084 -0.087315656 0.11244319 -0.008026675 0.05415418 0.08441835
-0.032806646 -0.08873685 -0.100725494 0.010419074 0.08375737 -0.14084546 0.118363276 0.06278962
-0.03684289 -0.05173879 -0.10420888 -0.026704857 -0.008861499 0.031223198 0.031802002 0.11389017
-0.004557531 0.049776725 -0.040253144 -0.018219167 0.08414402 -0.019090192 -0.06187808 -0.0042510927
-0.002168337 0.03419595 -0.092805885 -0.031036872 0.09238306 0.08606222 0.05798869 -0.058915813
0.060484074 -0.07567578 -0.027570726 0.036910143 0.05164992 -0.07385441 -0.096062325 -0.045031708
0.03830833 0.06079173 -0.017233703 -0.041517258 -0.09098165 0.049996104 -0.026809951 0.047485646
-0.03694103 -0.12690781 0.092353515 0.030136067 0.11307554 0.07069145 0.059277963 -0.0019995903
0.05769541 -0.039583746 -0.012326145 0.0887222 0.09716196 0.0061734016 -0.01982012 0.04040986

model.0.bias f4 [128]
00000000: 89da a7bd 8a7e 18bd cc04 8d3c c757 913c
00000010: 6495 9b3d 12e3 923d 32c7 64bd 7d0c a5bd
00000020: 521b ccbd 280a 5f3d 7c3f cfbc c149 b63d
00000030: 43a3 0bbc 46d0 cdbd e8d9 09bc e79c 703d
00000040: c8ca 863d c1ec aabc 3cf7 c43c b154 cdbc
00000050: 1246 3a3d 2008 c53c f0e1 3e3b a2ae a73d
00000060: c073 873c 581b a13d 6db3 4bbd d286 a53d
00000070: ed86 65bb 0553 adbd 6a85 c5bd a59c fa3b
00000080: 80a3 51bd 0068 ab3c 2136 8d3d 8208 93bd
00000090: 827d 7abd bdaf 0abc baef 3d3a 5006 6a3d
000000a0: 2e70 cd3c 9295 8abd 6dac 5f3d f25f c0bd
000000b0: 8228 7bbd 7308 7cbd 8714 d5bd 0460 e03d
000000c0: 6c57 19bc b1c5 8c3c a174 91bd 23b3 38bd
000000d0: 170c dabc 8d30 34bd 9080 81bd 2de9 28bd
000000e0: 3d17 273d 9db6 57bc 209d 8c3d 18f9 98bd
000000f0: aec4 fb3c ec08 9ebd 9bd0 a13d 87a5 5abb
00000100: 900e abbc e7f0 a6bd 9cfb 57bd 5127 383d
00000110: 86cd 02bd 1c4d 653a 15aa 903d 145e 9e3c
00000120: 39ab 913d 4368 8d3c 7373 b9bc fb29 3abd
00000130: 7356 b93c 5993 8abc 24d2 0a3b 516f f2bc
00000140: c2e6 a03d 53d6 0e3d 9c54 c93d 59ae adbd
00000150: b210 893d 0338 583d 390e d7bd 86d9 28bd
00000160: 9078 7dbd 1e28 403d 0884 a5bd c751 983c
00000170: e0e1 9cbc 0e48 173d dde9 72bc 0b58 9dbd
00000180: 61af a3bd 3490 8d3c a119 70bd 95e9 cc3c
00000190: 7bbe c1ba 80da 5f3b 59d4 3f3d 9e7d e5bd
000001a0: e911 eb3c b055 58bd 699d a63d 64e9 5bbd
000001b0: 4487 7bbd 570f fa3a f61a 5bbd 2854 ca3d
000001c0: 30a8 adbc d86b d23c 8d6d e0bc 60e3 8cbd
000001d0: 406f 113c 42af 2dbd 697b 0f3d ea3e 7a3d
000001e0: fbd1 2fbd 7af3 893d a9ee 9a3d 6b28 243d
000001f0: 6798 443d 7879 27bc 3914 c1bd 0e43 21bd
-0.08195979 -0.037230052 0.017214201 0.01774205 0.075968534 0.071722165 -0.05585403 -0.080590226
-0.099661484 0.054453045 -0.025298826 0.08900786 -0.008522811 -0.10049491 -0.008413769 0.058743384
0.06581646 -0.020864846 0.024043672 -0.025064798 0.04547698 0.024051726 0.0029126368 0.081876054
0.016534686 0.078665435 -0.04973166 0.080823556 -0.003502305 -0.084631 -0.09644587 0.007648068
-0.051181316 0.020923615 0.0689509 -0.07179357 -0.06115485 -0.008464751 0.00072455 0.057134926
0.025077906 -0.067668095 0.054607797 -0.093933 -0.061317928 -0.061531495 -0.10404306 0.109558135
-0.009359222 0.01718411 -0.07102323 -0.045092713 -0.026617093 -0.043991614 -0.063233495 -0.041238
0.040793646 -0.013166097 0.06865907 -0.07469386 0.030733433 -0.077165455 0.079011165 -0.0033362822
-0.020880967 -0.08151417 -0.052730188 0.04495937 -0.031934284 0.0008747147 0.070636906 0.01933197
0.07112736 0.01726163 -0.022638058 -0.045450192 0.02262423 -0.016915964 0.0021182382 -0.029594095
0.078565136 0.034872364 0.09830591 -0.0848052 0.066926375 0.052787792 -0.1050076 -0.04122307
-0.061882555 0.04691326 -0.080818236 0.018593682 -0.019150674 0.03693395 -0.014826265 -0.076828085
-0.07992435 0.017280675 -0.05861819 0.025013724 -0.0014781499 0.0034157336 0.04683337 -0.112056
0.028695064 -0.052816093 0.08135492 -0.053689376 -0.061408296 0.0019078058 -0.05349251 0.09879333
-0.021198362 0.02568619 -0.027395988 -0.06879306 0.008876622 -0.042403467 0.035029802 0.061095156
-0.042924862 0.067358926 0.07565052 0.040077608 0.047996905 -0.0102218315 -0.09427685 -0.03937059

model.2.weight f4 [256, 128]
00000000: 22fa 0fbd 6253 67bc dfd0 3dbd 9fb7 bbbd
00000010: 5ad9 c83c 224c 33bd efae ae3c bd50 a2bd
00000020: 741a d9bd 8ae9 4bbd 24ff 843d f778 703b
00000030: f2a2 7bbc fc6f 42bd 81fe bebd a63e 6e3d
00000040: c4ae 0cbd 91e1 8a3d 7736 74bd 2723 65bd
00000050: a1da 3d3d cc3c 103d 81c9 363a a5c1 0abd
00000060: 095c 613b 7518 cc3d 1420 48bc c07a 58bd
00000070: 40d6 4b3c 1acc 19bc 0b00 cf3b 9460 56bb
00000080: ef41 803c e49c e33c 25ea a03c bb84 3c3d
00000090: 7d0e a8bd ceb3 33bd cfae 4ebd b93b a13d
000000a0: 5cbc a63c 9083 2c3d 3884 323d 93c8 cabc
000000b0: 5a53 b8bd 7a25 d7bc e9a9 1b3d 03dd 81bd
000000c0: e703 6cbd 65ba 32bd 09ca b0bd 22ea 193d
000000d0: b1a2 13bc 2bb8 883d a84e 843c ada2 ef3c
000000e0: bbdf 91bd 5670 48bc b63f efbc c234 9fbd
000000f0: fc65 b13d fe33 54bd a34e 4a3d 6303 d13c
00000100: 0e68 243c 3bf2 28bd 1831 c8bb 7b0c 95bd
00000110: e654 2abd b406 6a3d c8ce 42bd 0516 1d3d
00000120: 79d6 44bd 7472 c63d 746c 6538 8d2c 993c
00000130: 37dd d63b 4a74 8a3d 524e 2ebd fd69 0a3d
00000140: b9bf 8d3d 3991 ac3d 593d 8dbd 75f4 823d
00000150: e141 603c b164 793d 1b01 1f3d 16a7 923c
00000160: 9321 863d 1216 9a3d 4e1b 173d ab47 1f3d
00000170: bfe3 70bc a9dc 73bb d95e 5cbc 75c6 e83c
00000180: c130 3f3b 2d62 5ebd dc89 693c 4e9f d63c
00000190: c3a7 bbbc e201 cfbc 1fcd 8e3c 4780 bfbd
000001a0: badf 733d 1df7 8bbc bfce 553d 1aab b6bd
000001b0: 9b52 e2bb 4bd8 c83b 632a 03ba 3b3b 173d
000001c0: fee6 0c3d fb18 10bb a32a 6e3d 5583 693d
000001d0: 2f48 b438 25f1 6abd 2e53 20bd 803c b2bc
000001e0: afab 163d 5ea3 9a3d dacf 4a3d 3342 663d
000001f0: 3767 96bd 9e69 48bd c6b8 16bc a723 5abd
00000200: f1fd b13c 3c3e fa3c cb0d 85bc 25f1 583d
00000210: aea7 903d 6d31 923d 9bcd e23c 665b 2bbd
00000220: 2dff 543c b100 14bb 4338 b03c ffbf b1bd
00000230: 28e0 403d 05e7 aa3b 8749 49bd d16f d33c
00000240: 3f4a 09bd 0e1b 803d fd49 3c3a 496a 9c3d
00000250: 3e05 8a3d 6276 11bd 4564 b73c 7fee 4fbd
00000260: 686e 363c b424 473c 7767 6d3d 1df2 0a3d
00000270: 0b44 843d b022 bc3c 7c3d 8cbd 7ecd 9c3d
00000280: 60af 3b3c 04f0 51bd a2d0 a3bd 9b98 d63c
00000290: cb2e 603d b1bd a5bd c5df b0bd 6f78 b2bd
000002a0: 7eeb 713d 8d6f b6bd 2a3e cd3c 2945 7cbd
000002b0: 771e d8bc 96e7 05bb ee77 e83c 1253 b8bd
000002c0: 2786 2cbd f84f 8a3d 29af 3e3d 85c5 1c3c
000002d0: c69b cdbc 4f79 523d fc0e 6dbc a1a0 4b3c
000002e0: 953e 6abd eb63 b4bc dffc a43c c342 99bd
000002f0: 1db3 aa3d 9f84 32bd 07c2 2bbc 7b44 8ebd
00000300: 56f9 70bd d12f cd3b ad1c a7bd 2a9c c0bd
00000310: e132 613b e6ab bc3d a3d9 2e3d b03e fa3b
00000320: 55f6 0cbd ce6e 3d3d 0976 b0bc 7e6d 7f3d
00000330: ec3c a3bd 1446 00bc 6bc7 75bd 3a80 573a
00000340: 8483 84bd 9935 5f3d 02ec a83c 9702 32bd
00000350: d706 4dbd 71fc ddbb b6ec a83d 2fb6 8f3d
00000360: 8f78 273d 9dbe 7f3c f4b8 37bd 06d4 4c3b
00000370: d168 8b3d cec1 393d 0db3 a33d 4a26 923d
00000380: 2a0d a53d 5807 073d 6fe7 923d 1983 ab3d
00000390: e430 953c 8b2d 4f3d 797c 563d 718a b7bc
000003a0: 2853 dc3c f3c6 9bbc 1b08 dfbc 2b25 a23d
000003b0: 3ca6 b23a 723b a4bd 52ea 25bd fefe 2e3c
000003c0: a48e 843d dea1 a0bd 7d4d 87bd c5a9 523d
000003d0: 511c 65bd a754 9c3d 4260 ccbc e19f 25bd
000003e0: 150a b0bd 8a9b 593d 5b3e 23bd 19a0 f13c
000003f0: ce97 4b3d 087e 563c c688 783d 1c01 b2bc
-0.035150655 -0.014119001 -0.046341773 -0.09165882 0.024517704 -0.043773778 0.02132365 -0.07925556
-0.10600749 -0.049783267 0.06493977 0.0036693194 -0.015358673 -0.047470078 -0.093258865 0.058165215
-0.034346357 0.06781305 -0.059622254 -0.055941727 0.04635108 0.03521423 0.00069727754 -0.03387608
0.0034387133 0.09965602 -0.012214679 -0.05285144 0.012441218 -0.0093870405 0.006317144 -0.0032711374
0.01565644 0.027784772 0.019642899 0.04602502 -0.082058884 -0.043872647 -0.05045968 0.07872719
0.020353489 0.042117655 0.043583125 -0.024753844 -0.09000273 -0.026262987 0.038003836 -0.06340983
-0.05762091 -0.04363479 -0.08632285 0.037576802 -0.009010957 0.06675752 0.016150787 0.029252375
-0.07122751 -0.012233814 -0.029205184 -0.07773735 0.0866203 -0.051807396 0.0493914 0.02551431
0.010034574 -0.041246634 -0.006109368 -0.07277771 -0.04158487 0.0571353 -0.047560483 0.038351078
-0.0480561 0.09689799 5.469886e-05 0.018698001 0.0065571326 0.06760462 -0.04255516 0.033792485
0.06921334 0.084261365 -0.06896467 0.06394283 0.013687582 0.060887042 0.038819414 0.017901938
0.065493725 0.07523741 0.036891274 0.038886707 -0.014702736 -0.003721038 -0.013450348 0.028414944
0.0029173347 -0.054292846 0.01425406 0.02619901 -0.022907143 -0.025269452 0.017431794 -0.09350639
0.059539534 -0.017085606 0.05219912 -0.08919354 -0.00690682 0.0061292998 -0.00050035695 0.03692172
0.03439998 -0.0021987546 0.05814613 0.057010014 8.596514e-05 -0.05735888 -0.039141826 -0.021757364
0.036784824 0.07550691 0.04951463 0.056215476 -0.073439054 -0.04892885 -0.009199327 -0.053256657
0.021727534 0.030547254 -0.016241929 0.05296435 0.07063232 0.071383335 0.027685931 -0.04183521
0.013000292 -0.002258342 0.021511203 -0.086791985 0.047088772 0.005215528 -0.049142387 0.025810154
-0.033518072 0.0625516 0.0007182656 0.0763746 0.06739281 -0.03551329 0.02238668 -0.050764557
0.011134721 0.012154747 0.05796 0.033922303 0.06458291 0.022965759 -0.06847665 0.07656382
0.011455387 -0.051254287 -0.07998778 0.026195815 0.054732125 -0.080928214 -0.08636431 -0.08714377
0.059062473 -0.089079954 0.025054056 -0.061589394 -0.026381714 -0.0020432225 0.0283775 -0.090002194
-0.042120125 0.06753534 0.046553764 0.009568577 -0.025098693 0.05138522 -0.014468905 0.012428434
-0.05718859 -0.0220203 0.02014011 -0.07483437 0.083349444 -0.04358351 -0.010483271 -0.06946655
-0.058831535 0.0062618037 -0.08159766 -0.09404786 0.0034362602 0.092124745 0.042688023 0.0076368675
-0.034414608 0.04624825 -0.021540659 0.06236028 -0.07970604 -0.007829208 -0.060004633 0.00082207064
-0.06470397 0.054494474 0.02062035 -0.0434595 -0.05005535 -0.006774478 0.08248274 0.07017171
0.040886458 0.015609411 -0.04485412 0.0031254306 0.068071015 0.045350842 0.079931356 0.07136209
0.080591515 0.032965988 0.07173049 0.08374614 0.01821179 0.050580543 0.0523648 -0.022404881
0.02689512 -0.019015765 -0.027225545 0.079172455 0.0013629864 -0.08019151 -0.04050667 0.010680912
0.06472519 -0.07843374 -0.066065766 0.051431436 -0.055935208 0.07633334 -0.024948243 -0.040435676
-0.08595673 0.05312685 -0.03985439 0.029495286 0.04970532 0.013091572 0.060677312 -0.021729045

model.2.bias f4 [256]
00000000: 75c0 a13d 1cb4 573d 399a 8fbd 06a4 11bd
00000010: 4893 8ebd b925 8a3d 62ce a4bd 99fc 8d3d
00000020: 7170 ab3c 3d42 7cbd 27d8 66ba df7f 8fbd
00000030: a2e8 94bd 8a27 89bd b770 7abb 4e59 e4bb
00000040: 7339 febb 2de8 a3bd 0fa1 803d 3c17 8cbd
00000050: f9dd 11bd f7eb c0bc e481 1bbd 7ee9 dcbc
00000060: c88a 9dbc e377 8a3d 2996 97bc 2983 173c
00000070: d660 a6bd 7c72 553d f076 aa3b 964f a7bc
00000080: e93c 06bd 64be dc3c 1f96 5abd 64c6 aa3d
00000090: f760 3a3c d3dd 923c 672e d6bc 3b72 45bd
000000a0: a7f1 2ebd cf4f 14bd 5c24 833d 0651 793d
000000b0: 8d11 5ebd be5e a43d 793e 22bd 418f 4cbc
000000c0: f658 a9bd 91e2 ba3d 37b1 bbbd c267 813d
000000d0: b73f 9c3b 500f cebc 2e68 bbbd 6800 9b3d
000000e0: cf5b 06bc fe7b 593d 6827 183d 19e3 25bd
000000f0: 1f2d f2ba de93 bb3c f186 173d 37e0 01bc
00000100: dbfd 8b3b 61fc 92bd 67f2 a4bc b69f 62bc
00000110: d973 883d 22f9 a23c 07c1 38bd fd90 643d
00000120: 0142 85bc 7bf2 8dbd 9993 163c 867b 90bd
00000130: a2cf e0bc 26f6 983d 4f96 7cbd a51a c63d
00000140: ffbb 223d 5bdc 3e3d ab9e 29bd 1d94 82bb
00000150: 11a3 9b3d 3ff1 76bd 8fed 113d b348 c6bd
00000160: 9781 933d 6d4f 1bbc 711e 5e3d ca92 46bd
00000170: daff a2bb e35a a43d 681c b43d 6cfd 81bc
00000180: 10ad f33c ab94 57bd f1a0 cdba 9f98 e5bb
00000190: f4d4 943d 2c41 22bc 9d68 823d ed54 043d
000001a0: 572c c33c e610 2bbd e5ae 18ba b04d 54bc
000001b0: 95c8 50bd 77b3 1b3d bab4 68bd 4010 1b3d
000001c0: 2b73 873c a13b b13c 5780 493d 5e31 84bd
000001d0: 80f0 3b3d 4342 9a3d ceee 403d 5716 b13d
000001e0: 4e8e 2ebc d4ab 7abd 2cde c0bb b8ce 2fbd
000001f0: 9cbf 913d 304f 08bc e34f 67bc 545a 92bd
00000200: 0933 c93d 140f 40bd 84c1 8bbb 2f61 f1bc
00000210: 37c9 b7bc 26ce 063d e934 7abd 010b 723d
00000220: 797c 853d bf2d 44bd 5bee cb3d ba22 76bd
00000230: ae58 9b3d 7374 9f3c 9eb0 81bd d0a6 02bc
00000240: 1edd 603d c8fa a2bd 1851 393b 8dde e13b
00000250: e76c c73d eb28 993d 78db 703c 5f18 61bd
00000260: 8e26 31bd fcea c33c d9e6 fa3c a473 053d
00000270: c8d9 1c3c 244f 203d 08b1 0d3c 7cd4 763d
00000280: 74a0 9d3d 31ee 143c 0ae8 0fbd 5e95 bb3d
00000290: 82f9 073d 4ccc 9b3c 92bd 333d 0dd3 27bd
000002a0: ca6d 593d 734b 77bd 2d0c 293d c696 083d
000002b0: 79b0 823a 7f51 c0bc f12e 36bc ef75 02bd
000002c0: e2d7 6b3b 9a81 0e3d c82a 0b3d 00e8 8f3d
000002d0: b470 84bd 586e c03d 3f5b 8abd c851 61bd
000002e0: 1bb2 44bd 3648 e1bc eb53 cf3c 61f4 42bd
000002f0: f93f b03c 47a2 a5bd ec0b f73c 439d 013d
00000300: ee43 253d 17a5 663c 7241 9fbc 6431 c43c
00000310: bb84 de3c db51 863d d1e7 963d 2fe7 6b3d
00000320: a0cc 2cbd 9106 833d 2390 9ebb 7cdc 0bbd
00000330: 1e71 38bd 51fa 4e3d aa51 82bd 8c83 9dbd
00000340: 14b0 253d 3b93 7dbd 6797 713d 91b0 74bc
00000350: cdec 6ebc 5e39 f73c 737c 983d 04f9 9f3d
00000360: 67d0 013c af31 93bd e032 b23c f9d5 29bc
00000370: 8de9 9ebd 4820 9fbd 7339 163d b419 eebc
00000380: b44e 06bd e4f2 7e3d 03f8 8bbd 29ac a6bd
00000390: 9f68 a03c 69ba 07bb b9dd a03c 5395 25bd
000003a0: c626 3dbc 390b 08bc 2bc6 a53a 5ecc 8abd
000003b0: be9a 44bd 6fa4 e7bc 0457 95bd 12b6 17bd
000003c0: 55d6 9b3d 995d e4bc c59f 933d 531b 013d
000003d0: 2b5e 47bd 76d7 06bc 3a25 80bd d8a1 983d
000003e0: 0121 26bb fa05 783d dd41 8cbd de1b a8bb
000003f0: 8f54 65bd 8c2f 9cbc 5b2c d8bc 0534 713d
0.078980364 0.052662 -0.070118375 -0.035556816 -0.069616854 0.06745476 -0.08047177 0.06932945
0.02092764 -0.061586607 -0.0008806013 -0.07006811 -0.07270934 -0.066969946 -0.0038214156 -0.0069686538
-0.0077583133 -0.080032684 0.062807195 -0.06840369 -0.03561208 -0.023550017 -0.03796567 -0.026966807
-0.019231215 0.06761148 -0.01850422 0.00924758 -0.08123939 0.052111134 0.0052021667 -0.020423692
-0.032772932 0.026946254 -0.053365823 0.08338621 0.011375657 0.01792804 -0.026145173 -0.04820464
-0.042710926 -0.036208924 0.064034194 0.060868286 -0.054215956 0.08025883 -0.03961036 -0.012485326
-0.08268921 0.09125245 -0.091646604 0.06318618 0.0047683376 -0.025153786 -0.0915073 0.07568437
-0.0082006 0.053096764 0.037146956 -0.04049978 -0.0018476582 0.022897657 0.036993925 -0.007926992
0.0042722053 -0.07177044 -0.020135118 -0.013832023 0.06662721 0.019894186 -0.04510596 0.055802334
-0.016266825 -0.06931015 0.009190463 -0.0705481 -0.027442757 0.07468824 -0.061666783 0.09673051
0.03973007 0.046596866 -0.041411083 -0.0039849416 0.07599462 -0.060288664 0.035626944 -0.09681835
0.07202452 -0.009479386 0.05422825 -0.048479833 -0.0049743475 0.08025148 0.087944806 -0.015867911
0.029745609 -0.052632015 -0.0015688223 -0.0070067192 0.0726718 -0.0099032335 0.0636761 0.032307554
0.023824854 -0.041764162 -0.0005824401 -0.012957975 -0.05097254 0.038012948 -0.05681298 0.037857294
0.016534409 0.021634879 0.04919466 -0.064547285 0.045883656 0.0753217 0.047102742 0.08646839
-0.010654045 -0.061199024 -0.00588586 -0.04292175 0.07116625 -0.008319661 -0.014118168 -0.07146135
0.09824187 -0.04688938 -0.004265012 -0.029465286 -0.022434814 0.032911442 -0.061085615 0.059092525
0.06517882 -0.04789519 0.09957572 -0.06009171 0.07585274 0.019464707 -0.06332515 -0.0079743415
0.054898374 -0.07957989 0.0028277095 0.006892985 0.09737568 0.074785076 0.014700763 -0.054954883
-0.04324966 0.02391576 0.030627655 0.032580987 0.0095734075 0.039137974 0.008648165 0.060261235
0.0769662 0.009089992 -0.0351334 0.09159349 0.033196934 0.019018315 0.04388196 -0.040972758
0.05308322 -0.06037469 0.041271377 0.033346914 0.0009970806 -0.02347636 -0.01111959 -0.03185075
0.003598683 0.034791566 0.033976346 0.07026672 -0.06466809 0.093960464 -0.06755685 -0.055009633
-0.048021417 -0.027500253 0.02530857 -0.04759634 0.02151488 -0.080875926 0.030157052 0.031644117
0.040347986 0.014077446 -0.019440386 0.023949333 0.0271629 0.065585814 0.07368434 0.05759352
-0.042187333 0.06397737 -0.00483896 -0.034145817 -0.045029752 0.05053169 -0.063632324 -0.07691106
0.040451124 -0.061907988 0.05898228 -0.014934675 -0.014582825 0.030178722 0.07445612 0.07811168
0.007923222 -0.07187211 0.021752775 -0.010365956 -0.0775939 -0.07769829 0.03667588 -0.02906499
-0.0327899 0.062243357 -0.06834414 -0.08138306 0.019581137 -0.0020710474 0.019636976 -0.04042561
-0.011544889 -0.008303457 0.001264756 -0.06777261 -0.047999136 -0.02827665 -0.072919875 -0.03703887
0.0760924 -0.027876662 0.07208208 0.0315202 -0.04867379 -0.008230081 -0.062571004 0.07452744
-0.0025349262 0.060552575 -0.068485 -0.005130275 -0.055988844 -0.01906564 -0.026388338 0.0588875

model.4.weight f4 [512, 256]
00000000: a3de 443d 9618 663c 34e2 14bd 66c5 64bd
00000010: f3ac 22bd 1cc0 25bd 6fe0 79bd 96bc 83bd
00000020: bcb9 ef3c a170 12bd f282 bfbc 2d37 0c3c
00000030: a5ca 61bd 5525 57bc ca39 373c 9686 2ebc
00000040: 76b9 a5bb f6d9 b93c 083e 94bd 0a45 9fbc
00000050: 3601 ca3c 1085 dabc 14d9 43bd 0bef 1c3c
00000060: 7646 133d b290 a63b 4ab3 4e3c 97ca 32bd
00000070: eae4 163d 45b1 343d 4f20 1a3d 34d7 b1bc
00000080: b227 cfbc 5deb deba f473 6ebd 8b53 8abc
00000090: 0457 0bbd 4f6e 9dbd 3bc8 353d 1545 c23c
000000a0: 8a6f ddbc d0cf 0fbd 301e b2bc 3bf5 3c3d
000000b0: d19b 0abd f11e 043c f358 d3bb d1c3 a0bd
000000c0: 3e2d 873c 095c 233c 1c33 62bd 0b37 883d
000000d0: 9f43 123d 5229 2c3d 75d6 263d b39b b5bd
000000e0: c864 acbc 3956 443d 6a67 d93c f7c2 993b
000000f0: 4da1 dbbc a917 0bbd 1394 a5bd 2c7e 063b
00000100: 1bf3 bcbc 3a27 d13c dcd8 24bd ede1 343d
00000110: 51d8 17bd ed39 113d a0c0 d7bc c6cc e13c
00000120: d9ce 9f3c 30ff 53bb e737 dcbc db8b 083c
00000130: 8102 493a 7485 5ebd fdc3 9cbb 3d0c 80bc
00000140: 5e28 283d feac d83b 5969 4a3c 0e4a 95bc
00000150: 67ee fbbc 8b5a 893d 4042 73bd 9e86 a63c
00000160: e261 163d a2b5 89bc 277d 02bd 275d 9d3d
00000170: 7e5a 88bc ac84 423d 327b b7bc 80cc 1f3d
00000180: 8d56 06bd 35c3 1b3c ef34 713a 1b75 42bc
00000190: 3437 82bd e5d0 fd3c 6453 533d 87d9 543d
000001a0: fcc3 8fbc 77db 263d 28cb 0fbd 7a06 283c
000001b0: 945f 983c f3fe 0a3c af7e 1fbd f5fb 60bb
000001c0: e959 a13c a1c3 fd3a 6965 043d 83c8 f03c
000001d0: ed84 79bd d411 cdbc c71c 78bd 3d8c b63d
000001e0: 7c56 6fbd ce2b 8cbd 040f 783d 6c4e 94bc
000001f0: d4ae 6cbc b7ef 6abd 0e29 1cbd 06f9 c73b
00000200: 081a dbbd e06b ec3b 139f 273d 4e8f 61bd
00000210: d697 8c3c 9177 f1bc 8407 d43b f882 71bd
00000220: 51f0 803d cab9 d73c 97d2 483c bcf5 63bd
00000230: 5bce c7bb 7bc5 cfbc ca01 523b 6b12 213d
00000240: 6425 b03c 9105 1cbd bc51 46bd 4543 2c3d
00000250: 2ad9 adbc 8a61 8abd 3fb8 0fbd 9b77 153d
00000260: 1269 3d3d 36c6 c23c 97b4 2dbb 9e27 febc
00000270: 98b9 683b b3bd 463d 3b83 f63b e1f6 0fbd
00000280: dbef 3abd e920 173d b9a1 1dbc cf2a 52bd
00000290: 1afc 9dbd 14ce 99bc 6434 563c 82ec 67bd
000002a0: 6b3a 8fbd be43 883c e112 abbc 2f95 68bb
000002b0: b3fd 77b9 df17 863c ce59 953d 4da7 033d
000002c0: 132f 4d3d af37 883d 91f3 8cbc 5d1b c8bc
000002d0: e644 ffbc 41c8 c2bc 50c0 01bd da30 1fbc
000002e0: 3362 3b3d 4b1d c9bc a835 41bd eece 1cbd
000002f0: a685 91bd b54b 663d bb8c 413d 1d84 21bc
00000300: 1016 c8bc a0cd 0abd e7d9 2c3d 3f86 4e3c
00000310: a384 263d c644 e93c 2adf 78bc 1626 fe3c
00000320: 52dd b8bc 30fa 5c3d 5665 903d cbd2 96bd
00000330: d66c da3c c81c e03c 3def 44bb 4e0a a63c
00000340: 8700 6abd b17e e5bb cdca 65bd 7bc1 47bd
00000350: 108f a83d c29f 1dbd 0260 2fbd 64bd 4abd
00000360: a423 3abd 9ba4 a5bc e16f 393d e781 2fbd
00000370: 47b1 243c dcb1 00bd da0a 16bd 13d5 fb3c
00000380: dd6d 6c3c bfee 5abd 359f 1fbd e7ac 4b3c
00000390: 74de 81bd 3fa7 fabc 0cdc 3e3d 0944 67bc
000003a0: 8ca7 93bb b1e8 72bc 0f14 aa3b 1e8e 23bd
000003b0: a808 073b 4019 0ebd 794d 8abd 3571 39bc
000003c0: 8198 983c 0a04 0c3d efdb 6c3c 2c2d 9d3d
000003d0: 82e1 403d 46cd cbbb 79b0 9f3b 4302 9bbd
000003e0: e6b0 10bc f2e9 98bd ca37 d6bc 7bf9 57bc
000003f0: 127c 84bc 8afb afbd 9f0a 29bc 353b ba3c
0.048063885 0.014043948 -0.036348537 -0.055852316 -0.03971572 -0.040466413 -0.061005052 -0.06432454
0.02926337 -0.035751943 -0.02337787 0.008558077 -0.055124898 -0.013131459 0.011183212 -0.010652205
-0.005057509 0.02268694 -0.07238394 -0.0194421 0.02465878 -0.026674777 -0.047814444 0.009578477
0.03595587 0.005083167 0.012615988 -0.043650236 0.036839403 0.04411437 0.037628468 -0.021709062
-0.025287483 -0.00170074 -0.05821605 -0.01688554 -0.03401853 -0.07687055 0.044380408 0.023714582
-0.027030725 -0.035110295 -0.02174291 0.046132307 -0.033840004 0.008064018 -0.0064498126 -0.07849849
0.016501065 0.009970673 -0.055224523 0.066511236 0.03570902 0.042031594 0.040731866 -0.08867588
-0.02104415 0.04793379 0.02653857 0.004692431 -0.026810313 -0.03395811 -0.080848835 0.0020521982
-0.02306514 0.0255314 -0.040245876 0.044160772 -0.03707153 0.035455633 -0.026336968 0.027563464
0.019507812 -0.0032348149 -0.026882125 0.008334125 0.00076679146 -0.05432649 -0.004784106 -0.015630836
0.041054122 0.006612419 0.012354218 -0.018223789 -0.030753328 0.06706723 -0.059389353 0.020327862
0.036714442 -0.016810242 -0.031857636 0.07683783 -0.016644713 0.047489807 -0.022397611 0.039013386
-0.032797385 0.00950699 0.0009201308 -0.01186874 -0.063581854 0.030983398 0.0515932 0.051965263
-0.017549507 0.04073664 -0.035105854 0.01025545 0.018600263 0.008483636 -0.038939174 -0.0034329866
0.019696193 0.001936067 0.032323275 0.029392486 -0.060917784 -0.025032915 -0.06057432 0.08913467
-0.058432087 -0.068442926 0.060561195 -0.0181038 -0.014445979 -0.057357516 -0.03812509 0.006102684
-0.106983244 0.007215008 0.04092319 -0.055068307 0.017162245 -0.029475959 0.0064706225 -0.058962792
0.06295837 0.026333708 0.01225724 -0.055654272 -0.0060975975 -0.02536272 0.0032044523 0.039324205
0.021502204 -0.038091246 -0.04841779 0.04205634 -0.021221716 -0.06756885 -0.03508782 0.036491018
0.04624278 0.023776155 -0.0026505345 -0.03102475 0.0035511013 0.048520755 0.007522968 -0.03514755
-0.0456389 0.03689662 -0.009621077 -0.051310357 -0.077141 -0.018775024 0.013074014 -0.056622036
-0.06993564 0.016633864 -0.020883026 -0.003548931 -0.00023650266 0.016368804 0.072925195 0.032141972
0.05009372 0.06651246 -0.017205985 -0.02442711 -0.031160783 -0.02377713 -0.031677544 -0.009716237
0.045747947 -0.0245501 -0.04717031 -0.03828328 -0.071055695 0.056224544 0.04725335 -0.009858158
-0.024424583 -0.033887506 0.042199995 0.012605249 0.040653836 0.028475177 -0.015189925 0.03102402
-0.022566471 0.053949535 0.07050578 -0.07364424 0.026663225 0.027357474 -0.0030049824 0.020268586
-0.05712941 -0.007003628 -0.05610161 -0.0487685 0.08230412 -0.038482435 -0.04281617 -0.049497023
-0.045444146 -0.020220092 0.04527271 -0.042848494 0.010052032 -0.03141962 -0.036631443 0.03074125
0.01443049 -0.053450342 -0.03897019 0.01243136 -0.06341258 -0.030597327 0.04659657 -0.014115342
-0.004506057 -0.014825986 0.0051903795 -0.039930455 0.0020604525 -0.03469205 -0.06753058 -0.011318495
0.018627407 0.03418354 0.014456733 0.076746315 0.04709006 -0.006219539 0.004873332 -0.07568791
-0.008831238 -0.074664965 -0.02614965 -0.013182039 -0.016172443 -0.08592899 -0.010317474 0.02273331

model.4.bias f4 [512]
00000000: d977 b6bc 5436 773d 1244 c8bc 6f14 073d
00000010: 0ae9 063d ea41 553c e889 43bd 0401 30bb
00000020: db8b 23bd 5107 2f3d 36c9 a9bc 6c4d f63b
00000030: 494e 353c cec7 b03c 14ff 42bc c434 61bc
00000040: f35f c13c b3e1 87bb f6cb 5a3d 9c01 01bc
00000050: 1fe1 b1bc 6f62 863c feb8 83bd ff8d 22bd
00000060: d5f9 67bd 677d 63bb c065 8fbc 8a39 1e3d
00000070: 8cf3 553d 3c32 703d 8a8d cbbc 9398 853d
00000080: 7ae3 483d 5a50 04bd 728a 6cbd 2d40 383c
00000090: 722d 17bd e4c9 2e3d 6d2a 8ebd f4ba 46bd
000000a0: edaa 2ebd 1bae b2bc 184f 02bd 2c0b 19bd
000000b0: c51b aaba b7e1 1a3d f50f 113c a37c 223c
000000c0: 2fa1 ba3c e0d6 3ebd 8c5c e93b f8b9 afbb
000000d0: 40a3 593d 55a4 1d3d 1d68 91bc 7f85 993d
000000e0: 4ca7 143d 0246 ae3c 4183 033d d7fc 47bd
000000f0: 6217 403d b209 373c b7b0 f4bc cfc3 773c
00000100: 6fe6 bd3b b3c9 1cbc 282e 27bb a2f2 aabb
00000110: a1f7 d3bc 2379 c73b d23d a2bc e254 753d
00000120: b83b bfbb 389a 383d ed75 2a3d efa3 3abb
00000130: 2ada 8ebc 37b3 433d 20e4 8e3d 0ddf 2a3d
00000140: 8b14 5ebc f201 5cbb f3ac babb 46fa 4c3d
00000150: 4f0a 29bd 84f0 b93d 57ef a6bc 8d04 1b3d
00000160: 3e63 09bd 0e86 7ebd 2d6c c1bc d236 ad3c
00000170: 4f1d 89bc 7ee5 853d 904f 8d3c 1b34 d63b
00000180: 269c 2cbd a3e7 683d 48cc bf3a 6b1f a6bb
00000190: 16c7 fbbc c9a6 fc3c e85b 8a3d 5899 503c
000001a0: 3170 78bd cb97 95bb 5a47 643b f407 e23c
000001b0: 41cb 92bc 8ba5 773d ba5d 523d 4625 3ebc
000001c0: 41dc eabc 5777 c6bb 95a8 243d 51c7 543d
000001d0: 0c19 663c 37b6 8d3b 3e74 8bbb 371d b5bd
000001e0: 6818 0cbd cdfa 61bd 4a29 2abd b521 973c
000001f0: 1da5 71bd d0a1 463d 7234 df3a 776e 483d
00000200: 9261 70bc fe8a 45bc bb6f c3bb 209c f7bc
00000210: c0e0 aebc d3b2 0a3d 9aed 3b3c f9f5 8cbd
00000220: d50a de3c cba8 243d cd55 863c 8ad6 f1bb
00000230: 8f0d 0d3d d01b 343c b13b 2c3c 03e0 693c
00000240: d99d 50bc e7d3 58bb f39e 5b3c 5fe0 10bd
00000250: 2d46 553d ee63 063b 3262 33bd 8f04 943b
00000260: 7c00 84bd 9a5d cb3c 5beb b83b b9da 053d
00000270: 4c8c 793d 00b5 563d 8f97 21bd 2040 383d
00000280: e3ae 863d 5232 32bd a241 053b 9c27 b9bb
00000290: 59e9 723d 34fd f43c 488d 42bd 3611 7ebc
000002a0: 16ab 2d3d a06a 85bd 1a3d ee3c f224 453b
000002b0: e09d 8f3d 4b37 f5bb 013b 84bb cd67 3bbd
000002c0: 15f8 74bc d84b 243d 7283 e43c b0a8 a2ba
000002d0: 4a69 f0bc 3d6b 16bd b075 70bd 49aa 173d
000002e0: 598b 8b3c afad 863d 27b2 5f3d 632b c13c
000002f0: f6eb b4bc cc49 2bba 6df7 d0bc 689a 2dbd
00000300: e7cb 973d 39d1 27bb e1f3 7f3d d75e 1a3c
00000310: 6dde 19bd 71f2 f1b9 bd86 e8bc fe37 053d
00000320: 67d2 323d 793a 0a3c e3b7 9e3a 20ae 6b3d
00000330: 15fd 34bc 441c fc3c 9e1a aa3c d1cb 773d
00000340: a7b3 4cbd 39b3 4abb d040 7bbc 4f96 7d3d
00000350: dd9f 12bd bcea 94bc d918 70bc 6b98 62bc
00000360: dcbc 6b3d 1e16 ebbb 18cc 5f3d a57c 9c3c
00000370: 91c1 a53d 4544 a33c 074b b2bc 91f0 2e3d
00000380: 8763 75bc 2cfb 6bbd 753f bebc 8d75 2b3d
00000390: 7324 2dbd e5e9 f43c e483 503b 0ccb 1dbb
000003a0: a89f 68bc 0066 de3a 394a 8b3c aa44 dabc
000003b0: c5cb 68bd 3229 b13b f72f 783c 40fd 543c
000003c0: 4bd8 643d 9870 3f3c 2fc0 a4bc bff7 533b
000003d0: 4cd0 8f3c ef0c d13c 7011 03bd 59d8 bbba
000003e0: f9ff 233d 6e7d 623c e1b7 a83c 21b5 053d
000003f0: 562b 70bd 341a 3f3d 9058 10bd bf52 8abd
-0.022273945 0.060354546 -0.024446521 0.03297847 0.032937087 0.013016203 -0.04773894 -0.0026856074
-0.0399283 0.042731587 -0.020725828 0.0075165536 0.011066028 0.02157965 -0.011901636 -0.01374549
0.023605322 -0.0041467785 0.05341717 -0.007873919 -0.021713791 0.016404359 -0.06431769 -0.0396862
-0.056634743 -0.0034712197 -0.017504573 0.038629092 0.052234218 0.058641657 -0.024847765 0.06523242
0.049045064 -0.03230319 -0.05774922 0.011245769 -0.036908574 0.042673007 -0.06941686 -0.048518136
-0.042643476 -0.021811536 -0.03181371 -0.03736417 -0.0012978247 0.037812915 0.008853902 0.009917411
0.022781936 -0.04659164 0.007121628 -0.0053627454 0.053134203 0.038486797 -0.01774984 0.074961655
0.03629236 0.021273617 0.032107595 -0.04882511 0.0468973 0.011171745 -0.02986942 0.015122368
0.005795292 -0.009569573 -0.002550969 -0.0052169124 -0.025874915 0.0060874387 -0.019804869 0.059895404
-0.0058359765 0.04506895 0.04161637 -0.002847906 -0.017438013 0.047778334 0.06977105 0.041716624
-0.0135547025 -0.0033570495 -0.0056968867 0.050043367 -0.041269597 0.09079078 -0.020377798 0.037846137
-0.03354191 -0.062139563 -0.023611153 0.021144304 -0.016737608 0.06537913 0.017249852 0.006536973
-0.042141102 0.05686153 0.0014633024 -0.0050696633 -0.03073458 0.030841248 0.06755811 0.0127318725
-0.06065387 -0.0045652143 0.0034832568 0.027591683 -0.017919185 0.06046061 0.051358916 -0.011605566
-0.028669478 -0.006056707 0.040199835 0.051947895 0.014044058 0.0043247 -0.0042558005 -0.08843463
-0.034202963 -0.055170823 -0.041543283 0.01844869 -0.058995355 0.04849416 0.001702918 0.048933472
-0.0146717 -0.012057064 -0.005964247 -0.030225813 -0.021347404 0.033861946 0.011470223 -0.06882853
0.027104774 0.040200036 0.016398335 -0.0073803114 0.03443676 0.010992959 0.010512278 0.0142746
-0.012732946 -0.0033085288 0.013404596 -0.035370227 0.052068878 0.002050634 -0.04379482 0.004517145
-0.06445405 0.024824906 0.005643291 0.032679293 0.060924813 0.05241871 -0.03945118 0.04498303
0.06576326 -0.04350502 0.002033331 -0.0056504738 0.05930457 0.029905893 -0.047498018 -0.015507033
0.04239949 -0.06514478 0.02908187 0.0030081836 0.07012534 -0.007483398 -0.004035354 -0.04575329
-0.0149517255 0.040111393 0.02789471 -0.0012409892 -0.02934708 -0.036723364 -0.058705986 0.03702763
0.01703422 0.06576096 0.05461326 0.023580259 -0.022085171 -0.0006534129 -0.025508607 -0.04238358
0.07411938 -0.0025606884 0.06248844 0.009422026 -0.037565637 -0.00046147735 -0.02838456 0.0325241
0.043657687 0.0084367925 0.0012109246 0.057539105 -0.011046668 0.030775197 0.020764645 0.06049711
-0.049976017 -0.003092958 -0.015335277 0.061910924 -0.03579699 -0.018178336 -0.014654362 -0.013830285
0.057553157 -0.0071742674 0.054638 0.019102404 0.080935605 0.019930014 -0.021764291 0.04270989
-0.014977342 -0.057612583 -0.023223618 0.041860152 -0.04227109 0.029896686 0.0031816894 -0.0024077324
-0.014198221 0.0016967654 0.017003166 -0.02664407 -0.056834955 0.005406522 0.015148154 0.012999833
0.055870336 0.011684559 -0.020111172 0.0032343713 0.017555378 0.025518863 -0.03199905 -0.0014331444
0.040039036 0.01382385 0.020595493 0.03264344 -0.05863508 0.04665585 -0.03524071 -0.06754064

model.6.weight f4 [100, 512]
00000000: f31e 2bbd 5ede f3bb 5793 ff3c 0388 80bc
00000010: 9ff7 1dbc 146a 19bd dcb5 853a 2222 af3c
00000020: a573 e5bc 1d91 183d ff09 613d d454 ddbc
00000030: eed6 eabb a568 12bd 3e69 50bc 75ce 063d
00000040: 4fdd 2bbd 518d e8bc 5710 cebc 773d 373d
00000050: 7870 1dbd c25f dd3c 485b 2ebc 0a50 01bd
00000060: 1f2e 4c3d 4fb0 c83c e550 313d 97c8 ff3c
00000070: 3806 133c e7be cfbc ddb4 933c b30c 4b3d
00000080: d27a 283d 0549 95bc f534 37bd 0e81 753a
00000090: 3244 d9bc 7794 203d 3b35 0fbd 31ce 2f3c
000000a0: 33ea 2cbc c1eb 4b3b a4ac babc d5ca b43c
000000b0: 5ffb 07ba 62bd c43c 4ada 143d 27ea 743c
000000c0: b87d 1e3c 288d 1c3c e256 f6bb a2a7 a63c
000000d0: 13c9 183d 3587 883b 0154 23bc f1f8 0e3d
000000e0: 9c8d 92bc 77c9 223d c437 f6bb b97c 8a3c
000000f0: cc36 2a3d 8ceb 09bd a267 bcbc ed72 83bc
00000100: af17 b43b 8c11 67bb 9c64 88bc c738 c33c
00000110: 3cbe d1bb 6a37 13bd 5143 3f3c a354 393c
00000120: dfd6 7ebb ea7f 753a 22b9 7e3b 7f39 053d
00000130: e0db 5d3d e1dd 593d 6da2 953c 0f54 763c
00000140: b232 a6bc f800 153d 3be3 ea3a eb1e 6f3d
00000150: 3ba4 b33c cc93 4d3d b289 e2bc a4bf cbbc
00000160: 577a e7bc dcda 7eb9 f316 47bc 2ff4 32bd
00000170: ed1d 053d 3b94 bc3c b0e3 c53c ed3c 73bc
00000180: 98b6 1c3c 0f68 a43d be3d 483b 2c7b 84bc
00000190: c9c4 b2bc 3894 f4bb 7575 893c 8573 033c
000001a0: 83a5 15bd 474a 113c aa54 a73b a694 603c
000001b0: 8e73 fcbc 3713 04bd 7aa7 8a3b 3132 d93c
000001c0: baef f33b 9978 8a3c 17eb d83b 9c64 dd3c
000001d0: 8999 b23c 6599 c33c 50f8 9ebc 1038 ebbc
000001e0: 85d4 c3bb 72d1 7dbb 91f4 b4bc 1b1e 63bd
000001f0: a4d3 943c e122 4e3d 588f 043d 65a2 f03b
00000200: 08a3 1a3b 3b06 873c 0217 2dbd eeb7 a83c
00000210: cdcd 093d e77b 53bd 02ef 69bc 4d21 adbb
00000220: 111a ffbc 16d8 dc3c 8c18 143c 75e3 e73a
00000230: 091b dc3c 438f 28ba 5b91 bcbc 8c3b 1c3c
00000240: 5d3d f63c c272 4c3d e57f 3c3c 3bc5 563d
00000250: a59c b63c b483 563d 3d73 2c3d 04a8 053c
00000260: 5655 d23c 3d43 573d 9742 5d3a 6e6a a23c
00000270: 1367 e9bb e7de 56bc e387 23bb 3c85 1f3d
00000280: 8b75 8a3b 9df1 31bc aa94 40bd cb78 5dba
00000290: 780c cabc 0720 1a3d a7f8 4f3b 397f 7a3b
000002a0: 975d 563d ec48 913c cd23 093d 20d2 b4bd
000002b0: e170 1d3d 84ec eabc 211b c1bc e36f 28bd
000002c0: 583f 1b3d 0ee0 973c 02a4 5d3d 1d18 38bc
000002d0: ee18 62bd fa81 2f3d 0119 b53b 6991 1a3c
000002e0: b0f9 f43c 3641 14bc 6483 5f3d 6ce3 06bc
000002f0: 308e 653b 8837 8abc 2e4e 04bd 3243 693d
00000300: eb9f c23c 2ec5 02bc b1c2 4eb9 e323 beba
00000310: 90c4 a43c 0399 de39 4a68 043d 0bb5 06bd
00000320: b221 b5bc 53e7 51bc 8926 f53c c790 263d
00000330: 6f24 183d 4244 f43c 9b76 a03c 0794 b43c
00000340: 810e 233d aad9 a53c a2ae fabc 0685 343d
00000350: 7d69 46bd 9833 a1bb 075d 563b 7a0e df3a
00000360: ad99 f63b 2f32 2cbc a9b8 d8bc d1da 8bbc
00000370: 77ca a5bc c0f8 f4bc 8c2e 0b3d 7f85 dc3c
00000380: 8e97 2fbd feab 0bbd 3cb3 b3bc c48d 06bd
00000390: d8c5 ec3c d613 cb3c 139a a7bb 604c 4e3c
000003a0: 5bcd 433d dee8 c93c 2bdb 7cbb 84a4 90bb
000003b0: 078b 153d d94f b7bc 8036 083d 1668 ee3c
000003c0: c97d 9ebc ee3b 17bd 2531 f43b 2ab9 ee3c
000003d0: 1b02 9a3b 65e9 3d3b b028 cebc 4a19 0a3b
000003e0: 37d0 793d 6450 ca3c b71b 6b3a b2eb ae3c
000003f0: 7ad4 1dbc e3a3 673d e7b3 493c ed4c e03c
-0.041777562 -0.0074422797 0.031198187 -0.015689855 -0.009641557 -0.03745468 0.0010201293 0.02137858
-0.028009245 0.037247766 0.054941174 -0.027017988 -0.007166735 -0.035744328 -0.012720404 0.032911737
-0.041959103 -0.028387697 -0.025154276 0.04473635 -0.038437337 0.0270232 -0.01064188 -0.03157047
0.049848672 0.024498133 0.043290038 0.031223578 0.008973651 -0.025359584 0.018030578 0.049572658
0.041132756 -0.018223295 -0.044728238 0.0009365239 -0.026521776 0.039204087 -0.034962874 0.010730312
-0.010553884 0.0031115862 -0.0227874 0.022069374 -0.00051872985 0.024016086 0.03634099 0.014948404
0.009673528 0.009555139 -0.0075176815 0.020343605 0.037301134 0.0041665086 -0.009968759 0.034905378
-0.01788979 0.039742913 -0.007513972 0.016905176 0.041556165 -0.0336719 -0.022998635 -0.016046012
0.0054959874 -0.0035258261 -0.016649537 0.023830784 -0.0064008515 -0.03594152 0.011673764 0.011311683
-0.0038885397 0.0009365069 0.0038867672 0.032525536 0.054164767 0.053190116 0.018265927 0.01503469
-0.020287845 0.036377877 0.0017920503 0.058379095 0.021928897 0.05018978 -0.027653549 -0.024871655
-0.028256578 -0.00024304859 -0.012151468 -0.043689903 0.032499243 0.0230199 0.024156421 -0.014846069
0.009565018 0.0802766 0.003055438 -0.016172014 -0.02182235 -0.007463958 0.01677964 0.0080231475
-0.036534797 0.008867807 0.0051065283 0.013707316 -0.03081682 -0.032244887 0.0042313905 0.026513191
0.007444349 0.016903209 0.006619822 0.027025513 0.021801727 0.023876855 -0.019405514 -0.028713256
-0.005976262 -0.0038729575 -0.022089275 -0.055448633 0.018167324 0.050326232 0.032363266 0.0073435777
0.002359571 0.016482463 -0.04225827 0.020595517 0.033643533 -0.051631834 -0.014278175 -0.005283511
-0.03114036 0.026958507 0.009039056 0.0017691689 0.02686836 -0.0006430039 -0.02301853 0.009535681
0.030058557 0.04991413 0.011505102 0.052434187 0.02229149 0.052371696 0.042102087 0.008157734
0.025675457 0.052554358 0.00084404036 0.01982614 -0.007122883 -0.0131146675 -0.002495282 0.03894542
0.004225438 -0.010860828 -0.047016777 -0.00084484805 -0.024664149 0.0376282 0.0031733902 0.0038222803
0.052335348 0.017734967 0.033481408 -0.08829141 0.038437728 -0.028677233 -0.023572506 -0.04112233
0.037902206 0.018539455 0.05411149 -0.011236218 -0.055199556 0.042848565 0.0055266623 0.009434083
0.029904217 -0.009048751 0.054568663 -0.008232933 0.0035027377 -0.016872182 -0.03230112 0.056948848
0.023757895 -0.007981582 -0.00019718219 -0.0014506545 0.02011326 0.00042457142 0.03232602 -0.0328875
-0.022110794 -0.0128115 0.029925602 0.040665414 0.03714412 0.029817704 0.019587805 0.022043241
0.039808754 0.020245392 -0.03060085 0.044072174 -0.048440445 -0.0049194805 0.0032709257 0.0017017864
0.007525644 -0.010510012 -0.02645524 -0.017072113 -0.020238144 -0.02990377 0.033979937 0.026919125
-0.042869143 -0.03409957 -0.021936052 -0.032850042 0.028902933 0.024789732 -0.0051148026 0.012591451
0.047803264 0.024647173 -0.0038582783 -0.004414143 0.03650954 -0.022376942 0.0332551 0.029102366
-0.019347088 -0.036922388 0.0074521475 0.029141027 0.004699958 0.0028978225 -0.025165886 0.0021072202
0.060989585 0.024696536 0.00089686684 0.021352623 -0.009633178 0.05655278 0.0123109585 0.027380431

model.6.bias f4 [100]
00000000: 150b 713d 3efb 30bc b2e1 6c3c 7a73 c438
00000010: ad82 403d 49a7 eb3c e4ba 953b ebbe d23c
00000020: fb36 4e3d cc8e 2b3d 4d84 a5b9 aa09 23bc
00000030: 6f24 7f3d d953 bf3c 7ac4 ee3b 44ac 56bc
00000040: 1bac 12bb 4fe1 00bc 61f3 793b 6d7f fe3c
00000050: 337e 5f3c 9540 4dbb 4857 2f3d 438c 2d3d
00000060: fed8 4e3d f89c 97bc 8ec9 cfbb 27c7 e53c
00000070: d276 d3bc acc5 2abc 6442 713d b510 4cbc
00000080: 101b 013d bca4 b73c 3f47 c63c b492 92bc
00000090: 76f7 e6bc 3bba d53c 7831 86bc b5c6 89bc
000000a0: 5634 6bbb b8c7 583b a562 5c3c 92b2 99bc
000000b0: bcb8 cdbc 957c dabc bba5 793b ba7c 2d3d
000000c0: e326 413d ead1 e03c f948 a0bc 97ee 743c
000000d0: 7b0b e93c 2134 173d 4086 c8bc ffb8 7d3a
000000e0: aaa6 aebb c708 853c d0df 6a3c 6ad7 f43c
000000f0: 4606 253c 1bbf 32bc 2d29 83bc dd41 113c
00000100: 0619 273c 622b c03b b5f5 073d 1bbb efbc
00000110: 96cc 95bc 88d8 0c3d 66a5 dabc 7e6d fcbc
00000120: 701c db3c 5fd1 88bc 2d17 383c 9d18 fd3c
00000130: 3936 94bc a2de 2e3d 32b6 b6bc 41e0 a2bc
00000140: f0aa f2bc 7c7a 4e3d e3c8 4dbb 4b03 f5bc
00000150: 32bf 1a3d e554 123d 7147 383d f734 3b3d
00000160: b0c9 203d 277e 1ebb bec4 a5bb 9c6e 9e3c
00000170: ffda 95bb 2c6e 663c 5ba6 893b 68d2 a23b
00000180: 308f 423d 141c 12bc ead2 273d 81d8 103d
0.05884846 -0.010802088 0.014458107 9.3675175e-05 0.046999622 0.028766291 0.0045693982 0.025725802
0.050345402 0.04188423 -0.00031569824 -0.009951035 0.062290605 0.023355411 0.0072866054 -0.013102595
-0.0022380415 -0.007866218 0.003813945 0.03106662 0.013640928 -0.0031319011 0.042807847 0.042370092
0.05049991 -0.018507466 -0.006341166 0.028049065 -0.025813494 -0.010423105 0.058901206 -0.012455155
0.03151995 0.022417419 0.024203895 -0.01789222 -0.02819417 0.026089778 -0.01638101 -0.016818384
-0.003588935 0.0033078026 0.013451253 -0.018761907 -0.025112502 -0.026670733 0.0038093168 0.042355277
0.047156226 0.027443845 -0.019566046 0.014949462 0.028447857 0.03691495 -0.024478078 0.00096787506
-0.0053299265 0.016239537 0.014335588 0.029887874 0.0100722965 -0.010909821 -0.016010845 0.008865801
0.010198837 0.0058645466 0.03319331 -0.029264024 -0.01828603 0.034386188 -0.026690196 -0.030813929
0.026746958 -0.016701398 0.011235994 0.030895526 -0.018092262 0.042692788 -0.022303674 -0.019882323
-0.029622525 0.05040978 -0.0031400255 -0.029908797 0.037779994 0.035725493 0.044990007 0.045704808
0.039254844 -0.002418408 -0.005058854 0.019339852 -0.0045732255 0.014064353 0.0042007393 0.00496893
0.047499835 -0.008917827 0.040972628 0.035362724
